Lenet-5_mnist/model/10_model.pkl (torch, 250431 bytes, 10 tensors)

convnet.c1.weight f4 [6, 1, 5, 5]
-0.018605372 -0.22464609 -0.10906616 0.09286319 0.23984084 -0.19436784 0.116241924 -0.09078189
-0.045536745 0.1377625 -0.1961994 0.21580426 0.043583423 0.27245003 -0.11706434 0.07732048
0.32781306 0.23773535 0.29561955 0.046380147 -0.014024233 0.024461802 0.24663785 0.17583725
-0.013253755 0.016532844 -0.22418602 -0.43171808 -0.39622352 -0.26745635 0.1960409 -0.1571699
0.034750216 -0.3344237 -0.22523546 0.11799718 0.3372659 -0.013241872 0.030967345 -0.0045711603
0.030726187 0.26147884 0.3150952 0.25961196 0.23368299 0.09875035 0.04272177 0.23879267
0.08719202 0.28123915 0.20119828 -0.19743265 0.04444789 0.054371476 -0.04011473 0.19817615
-0.22825243 0.067470096 -0.1123892 0.16837016 -0.009662219 -0.047743924 0.16716364 0.21606115
0.18103172 0.11466194 0.12111346 -0.15510821 0.232141 0.14369549 0.20575333 0.14550364
-0.30980435 -0.26482606 0.014328831 -0.113559194 0.09485783 0.055961676 0.22879332 0.25115585
-0.1265176 0.27281582 0.2590523 0.13402072 0.14600012 -0.05168113 0.2854436 -0.015237791
-0.10802984 0.065075345 -0.0013161509 -0.050266106 -0.030211683 -0.22246236 -0.050471127 -0.034395225
0.09030336 -0.18795936 0.045050167 0.011529121 0.3117114 0.34597284 0.006616435 0.1026046
-0.34369498 0.14497997 0.16560894 0.12258687 -0.12889859 -0.3597834 0.19012263 0.35510787
0.056098554 -0.37206408 -0.35108238 0.13598005 0.12969995 0.096214905 -0.19092326 -0.24913968
0.22801529 0.26298088 -0.018721517 -0.27284592 -0.1256781 0.16313776 0.3296098 0.19749996
0.2367523 0.43369272 0.12563355 0.40923226 0.31338117 0.09147878 0.07156262 0.04293736
-0.15612623 -0.093114235 0.09923706 0.04735675 -0.05038089 -0.3841739 -0.2630476 -0.26669705
-0.32539806 -0.37861204 -0.283143 -0.32935074 -0.31468555 0.1251775
00000000: 4b6a 98bc a009 66be 145e dfbd 0e2f be3d
00000010: d698 753e 5d08 47be 3f10 ee3d dbeb b9bd
00000020: bd84 3abd 9d11 0d3e 7fe8 48be cbfb 5c3e
00000030: 8884 323d 927e 8b3e 6ebf efbd 335a 9e3d
00000040: 1dd7 a73e e570 733e 725b 973e 1cf9 3d3d
00000050: e6c5 65bc 1e64 c83c a28e 7c3e ae0e 343e
00000060: 4726 59bc e36f 873c 0591 65be 270a ddbe
00000070: cfdd cabe 0af0 88be f2be 483e 25f1 20be
00000080: 3e56 0e3d 9539 abbe 20a4 66be 81a8 f13d
00000090: 1eae ac3e 70f4 58bc 3baf fd3c acc9 95bb
000000a0: 7cb5 fb3c 8ee0 853e 2854 a13e dceb 843e
000000b0: 984a 6f3e a03d ca3d 06fd 2e3d 1186 743e
000000c0: bb91 b23d 94fe 8f3e ec06 4e3e c92b 4abe
000000d0: fe0e 363d a0b4 5e3d 584f 24bd b0ee 4a3e
000000e0: 01bb 69be c32d 8a3d 4f2c e6bd 3a69 2c3e
000000f0: 494e 1ebc 228f 43bd f22c 2b3e 223f 5d3e
00000100: 6160 393e e1d3 ea3d 550a f83d b0d4 1ebe
00000110: 5fb6 6d3e e924 133e 00b1 523e e8fe 143e
00000120: ad9e 9ebe 4897 87be 79c3 6a3c b991 e8bd
00000130: d244 c23d 1238 653d cc48 6a3e 8097 803e
00000140: d48d 01be 84ae 8b3e 81a2 843e ba3c 093e
00000150: 0e81 153e 98af 53bd aa25 923e eea7 79bc
00000160: c03e ddbd 3946 853d b282 acba d5e3 4dbd
00000170: 7e7e f7bc 2ccd 63be d0ba 4ebd 02e2 0cbd
00000180: f8f0 b83d 6b78 40be 8686 383d a3e4 3c3c
00000190: a398 9f3e 5a23 b13e aece d83b 5c22 d23d
000001a0: caf8 afbe a175 143e 6495 293e d30e fb3d
000001b0: fefd 03be 8835 b8be 82af 423e b3d0 b53e
000001c0: 99c7 653d 2f7f bebe 12c1 b3be 5b3e 0b3e
000001d0: 10d0 043e 520c c53d 6381 43be 791e 7fbe
000001e0: d77c 693e 6ea5 863e de5d 99bc 76b2 8bbe
000001f0: c3b1 00be 960d 273e 9ec2 a83e 6e3d 4a3e
00000200: 326f 723e f90c de3e 15a6 003e e486 d13e
00000210: 7f73 a03e 3a59 bb3d 6c8f 923d 16df 2f3d
00000220: 8edf 1fbe adb2 bebd cd3c cb3d 27f9 413d
00000230: 315c 4ebd 71b2 c4be 2dae 86be 848c 88be
00000240: 939a a6be 70d9 c1be 1ff8 90be a9a0 a8be
00000250: 771e a1be 882e 003e

convnet.c1.bias f4 [6]
-0.019560123 -0.00092060235 -0.025141189 -0.0015070301 0.06944274 0.14255126
00000000: 8d3c a0bc 9454 71ba e5f4 cdbc 8a87 c5ba
00000010: ff37 8e3d f5f8 113e

convnet.c3.weight f4 [16, 6, 5, 5]
0.036663014 0.13079306 0.1033951 0.107248835 -0.10110235 0.008154043 0.0011725868 0.12169919
0.05503724 -0.11089585 -0.04944636 0.0225699 0.09754206 0.044152852 -0.104762845 0.035396732
0.14654806 0.120958865 -0.028884163 0.0056391447 0.019024558 0.06117664 0.08195706 -0.15081939
-0.26152986 0.10277236 0.079463154 0.06847718 0.070315875 -0.14809936 -0.058693644 -0.15651849
-0.122529365 -0.079700276 -0.21805757 -0.08376072 -0.18081915 -0.08643403 -0.09800872 0.07071182
-0.017552063 -0.24343175 -0.10213788 0.016969193 0.13365953 -0.21810573 -0.30041042 -0.27155986
-0.09750724 -0.09164572 0.019300861 0.053701643 0.0044968235 0.10175144 0.10715075 0.107771255
-0.0650128 -0.08458695 0.06448632 -0.06595074 -0.15451826 0.06343776 -0.005271351 0.124182165
0.017417898 -0.12596583 0.10029065 0.110394746 0.18278793 0.08577164 0.024946183 0.054183137
0.111526884 0.019723142 0.05515964 0.06642686 0.01771622 0.05731237 -0.029609349 -0.051793884
0.16981223 0.11924802 0.13974269 -0.022026293 -0.012115948 -0.035959974 0.03624288 0.09325331
0.02277601 -0.097338445 0.01748723 -0.020773588 0.050519794 0.027644342 -0.014327807 -0.0048854835
0.032224987 0.0666544 0.00031170395 0.029677112 -0.23738533 -0.19750771 -0.021285398 0.035113197
0.09925246 -0.19424087 -0.19619864 0.08825901 0.109968334 0.07304365 -0.34681377 -0.32156667
0.06130561 0.17579149 0.124424316 -0.44949743 -0.25164315 0.10102818 0.23289938 0.10686078
-0.32966012 -0.07791991 0.14846247 0.09914822 0.08189365 0.114973485 -0.05172407 -0.25515902
-0.11221759 0.112554155 0.16536985 0.062055323 -0.24710172 -0.3028102 0.064165436 0.15550889
-0.20222233 -0.32410288 -0.27647093 -0.16233124 -0.08489379 -0.26148537 -0.298305 -0.2232431
0.017624881 0.018921508 -0.014733685 -0.09559381 0.05170367 0.18076473 0.058238626 0.08153408
-0.004807802 -0.033995304 -0.099974014 0.087067254 0.11550951 0.055317514 -0.047366936 -0.01746398
0.12663181 0.08521641 -0.038983505 0.050152253 -0.010574615 -0.04223212 0.10726767 0.001640017
0.044141125 -0.027902707 -0.20865586 -0.13984303 -0.16822712 -0.17159429 -0.1617472 0.0940571
0.21811292 0.20461774 0.11940078 0.15554784 0.023479812 0.044697143 -0.11844897 -0.041023448
0.00017205538 -0.119568035 0.07262551 0.047552425 -0.032031395 -0.10889001 -0.22514454 0.17121437
0.31701964 0.1592368 0.08452425 -0.3273769 0.007681341 0.015318794 0.011349575 0.040465377
0.040277053 0.09075738 0.09687234 0.053842217 -0.086017095 -0.036146197 0.13054125 0.16178308
0.03086625 -0.027380006 -0.052218903 0.039572977 0.07919982 -0.034076735 0.076928064 0.03668131
0.028925795 0.14326116 0.028434424 -0.029150674 -0.022190021 -0.049285717 0.10181758 -0.056699548
-0.0755049 -0.06814287 0.05424514 -0.09083747 -0.12522529 -0.12702693 -0.044206537 0.14856137
-0.0064335843 -0.024494158 0.035183687 0.06338007 0.10933767 0.023819845 0.02191243 -0.02342099
0.012983805 0.04255348 -0.10001833 -0.025831161 -0.08752626 0.05013325 0.03394092 0.019165419
0.07234144 0.0151556 0.08505989 0.060452018 -0.09170184 0.013213789 0.043688927 0.080658354
00000000: f52b 163d 9eee 053e cfc0 d33d 47a5 db3d
00000010: c00e cfbd 8998 053c 7cb1 993a 6d3d f93d
00000020: bb6e 613d 5d1d e3bd 4488 4abd 83e4 b83c
00000030: 22c4 c73d 9fd9 343d e78d d6bd 2afc 103d
00000040: b210 163e 48b9 f73d 7b9e ecbc 93c8 b83b
00000050: 64d9 9b3c 5b94 7a3d 1ad9 a73d 6670 1abe
00000060: 3ee7 85be 517a d23d 94bd a23d c43d 8c3d
00000070: c501 903d 5ca7 17be bf68 70bd 6246 20be
00000080: adf0 fabd e639 a3bd 7c4a 5fbe be8a abbd
00000090: a828 39be 5304 b1bd ccb8 c8bd 5cd1 903d
000000a0: 58c9 8fbc 2c46 79be aa2d d1bd fa02 8b3c
000000b0: 0bde 083e 1c57 5fbe 65cf 99be e509 8bbe
000000c0: e0b1 c7bd c0b0 bbbd d71c 9e3c 41f6 5b3d
000000d0: 175a 933b 0f63 d03d da71 db3d 2db7 dc3d
000000e0: 6e25 85bd ec3b adbd 6711 843d 2e11 87bd
000000f0: 093a 1ebe a8eb 813d 4cbb acbb 3853 fe3d
00000100: fbaf 8e3c 30fd 00be 2f65 cd3d a416 e23d
00000110: c22c 3b3e 0ba9 af3d f05b cc3c 23ef 5d3d
00000120: 3568 e43d 6d92 a13c 13ef 613d ce0a 883d
00000130: 9b21 913c 60c0 6a3d 4e8f f2bc d325 54bd
00000140: 42e3 2d3e 4e38 f43d b518 0f3e 7c70 b4bc
00000150: f881 46bc c44a 13bd 6a73 143d 97fb be3d
00000160: c194 ba3c 6159 c7bd 6141 8f3c 5f2d aabc
00000170: d8ed 4e3d 6376 e23c 2ebf 6abc 6816 a0bb
00000180: 59fe 033d 1a82 883d 326c a339 6a1d f33c
00000190: 2415 73be 763f 4abe b75e aebc dbd2 0f3d
000001a0: e044 cb3d 14e7 46be 4ce8 48be 24c1 b43d
000001b0: 1437 e13d e997 953d 9391 b1be 63a4 a4be
000001c0: 971b 7b3d af02 343e 2dd2 fe3d 8724 e6be
000001d0: 5fd7 80be dde7 ce3d 2d7d 6e3e d3d9 da3d
000001e0: 36c9 a8be 7994 9fbd 8c06 183e 390e cb3d
000001f0: dcb7 a73d 3877 eb3d 9edc 53bd 34a4 82be
00000200: 56d2 e5bd cb82 e63d b756 293e b92d 7e3d
00000210: 3c08 7dbe f009 9bbe 2b69 833d b93d 1f3e
00000220: 5f13 4fbe d0f0 a5be 998d 8dbe 293a 26be
00000230: ccdc adbd 69e1 85be 6fbb 98be d799 64be
00000240: 0e62 903c 4701 9b3c 8e65 71bc b0c6 c3bd
00000250: 3ac7 533d 641a 393e a08b 6e3d 57fb a63d
00000260: c48a 9dbb a93e 0bbd 2dbf ccbd 5150 b23d
00000270: 4090 ec3d 9e94 623d d503 42bd 9f10 8fbc
00000280: c5ab 013e f185 ae3d 2bad 1fbd 736c 4d3d
00000290: 2641 2dbc 96fb 2cbd 27af db3d d7f5 d63a
000002a0: 53cd 343d 3894 e4bc e2a9 55be 0333 0fbe
000002b0: bb43 2cbe 6ab6 2fbe 0fa1 25be 02a1 c03d
000002c0: fe58 5f3e 5087 513e 6588 f43d ef47 1f3e
000002d0: bc58 c03c 5a14 373d 6095 f2bd 3408 28bd
000002e0: c469 3439 16e0 f4bd afbc 943d 55c6 423d
000002f0: 5a33 03bd ba01 dfbd 4a8c 66be d252 2f3e
00000300: 6650 a23e f90e 233e 0d1b ad3d f29d a7be
00000310: c2b3 fb3b aefb 7a3c 91f3 393c 06bf 253d
00000320: 8df9 243d 01df b93d 0165 c63d a889 5c3d
00000330: bb29 b0bd 090e 14bd 9bac 053e 77aa 253e
00000340: 38db fc3c 094c e0bc 7de3 55bd 4617 223d
00000350: 8433 a23d 0c94 0bbd 768c 9d3d 243f 163d
00000360: caf5 ec3c 0eb3 123e 4fef e83c 65cd eebc
00000370: d9c7 b5bc d2df 49bd bc85 d03d c93d 68bd
00000380: 50a2 9abd 7d8e 8bbd 2730 5e3d ff08 babd
00000390: 0f3b 00be 5913 02be ea11 35bd 7920 183e
000003a0: d1d0 d2bb f9a7 c8bc c51c 103d 69cd 813d
000003b0: 6eec df3d d621 c33c b281 b33c 60dd bfbc
000003c0: 06ba 543c 8f4c 2e3d 69d6 ccbd df9b d3bc
000003d0: f840 b3bd 8658 4d3d a205 0b3d cc00 9d3c
000003e0: c027 943d 324f 783c e133 ae3d 899c 773d
000003f0: 2dce bbbd a67e 583c 29f3 323d 3530 a53d

convnet.c3.bias f4 [16]
-0.07553134 -0.13623998 0.05462184 0.053087 -0.07053525 0.032021828 0.052672278 0.0060728593
-0.07176476 -0.005564035 -0.021722442 0.072707966 0.019432724 0.1006386 0.0026524947 -0.014532624
00000000: 2db0 9abd 7e82 0bbe 27bb 5f3d c171 593d
00000010: c974 90bd 5229 033d e3be 573d d6fe c63b
00000020: 67f9 92bd 8252 b6bb 43f3 b1bc eae7 943d
00000030: 6031 9f3c 9c1b ce3d 7ad5 2d3b 3e1a 6ebc

convnet.c5.weight f4 [120, 16, 5, 5]
-0.013704515 0.031024748 -0.010721508 0.051915664 0.012648708 -0.04844128 -0.13112031 -0.05780043
-0.0034921214 0.06066995 -0.05710812 0.0024106877 0.0026140378 -0.08137254 -0.17146106 -0.05828852
0.013983813 0.0008220702 -0.059346966 -0.06067245 0.18939191 0.03796687 -0.08825008 -0.14445215
-0.024920383 -0.06323738 -0.020675596 0.0046739294 -0.023117768 0.047588922 -0.080592655 -0.0029315015
-0.059185617 -0.04872706 0.026909856 -0.02861803 -0.050358966 -0.086753055 0.03113192 -0.02465952
-0.11810984 -0.067360036 0.008207135 0.04569808 0.010865222 0.07607265 0.14941262 0.08756281
0.108103506 -0.026372077 -0.015402708 -0.038466737 0.051044308 0.070305124 0.0044621453 0.0056195655
0.016839024 0.01475992 -0.062328573 -0.08528756 -0.009946626 0.019964267 -0.056185197 -0.012125239
-0.072756976 0.09052749 0.1042794 0.03135344 -0.075464785 0.035441726 0.028637508 0.06129074
-0.096344166 -0.040381562 -0.011246134 0.044396803 0.021741234 0.03349765 -0.051059034 -0.0582254
-0.035367154 0.01581812 -0.09967054 -0.13365166 -0.10764594 0.099596344 0.026658047 -0.009372145
-0.012996082 0.010812697 -0.008326525 -0.04240659 -0.1305185 -0.011968964 0.061151754 0.010768222
-0.025938496 0.096104376 0.14811486 0.068687215 0.021266546 0.043548148 -0.009655745 -0.013577368
-0.046018895 -0.036929987 0.026956068 -0.05233827 -0.011832166 0.026070215 0.021067712 -0.02232716
-0.043200098 -0.02002014 -0.050996535 -0.020309228 0.014911622 0.055993997 0.037024688 0.033278316
-0.015948784 0.04493386 -0.0040819272 0.0106646195 -0.0030773953 0.12362403 -0.033059083 0.05080044
0.099050224 0.05327499 0.12766843 0.071849376 0.0186651 0.01812251 -0.05014464 0.08517203
0.03979504 -0.08049882 -0.01940613 0.09291418 0.09250226 -0.02185754 -0.020400679 0.015381373
-0.07106506 -0.033217955 0.032896347 0.031746197 0.008169222 0.02336035 -0.040761296 -0.012152113
-0.10675276 -0.03150192 0.08610297 0.062240172 -0.033224966 -0.14448114 0.043000635 -0.003726351
0.06127991 0.06752746 0.00766545 0.037828654 -0.07394527 -0.114578635 -0.03473801 -0.002662349
0.109072395 0.04492595 -0.16149496 0.052847467 0.026397206 0.061601996 0.014384009 -0.1122683
0.054977812 0.13184586 0.06457104 0.03537886 0.01651515 -0.097450614 -0.09535958 -0.05365749
-0.03407054 -0.06609069 -0.05048726 -0.019330997 -0.03948454 -0.059271503 -0.09954019 -0.021710983
0.043229274 0.01833829 -0.03787076 0.054082595 -0.04280501 0.012928816 0.042683564 0.027154975
-0.056589693 0.013980915 0.09376208 0.037949875 0.041872542 0.003985885 -0.02010172 -0.020485245
0.029898465 0.023212029 -0.037681673 0.021436434 0.039756358 -0.06616178 -0.054765355 -0.11762149
-0.028700128 0.02451613 0.045700096 0.021629967 0.0045039235 0.029776875 -0.035193227 0.012881063
0.061646722 0.008984496 0.06309851 0.07645756 -0.0029962868 0.09805841 0.05688644 -0.063941784
-0.17530964 -0.13172534 -0.028225793 0.0025281755 -0.05397701 -0.0059056613 -0.063359335 0.06865953
-0.16504262 -0.017404104 -0.09421314 -0.072597645 0.023394857 0.04162278 0.04374272 -0.013594511
0.050335538 0.12810087 0.12745154 0.14950104 0.049365062 -0.10177462 -0.057474732 0.11514821
00000000: e788 60bc 9d27 fe3c 44a9 2fbc 85a5 543d
00000010: 873c 4f3c 5d6a 46bd 6744 06be 25c0 6cbd
00000020: 13dc 64bb 0e81 783d 34ea 69bd a1fc 1d3b
00000030: 4750 2b3b a5a6 a6bd 7d93 2fbe f1bf 6ebd
00000040: 5d1c 653c 3280 573a ce15 73bd ad83 78bd
00000050: f4ef 413e 2683 1b3d 75bc b4bd 44eb 13be
00000060: d525 ccbc 9982 81bd de5f a9bc c327 993b
00000070: 7961 bdbc 9aec 423d c30d a5bd 6f1e 40bb
00000080: 9e6c 72bd 0796 47bd 0f72 dc3c 5c70 eabc
00000090: 3445 4ebd 96ab b1bd 5e08 ff3c c302 cabc
000000a0: 92e3 f1bd 0ff4 89bd 3877 063c e92d 3b3d
000000b0: 0b04 323c facb 9b3d 9fff 183e 2154 b33d
000000c0: 5f65 dd3d 410a d8bc a45b 7cbc 4c8f 1dbd
000000d0: d613 513d 22fc 8f3d 3037 923b 5524 b83b
000000e0: fef1 893c 97d3 713c 3f4c 7fbd 3fab aebd
000000f0: 2cf7 22bc 1a8c a33c 7322 66bd f0a8 46bc
00000100: 9c01 95bd 7a66 b93d 7090 d53d 776c 003d
00000110: 488d 9abd 582b 113d 3599 ea3c 000c 7b3d
00000120: 1750 c5bd 2367 25bd b441 38bc 6cd9 353d
00000130: ac1a b23c d534 093d 4723 51bd c27d 6ebd
00000140: 26dd 10bd 0195 813c 1120 ccbd fbdb 08be
00000150: 7975 dcbd 2bf9 cb3d fa61 da3c a08d 19bc
00000160: 85ed 54bc bd27 313c fa6b 08bc 88b2 2dbd
00000170: a4a6 05be 7919 44bc 437a 7a3d 326d 303c
00000180: f87c d4bc 5fd2 c43d 6cab 173e e2ab 8c3d
00000190: 2e37 ae3c 8b5f 323d 2133 1ebc 9c73 5ebc
000001a0: 4f7e 3cbd e643 17bd f9d2 dc3c a760 56bd
000001b0: b4db 41bc 3491 d53c 3296 ac3c 73e7 b6bc
000001c0: 96f2 30bd 4701 a4bc bee1 50bd 8a5f a6bc
000001d0: e04f 743c f659 653d 33a7 173d d84e 083d
000001e0: 06a7 82bc 910c 383d b0c1 85bb a8ba 2e3c
000001f0: 20ae 49bb 982e fd3d f668 07bd 1f14 503d
00000200: d8da ca3d e036 5a3d 83bb 023e c425 933d
00000210: 8de7 983c a875 943c 7764 4dbd ac6e ae3d
00000220: 2000 233d 91dc a4bd 9bf9 9ebc ca49 be3d
00000230: d371 bd3d 950e b3bc 531f a7bc 2802 7c3c
00000240: 8f8a 91bd 8d0f 08bd 52be 063d 4d08 023d
00000250: 33d8 053c 345e bf3c 51f5 26bd a819 47bc
00000260: 31a1 dabd 2808 01bd c156 b03d 8def 7e3d
00000270: e716 08bd ddf2 13be 6f21 303d cc35 74bb
00000280: a500 7b3d d64b 8a3d 752e fb3b 38f2 1a3d
00000290: 9e70 97bd 34a8 eabd 7249 0ebd ce7a 2ebb
000002a0: 5961 df3d 4604 383d ef5e 25be 9676 583d
000002b0: f43e d83c 6052 7c3d e8aa 6b3c ecec e5bd
000002c0: 6a30 613d 9a02 073e d23d 843d 6ce9 103d
000002d0: c84a 873c 3094 c7bd e24b c3bd f5c7 5bbd
000002e0: 8d8d 0bbd 8e5a 87bd bbcb 4ebd 0a5c 9ebc
000002f0: 8aba 21bd adc6 72bd badb cbbd 3bdb b1bc
00000300: 2e11 313d 2e3a 963c 5f1e 1bbd b685 5d3d
00000310: 4e54 2fbd 62d3 533c f6d4 2e3d 1c74 de3c
00000320: 98ca 67bd 3510 653c 5506 c03d 5471 1b3d
00000330: 8b82 2b3d 079c 823b 5dac a4bc acd0 a7bc
00000340: a0ed f43c 2727 be3c 1958 1abd 769b af3c
00000350: 90d7 223d d47f 87bd a351 60bd 89e3 f0bd
00000360: 881c ebbc 0dd6 c83c 0630 3b3d 5431 b13c
00000370: a695 933b a2ee f33c c626 10bd 180b 533c
00000380: 4681 7c3d b533 133c cb39 813d c895 9c3d
00000390: 5a5d 44bb d9d2 c83d c101 693d e9f3 82bd
000003a0: 5f84 33be 02e3 06be c739 e7bc bfaf 253b
000003b0: ff16 5dbd 4784 c1bb 8ac2 81bd 5e9d 8c3d
000003c0: ef00 29be 0d93 8ebc d2f2 c0bd 13ae 94bd
000003d0: 92a6 bf3c a67c 2a3d 912b 333d 83bb 5ebc
000003e0: a32c 4e3d e02c 033e a882 023e cd16 193e
000003f0: 0533 4a3d 366f d0bd a06a 6bbd d3d2 eb3d

convnet.c5.bias f4 [120]
0.007976607 -0.010856923 0.033921223 -0.030273989 0.05638916 0.01587722 -0.05904138 -0.063507795
-0.02647756 0.021086738 -0.007150074 0.012339304 -0.010449992 -0.04946717 -0.026263023 0.07105008
0.064779505 0.045998596 0.032994777 0.026488103 -0.025219688 0.025052806 0.017243676 -0.03251291
0.076862715 -0.0010715916 0.01492711 -0.017632086 -0.0271997 -0.013877371 0.005851928 0.08841531
-0.015946725 -0.0571568 0.064445 0.049025033 -0.026320059 -0.1415532 -0.04129646 0.053118423
-0.025243107 -0.03226107 0.025196789 0.1107929 -0.04543564 0.0043353625 0.081434146 0.08608075
-0.015764525 0.0073367367 0.023375742 0.099477544 -0.038525082 -0.04847125 -0.018737921 0.031057786
-0.11287871 0.025285278 0.0021521242 0.0445979 -0.073858865 0.16544813 0.018322028 0.07763153
0.06906081 0.032134596 -0.057065148 -0.07062843 -0.05907396 -0.006637318 -0.014400256 -0.00024104444
0.01872666 0.012202681 -0.001978118 -0.011074974 0.13017309 -0.069611266 -0.02701813 -0.0033033963
0.00048904435 -0.02880975 0.02776824 -0.025055844 0.11273939 0.08476946 -0.03429776 0.09904884
0.0039235307 0.036175083 0.011226052 -0.06711791 0.0154539365 -0.00044208486 -0.026504971 -0.054127596
0.018540338 0.02538116 0.0062124925 0.0752455 -0.03747533 -0.057382777 0.003193605 0.122251645
-0.036567975 0.068200745 -0.059248462 0.038956393 -0.003935965 0.10102633 0.010176433 -0.008863232
-0.0021475665 -0.009097008 -0.004372356 0.0053835874 0.017625708 -0.00750238 0.014693497 0.058898337
00000000: 51b0 023c 3ce1 31bc fbf0 0a3d 2801 f8bc
00000010: 52f8 663d f210 823c 60d5 71bd 6010 82bd
00000020: 78e7 d8bc 18be ac3c 2b4b eabb cb2a 4a3c
00000030: 7136 2bbc 169e 4abd 8d25 d7bc b482 913d
00000040: 1eab 843d 0669 3c3d 8825 073d 94fd d83c
00000050: 8599 cebc 8b3b cd3c 9c42 8d3c 422c 05bd
00000060: 336a 9d3d a674 8cba d690 743c 2a71 90bc
00000070: e8d1 debc ea5d 63bc 88c1 bf3b 1613 b53d
00000080: b5a2 82bc 401d 6abd bdfb 833d 79ce 483d
00000090: 2a9d d7bc 52f3 10be 7a26 29bd b492 593d
000000a0: a2ca cebc 2f24 04bd 7f69 ce3c 63e7 e23d
000000b0: b91a 3abd a80f 8e3b f2c6 a63d 1b4b b03d
000000c0: 9b24 81bc 0269 f03b 7c7e bf3c e2ba cb3d
000000d0: 7acc 1dbd ca89 46bd 4580 99bc e66c fe3c
000000e0: f42c e7bd 1223 cf3c a70a 0d3b 4aac 363d
000000f0: 5143 97bd 3c6b 293e 1418 963c 48fd 9e3d
00000100: c16f 8d3d 919f 033d 25bd 69bd a3a5 90bd
00000110: 89f7 71bd dc7d d9bb 0def 6bbc e0c0 7cb9
00000120: a768 993c c1ed 473c 50a3 01bb cf73 35bc
00000130: 184c 053e 5a90 8ebd 2055 ddbc cb7d 58bb
00000140: 3633 003a 6d02 ecbc 387a e33c ea41 cdbc
00000150: e9e3 e63d 9c9b ad3d cf7b 0cbd 1eda ca3d
00000160: f690 803b 532c 143d 7aed 373c 1d75 89bd
00000170: 8232 7d3c a0c7 e7b9 f420 d9bc e6b4 5dbd
00000180: e8e1 973c 27ec cf3c 2a92 cb3b 501a 9a3d
00000190: bb7f 19bd 340a 6bbd cd4b 513b 125f fa3d
000001a0: 4dc8 15bd d5ac 8b3d 84ae 72bd bd90 1f3d
000001b0: 44f9 80bb e4e6 ce3d 0ebb 263c 1737 11bc
000001c0: 30be 0cbb 9e0b 15bc fb45 8fbb ce68 b03b
000001d0: ca63 903c 86d6 f5bb febc 703c 623f 713d

fc.f6.weight f4 [84, 120]
-0.030033253 -0.020396153 0.0018749045 0.14284462 0.13882482 -0.012516432 -0.064557485 0.07176842
-0.002627845 -0.053811353 0.0053007347 -0.0922157 -0.037031725 0.03173829 0.03398916 0.10947961
0.13054335 0.06775275 -0.01640361 0.009638116 -0.08264395 0.21713126 0.12488112 -0.09551411
-0.115747735 0.071380034 -0.13609052 0.15269221 0.14550854 -0.049868397 0.09792292 0.11632979
0.10453478 -0.08042429 -0.099985234 -0.21318677 0.0029441696 -0.06195355 0.014389694 0.15683652
0.043869812 -0.081342235 0.09620955 0.1408461 0.101223 0.023805583 0.08127889 -0.034157027
0.050873812 0.16601305 0.00907371 -0.10778555 -0.026322562 -0.06197398 -0.008791017 0.069506615
0.12735023 -0.057705257 0.05217412 0.08979906 -0.038719233 0.06470992 -0.112277545 0.02290264
0.16096543 0.019419992 0.084972814 0.016750218 0.054610718 0.12604809 0.037348174 0.16662286
0.009002719 -0.03561038 -0.061939135 -0.039860554 0.04738752 -0.27211228 -0.0029419514 -0.05260934
0.105763316 -0.04086137 -0.09637978 -0.07173238 0.11244984 0.080238566 0.15878843 0.073017925
-0.06992851 0.10402695 -0.0047936602 -0.053722505 0.06890686 0.011698806 -0.052881163 0.09803481
0.015985265 0.052231357 -0.12766711 0.11656373 -0.056670237 -0.0042733764 -0.018678226 0.029637387
0.06753337 0.1047628 -0.07608579 0.0075793085 -0.02071404 0.04805725 0.022942586 0.052075416
0.06742317 0.18328585 0.0005115019 0.097613625 0.02068357 -0.23181672 0.05087945 0.21782407
-0.0618729 -0.0320423 -0.060257737 -0.111353904 -0.027242562 0.11028089 0.15093076 -0.0077848583
0.054691553 -0.038209967 -0.00459221 -0.054110352 -0.14566429 -0.043105308 -0.19268961 0.05880926
-0.10365415 0.011739789 -0.003992574 0.07635197 0.008762414 -0.079002835 0.01567773 0.008790586
0.09739845 0.12716936 0.022230176 0.015216202 0.15539695 -0.050056912 -0.01583272 -0.029306972
0.123132974 0.10826392 0.02736214 0.034282964 -0.0058047865 -0.10406716 -0.0054544536 -0.009279743
0.03366954 0.07637967 0.022179108 0.042861395 0.04018674 0.072518274 0.030846536 0.1489649
-0.0114655085 0.062280443 0.09825611 -0.0022629383 -0.072069764 -0.064985014 -0.075781554 0.111315794
-0.07318443 -0.0765939 0.04331082 -0.08602535 0.001055602 0.22964008 -0.08585 0.18484758
0.071234286 -0.04165309 -0.095864765 -0.24262682 -0.006988037 0.09303485 0.1156576 -0.093056045
-0.004142643 0.19961525 -0.029797181 0.036411386 0.0073000956 0.15511547 0.09565536 0.045088373
0.10497853 -0.025806226 -0.060297042 0.050537653 0.11724442 0.04831459 0.001243321 0.06943964
-0.008319984 0.098233156 0.13984597 0.042947803 -0.0015178124 0.068503916 -0.08998278 0.06516036
0.21281064 0.1213195 -0.06476879 -0.13075043 -0.066684976 0.063989386 0.032960303 -0.02214847
0.018938355 0.116042666 0.05879246 0.09822128 -0.06371942 0.002393889 0.032969166 -0.022141686
0.007958467 -0.18681839 -0.033374134 0.14013873 0.03282292 0.19303927 -0.047130253 -0.021712406
0.004029472 0.08181619 -0.04065624 0.026263952 0.022214133 0.07646664 0.09371671 -0.028090091
-0.09844472 0.07191557 -0.105183244 0.03765136 -0.03164561 0.023009421 0.01494005 -0.060643252
00000000: 4c08 f6bc d515 a7bc 5bbf f53a dc45 123e
00000010: 1828 0e3e b911 4dbc b736 84bd 52fb 923d
00000020: ec37 2cbb 4b69 5cbd c9b1 ad3b 96db bcbd
00000030: 94ae 17bd 0200 023d 3838 0b3d d936 e03d
00000040: 28ad 053e f4c1 8a3d dd60 86bc 30e9 1d3c
00000050: 3b41 a9bd a857 5e3e acc1 ff3d e79c c3bd
00000060: 260d edbd b22f 923d 505b 0bbe 595b 1c3e
00000070: 3100 153e ce42 4cbd d08b c83d 503e ee3d
00000080: 5516 d63d 7db5 a4bd 0fc5 ccbd a24d 5abe
00000090: f8f2 403b 01c3 7dbd c0c2 6b3c c199 203e
000000a0: d5b0 333d c296 a6bd 8309 c53d f639 103e
000000b0: 014e cf3d ed03 c33c 8c75 a63d 3de8 0bbd
000000c0: 0f61 503d 53ff 293e e6a9 143c acbe dcbd
000000d0: 6aa2 d7bc 6ed8 7dbd 3308 10bc 7c59 8e3d
000000e0: 1968 023e 595c 6cbd 88b4 553d 92e8 b73d
000000f0: 0f98 1ebd a286 843d c5f1 e5bd 519e bb3c
00000100: 1fd4 243e ad16 9f3c 3a06 ae3d c137 893c
00000110: 7daf 5f3d c012 013e 66fa 183d 2f9f 2a3e
00000120: 2480 133c 31dc 11bd e4b3 7dbd d244 23bd
00000130: 6b19 423d 4d52 8bbe c1cd 40bb e47c 57bd
00000140: 709a d83d 405e 27bd c362 c5bd 6de8 92bd
00000150: 1a4c e63d 1e54 a43d 6f99 223e 6c8a 953d
00000160: ae36 8fbd 150c d53d 2314 9dbb 210c 5cbd
00000170: 0a1f 8d3d 59ac 3f3c eb99 58bd 79c6 c83d
00000180: 88f3 823c 8cf0 553d 2bbb 02be f7b8 ee3d
00000190: 0d1f 68bd ae07 8cbb 1403 99bc 1bca f23c
000001a0: ef4e 8a3d e18d d63d ded2 9bbd d95b f83b
000001b0: 7eb0 a9bc aed7 443d 17f2 bb3c 084d 553d
000001c0: 2915 8a3d 49af 3b3e 5016 063a a7e9 c73d
000001d0: 9770 a93c 5d61 6dbe f866 503d 460d 5f3e
000001e0: 706e 7dbd c93e 03bd d1d0 76bd 840d e4bd
000001f0: cb2b dfbc f2da e13d 988d 1a3e 2018 ffbb
00000200: 4004 603d 0e82 1cbd 407a 96bb d1a2 5dbd
00000210: 0529 15be 318f 30bd 6d50 45be fbe1 703d
00000220: a148 d4bd 3e58 403c 23d4 82bb 6c5e 9c3d
00000230: 3a90 0f3c 3dcc a1bd 956e 803c 6406 103c
00000240: d778 c73d af38 023e 0f1c b63c 604d 793c
00000250: 6120 1f3e 7a08 4dbd 9fb3 81bc 2d15 f0bc
00000260: 242d fc3d 79b9 dd3d 9126 e03c 4b6c 0c3d
00000270: 1436 bebb 2a21 d5bd 46bb b2bb 100a 18bc
00000280: 12e9 093d f26c 9c3d f6b0 b53c 6e8f 2f3d
00000290: da9a 243d 7684 943d e0b1 fc3c 418a 183e
000002a0: d4d9 3bbc c719 7f3d 803a c93d ce4d 14bb
000002b0: 5099 93bd dd16 85bd 5c33 9bbd 89f9 e33d
000002c0: b8e1 95bd 43dd 9cbd b066 313d 0f2e b0bd
000002d0: 205c 8a3a c526 6b3e 20d2 afbd af48 3d3e
000002e0: 48e3 913d 6e9c 2abd bf54 c4bd 2a73 78be
000002f0: e7fb e4bb 0e89 be3d e4dd ec3d 2b94 bebd
00000300: 02bf 87bb f167 4c3e 3819 f4bc 1b24 153d
00000310: a435 ef3b 97d6 1e3e f5e6 c33d 96ae 383d
00000320: fcfe d63d 9467 d3bc 08fa 76bd 9200 4f3d
00000330: d81d f03d 85e5 453d eef6 a23a 5f36 8e3d
00000340: 8b50 08bc 772e c93d c833 0f3e 09ea 2f3d
00000350: 55f1 c6ba c84b 8c3d e448 b8bd cb72 853d
00000360: 08eb 593e 5c76 f83d 80a5 84bd 71e3 05be
00000370: 2292 88bd de0c 833d 6201 073d b570 b5bc
00000380: 9c24 9b3c c7a7 ed3d 5dd0 703d 3d28 c93d
00000390: 547f 82bd cbe2 1c3b ad0a 073d 7b62 b5bc
000003a0: 3b64 023c 524d 3fbe 51b3 08bd 8780 0f3e
000003b0: 5371 063d 16ac 453e a70b 41bd 37de b1bc
000003c0: a909 843b 3f8f a73d 2887 26bd 8027 d73c
000003d0: 6afa b53c 8b9a 9c3d 8cee bf3d 311d e6bc
000003e0: 639d c9bd 7848 933d 506a d7bd 5038 1a3d
000003f0: d49e 01bd 417e bc3c 1dc7 743c 0f65 78bd

fc.f6.bias f4 [84]
0.11248942 0.1386643 0.043214075 -0.0081024775 -0.0054119546 0.14153396 0.0021151344 -0.03472304
0.16818517 0.14932413 -0.08392742 -0.081660815 0.00026732625 0.0030822495 -0.047330577 0.10691902
0.019271916 0.010496005 0.053658593 -0.09037577 -0.018385986 0.024206487 0.0074511245 0.07773482
0.0026090106 0.06096682 0.13578583 0.050540183 0.020363038 0.12866017 0.12958454 -0.14190808
-0.060077187 0.12802333 -0.022973832 0.05234406 -0.11933563 0.059458923 0.08453871 0.10962433
0.012305307 -0.0631032 -0.0022082436 0.022521058 -0.0905599 -0.078011416 -0.05859435 -0.012335394
0.010621376 -0.0896177 0.012680732 0.033993475 0.050033882 0.02330041 0.06036638 -0.044184886
-0.021486895 0.12825602 -0.025235116 0.09643522 0.08653625 0.003764956 -0.08383005 0.12281046
0.07849575 0.08190844 -0.03324391 0.0207687 -0.07746817 0.07863353 -0.036410112 -0.028169673
-0.07367129 0.123155296 0.019078892 0.01416598 0.072154105 0.066043 0.019893626 0.040152088
0.11132928 0.07000271 -0.055805717 -0.01790387
00000000: da60 e63d 04fe 0d3e 3e01 313d 41c0 04bc
00000010: c456 b1bb 47ee 103e 119e 0a3b bf39 0ebd
00000020: bc38 2c3e 6de8 183e 24e2 abbd c93d a7bd
00000030: ec27 8c39 91ff 493b b5dd 41bd 5cf8 da3d
00000040: 23e0 9d3c 70f7 2b3c 1dc9 5b3d ef16 b9bd
00000050: 359e 96bc af4c c63c 9028 f43b 6f33 9f3d
00000060: effb 2a3b 58b8 793d 710b 0b3e 3903 4f3d
00000070: 63d0 a63c 7ebf 033e cfb1 043e 5a50 11be
00000080: 7f13 76bd 8c18 033e 9e33 bcbc ba66 563d
00000090: 3d66 f4bd 338b 733d a222 ad3d b982 e03d
000000a0: 339c 493c 403c 81bd 2eb8 10bb 157e b83c
000000b0: 7877 b9bd 73c4 9fbd a100 70bd 641a 4abc
000000c0: 4805 2e3c 7c89 b7bd d8c2 4f3c be3c 0b3d
000000d0: 54f0 4c3d 80e0 be3c bd42 773d 36fb 34bd
000000e0: 4905 b0bc 8c55 033e e0b9 cebc d47f c53d
000000f0: eb39 b13d 7bbd 763b 17af abbd 0d84 fb3d
00000100: 61c2 a03d 9dbf a73d c42a 08bd 1f23 aa3c
00000110: a2a7 9ebd 9e0a a13d c522 15bd 16c4 e6bc
00000120: f9e0 96bd d838 fc3d 564b 9c3c 6d18 683c
00000130: 88c5 933d 8d41 873d f5f7 a23c 8476 243d
00000140: 9b00 e43d 955d 8f3d 8994 64bd 23ab 92bc

fc.f7.weight f4 [10, 84]
0.041602373 -0.1685753 -0.11261548 -0.08095717 0.1600196 -0.1034194 0.06284718 -0.017332114
-0.15673065 -0.113828756 -0.021505484 -0.080178015 0.035845324 -0.14155732 0.059613377 0.0403612
0.10217314 0.075995244 -0.072967194 -0.20957811 0.18086378 -0.0604929 -0.035984706 -0.07486008
-0.020804856 0.002965524 -0.010239571 -0.019249013 -0.15041703 -0.043420747 -0.12663525 -0.042587593
0.08007019 0.17703833 -0.091474466 -0.18837707 0.012832452 0.104587324 0.13239667 -0.06608754
0.11754011 0.14454116 -0.068962224 0.15789032 -0.03484408 -0.14530887 -0.08273301 -0.0024437062
0.030158645 -0.17493533 0.04320276 -0.024687637 0.062036123 -0.19131407 -0.11183391 0.04374617
-0.08455574 0.021714257 0.055312935 0.06514053 -0.092319764 -0.214731 -0.009398724 0.20226862
-0.057097685 0.054022368 0.092320785 -0.15554269 0.03938757 0.014339166 -0.16366261 -0.037372828
-0.10078424 0.06688278 0.006266898 0.03979145 -0.118175045 -0.21836014 -0.06823102 0.043865204
-0.17258464 0.014700193 0.11646923 0.0427393 -0.25525913 0.074725285 0.16528945 -0.02187689
0.086778246 -0.08977778 0.054965727 -0.21654853 0.09883012 0.07408346 -0.062591724 -0.05759117
0.09584311 0.2019342 -0.1835661 0.22665906 0.062223002 0.13014494 -0.05365082 0.18254387
0.16614935 -0.17334221 -0.107939005 -0.11702139 -0.01502912 0.012138925 0.027964013 -0.20506467
-0.114989765 0.10839133 0.015216711 -0.11299347 -0.027789056 0.039022274 -0.2348652 0.06766723
-0.010510031 0.07738081 -0.08072949 0.1494107 -0.08385766 0.032792956 -0.107882395 -0.19555102
-0.036264513 0.07093866 -0.07970986 -0.1383565 -0.030801147 -0.2509843 0.14895205 -0.04057919
-0.08185456 -0.06922751 0.09763797 0.03716483 -0.03480906 0.10010038 0.06789478 0.14793918
0.15584299 -0.11782417 -0.055875067 -0.053410143 -0.21176977 -0.19692285 0.09976797 -0.123754196
0.03962613 -0.16811365 0.054922685 -0.29734105 -0.061086394 0.19378203 -0.2071517 -0.059349585
0.09392066 -0.08737853 0.01790783 -0.10792963 -0.022120558 -0.19914308 -0.0561553 -0.17992705
0.019131258 -0.15171202 0.07325382 0.16290942 0.0074536502 -0.13794422 0.056942698 -0.14629842
-0.04858906 -0.005885581 -0.043986615 -0.0023740805 -0.32455087 0.12681718 -0.09360576 -0.02135107
-0.13724199 -0.067060165 0.10273692 0.08792298 0.04423718 -0.18225928 0.17745784 -0.022562495
-0.11154854 0.05903168 -0.20979492 0.10110105 0.07528212 -0.17428327 -0.010370352 -0.055706713
-0.095273875 0.11709921 -0.022419577 0.1515295 -0.036571693 -0.101241454 0.08494985 -0.122261636
-0.13427097 0.029311571 0.1522173 -0.13084154 -0.089857064 -0.1975707 0.03756768 0.16328609
0.06533087 -0.03586806 0.049013745 0.1513174 0.087105334 -0.07482955 0.05148048 -0.12907664
-0.09326691 0.020302301 0.036947954 -0.14859279 -0.00021021116 0.03986109 -0.07660164 0.12678477
0.14706312 0.02732694 -0.07720886 -0.052506875 -0.0647519 -0.05289188 -0.0133578265 -0.055879373
-0.052437402 -0.15459283 0.1517437 0.13471426 -0.09095816 0.10893809 0.058993362 0.050343387
-0.16012757 -0.117928684 -0.05155074 0.087819785 0.0790058 -0.13470612 -0.14949757 0.019290615
00000000: 4067 2a3d 019f 2cbe f2a2 e6bd dfcc a5bd
00000010: 2edc 233e 8dcd d3bd 06b6 803d 14fc 8dbc
00000020: 007e 20be 0d1f e9bd 452c b0bc 5f34 a4bd
00000030: 8cd2 123d 67f4 10be 282d 743d c951 253d
00000040: 2740 d13d 65a3 9b3d d36f 95bd a59b 56be
00000050: 5b34 393e 67c7 77bd b364 13bd 3e50 99bd
00000060: f26e aabc 3d59 423b e0c3 27bc 1bb0 9dbc
00000070: ec06 1abe f4d9 31bd acac 01be 5470 2ebd
00000080: d7fb a33d 8949 353e f756 bbbd ebe5 40be
00000090: 343f 523c e131 d63d fe92 073e e758 87bd
000000a0: dfb8 f03d 9902 143e 113c 8dbd 00ae 213e
000000b0: abb8 0ebd d9cb 14be ed6f a9bd 9626 20bb
000000c0: 430f f73c 3f22 33be 61f5 303d ba3d cabc
000000d0: 9719 7e3d d6e7 43be 2d09 e5bd 2f2f 333d
000000e0: 8f2b adbd 19e2 b13c d18f 623d 6668 853d
000000f0: 2512 bdbd 71e2 5bbe 1bfd 19bc 811f 4f3e
00000100: 43df 69bd 8f46 5d3d ae12 bd3d 9546 1fbe
00000110: dc54 213d d2ee 6a3c 2c97 27be 4014 19bd
00000120: f867 cebd d7f9 883d 8d5a cd3b 5cfc 223d
00000130: c205 f2bd cd99 5fbe b4bc 8bbd 00ac 333d
00000140: 07ba 30be 14d9 703c 6b87 ee3d 670f 2f3d
00000150: 53b1 82be 9209 993d a341 293e 2a37 b3bc
00000160: cbb8 b13d 6add b7bd be23 613d e6be 5dbe
00000170: 7267 ca3d 12b9 973d 1730 80bd b8e4 6bbd
00000180: 6449 c43d d7c7 4e3e c0f8 3bbe 5019 683e
00000190: 8cdd 7e3d b744 053e f6c0 5bbd c8ec 3a3e
000001a0: 0e23 2a3e 9f80 31be 200f ddbd e9a8 efbd
000001b0: b33c 76bc 57e2 463c c914 e53c 79fc 51be
000001c0: c17f ebbd 46fc dd3d 834f 793c 1f69 e7bd
000001d0: e0a5 e3bc d2d5 1f3d 8180 70be 1e95 8a3d
000001e0: 4432 2cbc d579 9e3d 8155 a5bd 1eff 183e
000001f0: 91bd abbd e851 063d 72f1 dcbd 873e 48be
00000200: 198a 14bd 4a48 913d ec3e a3bd 54ad 0dbe
00000210: b052 fcbc 0481 80be e386 183e 5d36 26bd
00000220: 5da3 a7bd 27c7 8dbd 6af6 c73d 263a 183d
00000230: f293 0ebd 6e01 cd3d 6b0c 8b3d 5e7d 173e
00000240: 4e95 1f3e cc4d f1bd 41dd 64bd 98c4 5abd
00000250: 2dda 58be 25a6 49be 2653 cc3d d772 fdbd
00000260: 024f 223d fc25 2cbe 9cf6 603d 163d 98be
00000270: ba35 7abd cc6e 463e 931f 54be 8d18 73bd
00000280: 7a59 c03d 84f3 b2bd 71b3 923c 360a ddbd
00000290: 2c36 b5bc 2aec 4bbe 1a03 66bd cc3e 38be
000002a0: 28b9 9c3c 655a 1bbe 1906 963d bad1 263e
000002b0: c03d f43b 4041 0dbe bf3c 693d 41cf 15be
000002c0: 5205 47bd d5db c0bb 4f2b 34bd 7696 1bbb
000002d0: 882b a6be 5ddc 013e 60b4 bfbd 70e8 aebc
000002e0: 2a89 0cbe d756 89bd bc67 d23d f710 b43d
000002f0: 0c32 353d 2da2 3abe 82b7 353e fbd4 b8bc
00000300: 9073 e4bd 34cb 713d 7bd4 56be 110e cf3d
00000310: 832d 9a3d 5077 32be 69e8 29bc b92c 64bd
00000320: f31e c3bd b6d1 ef3d 43a9 b7bc 8d2a 1b3e
00000330: 33cc 15bd ae57 cfbd 30fa ad3d 4f64 fabd
00000340: 547e 09be d21e f03c dade 1b3e 53fb 05be
00000350: fb06 b8bd f94f 4abe 91e0 193d 7834 273e
00000360: 31cc 853d 63ea 12bd a3c2 483d f3f2 1a3e
00000370: 4864 b23d 3c40 99bd 32dd 523d ab2c 04be
00000380: b902 bfbd 0351 a63c bd56 173d b528 18be
00000390: 216c 5cb9 6245 233d 52e1 9cbd ded3 013e
000003a0: b797 163e bfdc df3c ae1f 9ebd 7311 57bd
000003b0: a59c 84bd 28a5 58bd c9da 5abc c5e1 64bd
000003c0: 9ac8 56bd 954d 1ebe b362 1b3e 89f2 093e
000003d0: 4648 babd ef1a df3d 06a3 713d de34 4e3d
000003e0: 7bf8 23be 9884 f1bd de26 53bd dcda b33d
000003f0: cbcd a13d 67f0 09be e415 19be 5a07 9e3c

fc.f7.bias f4 [10]
0.021551283 0.14871997 -0.052429527 0.00911934 -0.07753516 0.015815007 -0.11547543 0.050464936
-0.022475831 -0.00968195
00000000: 518c b03c 0c4a 183e 58c0 56bd 4969 153c
00000010: c1ca 9ebd 798e 813c 627e ecbd 52b4 4e3d
00000020: 3c1f b8bc 0ba1 1ebc
