Lenet-5_mnist/model/12_model.pkl (torch, 250431 bytes, 10 tensors)

convnet.c1.weight f4 [6, 1, 5, 5]
000000 7b a4 24 3c 92 99 5e be e3 c3 e8 bd 84 2d b4 3d
       0.010048981 -0.2173827 -0.113654874 0.08797744
000010 33 42 6d 3e 3b 70 4a be a2 1e de 3d ca 77 a8 bd
       0.23169784 -0.19769375 0.108456865 -0.08225973
000020 32 c0 15 bd ff f8 07 3e 9e c2 53 be 16 c6 5a 3e
       -0.036560245 0.13278578 -0.2067971 0.21364626
000030 31 d4 64 3d 3f 90 8e 3e 04 24 0b be 56 a2 97 3d
       0.055866424 0.27844426 -0.13587958 0.0740401
000040 f8 5a ab 3e 7e 26 7b 3e 80 4f 9a 3e b5 f5 ee 3c
       0.3346784 0.24526402 0.3013878 0.029169897
000050 4a 77 81 bc 1d 39 91 3c 32 be 6c 3e dc 7a 2f 3e
       -0.015803952 0.017727429 0.23119429 0.17136711
000060 91 cb d1 bc 49 28 eb 3c 00 12 6a be 34 7c e4 be
       -0.025609763 0.028705733 -0.22858429 -0.4462601
000070 ad 34 d7 be 8f e9 89 be 56 2d 50 3e 9b fc 1d be
       -0.42032376 -0.26936004 0.20329794 -0.15428393
000080 1f 23 d3 3c 8b 49 b4 be 8c 00 66 be 07 d0 02 3e
       0.025773583 -0.3521236 -0.22461146 0.12774669
000090 7b 6d b3 3e 1d 9e 00 bc 79 77 04 3d ae 87 be 3b
       0.35044464 -0.007850197 0.0323405 0.005814514
0000a0 f9 4e 2e 3d d6 d4 8c 3e 65 e1 a7 3e bd 01 8b 3e
       0.042555783 0.2750613 0.3278915 0.27149764
0000b0 e4 76 7d 3e fe b2 c6 3d 6b ca 2c 3d 3d 85 77 3e
       0.24752384 0.09702109 0.04218523 0.2417192
0000c0 39 14 c2 3d 3f 20 93 3e 5a e3 53 3e be 8f 49 be
       0.094765134 0.2873554 0.20692196 -0.1968374
0000d0 d3 38 14 3d 20 12 3a 3d 57 15 42 bd bf ee 44 3e
       0.036187004 0.04542744 -0.047383633 0.192317
0000e0 15 f8 7e be bf 00 57 3d a4 3f f1 bd 94 7a 23 3e
       -0.24899323 0.052490946 -0.117797166 0.15964729
0000f0 d2 0c 2f bc ac 0b 7a bd 60 55 23 3e 35 e9 5a 3e
       -0.010684209 -0.061046287 0.15950537 0.21378024
000100 8c e8 30 3e df 9d 03 3e 21 51 f4 3d 2c be 30 be
       0.1727621 0.12853192 0.119295366 -0.17260045
000110 ab 61 5f 3e 3f 8d 0b 3e 99 9a 59 3e e4 d0 0a 3e
       0.21814601 0.136281 0.2125038 0.13556248
000120 eb 80 b0 be 0e ac 93 be ba 54 48 3c f2 5a 20 be
       -0.34473357 -0.28842205 0.012227232 -0.15659693
000130 03 dc 78 3d 79 5a 1a 3d c7 d9 64 3e bb 35 79 3e
       0.060756695 0.037683938 0.223487 0.24336903
000140 82 ce 0c be a2 cf 8a 3e 6a 39 86 3e b8 5b 0f 3e
       -0.13750651 0.27111536 0.26215678 0.13999832
000150 d9 08 16 3e b6 2e 32 bd 38 26 96 3e 5f d5 9b bc
       0.14651813 -0.04350158 0.29326034 -0.019022642
000160 a2 36 f3 bd 24 12 66 3d 60 de a0 3a dc 9c 5b bd
       -0.11875655 0.056169644 0.0012273304 -0.05361639
000170 00 53 51 bd db 30 80 be 8d ca 73 bd 82 02 17 bd
       -0.051104546 -0.25037274 -0.05951934 -0.036867626
000180 8d b7 b2 3d 56 90 46 be d4 6e 29 3d 45 60 85 3c
       0.08726416 -0.19390997 0.04136546 0.016281256
000190 26 26 9b 3e 60 e7 ae 3e 84 5e 92 3b 38 da ce 3d
       0.30302542 0.341609 0.0044668335 0.10100216
0001a0 10 13 b2 be 34 f5 11 3e 3a fb 27 3e c9 68 ef 3d
       -0.3478017 0.14253694 0.16404429 0.11689908
0001b0 9c 1e 0e be 4f d1 bd be dc 95 44 3e 28 f9 b5 3e
       -0.13878864 -0.37073752 0.19197792 0.35541654
0001c0 d0 2d 43 3d 7b 8a c6 be f7 20 bf be b5 2d 0a 3e
       0.047651112 -0.38777527 -0.37329838 0.13493998
0001d0 e6 c1 02 3e 38 4f b6 3d f1 8d 50 be 27 c3 87 be
       0.12769279 0.089018285 -0.20366646 -0.26516077
0001e0 7c 90 62 3e 2b f4 84 3e 67 20 b0 bc 9c ce 8b be
       0.22125429 0.25967535 -0.021499826 -0.27306068
0001f0 1b 09 00 be 1b 1b 23 3e 31 2c a9 3e d8 6e 4f 3e
       -0.12503473 0.15928309 0.33041528 0.20257127
000200 0e d8 7e 3e ac eb e3 3e 12 70 0b 3e 6d 1c d8 3e
       0.24887106 0.4451574 0.1361697 0.42209187
000210 6c 4f a8 3e 64 5e da 3d b2 04 af 3d 17 da 59 3d
       0.32873094 0.10662535 0.085458174 0.053186502
000220 b7 bc 15 be 17 d8 b5 bd da 56 c8 3d b0 44 44 3d
       -0.1462277 -0.088791065 0.097821906 0.047917068
000230 d0 e1 60 bd 31 67 ca be 13 0e 94 be d7 6b 94 be
       -0.05490285 -0.39531854 -0.28916988 -0.28988525
000240 30 1e aa be 20 e0 c6 be 13 c2 97 be 72 cf b2 be
       -0.33226156 -0.3884287 -0.29640254 -0.34923893
000250 b4 40 a4 be e8 32 07 3e
       -0.32080615 0.13203013

convnet.c1.bias f4 [6]
000000 76 dc 05 bd 2b cc 88 39 34 e4 e1 bc f4 85 3f bc
       -0.03268095 0.00026092058 -0.027574636 -0.011689652
000010 b8 b7 66 3d 69 07 13 3e
       0.05632755 0.14358296

convnet.c3.weight f4 [16, 6, 5, 5]
000000 26 30 0f 3d 62 83 0a 3e 63 0a da 3d 7f 4a d2 3d
       0.034958027 0.13526681 0.10646512 0.10268115
000010 73 52 ce bd 01 3f ce 3b a0 2d d0 37 25 21 00 3e
       -0.1007432 0.0062941317 2.4816778e-05 0.12512644
000020 58 b7 5d 3d 58 6d 07 be 08 9f 38 bd e9 86 e9 3c
       0.05412993 -0.13225305 -0.04507354 0.028506713
000030 3f 65 cf 3d 86 b9 08 3d 79 91 05 be 84 bd 09 3d
       0.10126733 0.033380054 -0.13043775 0.033628
000040 5b 14 19 3e 49 97 f6 3d 24 25 60 bd 42 53 af bc
       0.14949171 0.12040574 -0.05472292 -0.021402005
000050 8c 8f 13 3c c7 b2 5f 3d 91 ca 8c 3d f0 01 44 be
       0.009006392 0.054613855 0.06874574 -0.19141364
000060 f3 20 a0 be ca 4b bc 3d ec 5c b5 3d d0 88 ad 3d
       -0.31275138 0.09194143 0.08855614 0.084733605
000070 80 64 a6 3d fe 74 1f be 67 12 ab bd 4a 01 2c be
       0.081246376 -0.15571973 -0.08353119 -0.16797367
000080 b4 61 dd bd 8c 36 9b bd 09 e8 6c be 61 b2 62 bd
       -0.10809651 -0.07578763 -0.2313539 -0.055345897
000090 50 79 2f be 92 57 a6 bd 28 c8 c5 bd d2 54 83 3d
       -0.17136121 -0.081221715 -0.096573174 0.064126626
0000a0 3b 56 f1 bb 4f 5d 77 be 9b fc de bd e0 e7 81 3b
       -0.007365016 -0.24156688 -0.108880244 0.003964409
0000b0 54 5e e0 3d a4 86 78 be 65 c5 a9 be 15 81 92 be
       0.10955492 -0.24270111 -0.33158413 -0.28614107
0000c0 14 06 e1 bd 30 19 fa bd b0 ea e3 3c aa 3e 6d 3d
       -0.109874874 -0.122118354 0.027821869 0.05792109
0000d0 74 41 06 3b 28 71 d6 3d ac c2 e2 3d 19 90 e4 3d
       0.002048579 0.104708016 0.11072287 0.11160297
0000e0 ce 19 86 bd d0 a2 bc bd 3c 33 91 3d f4 ce 8b bd
       -0.065478906 -0.092107415 0.0708985 -0.068265826
0000f0 aa 91 1d be ca 56 97 3d 01 b3 a1 bb 33 b6 03 3e
       -0.15387598 0.073896006 -0.004934669 0.12862472
000100 97 ac 27 3c f8 99 ed bd 05 13 d6 3d 69 b8 d0 3d
       0.01023402 -0.11601633 0.104528464 0.101914234
000110 e8 33 3f 3e f0 c2 9d 3d 06 7f c4 3c 73 77 66 3d
       0.18672144 0.07703197 0.02398635 0.05626626
000120 78 e2 ce 3d c4 47 84 3c 9c 79 1b 3d c2 a1 aa 3d
       0.10101789 0.016147502 0.037957773 0.08331634
000130 39 9c a6 3c 62 23 56 3d 9b 72 0d bd 6b 9b 33 bd
       0.020338165 0.052279837 -0.034533124 -0.04384939
000140 ff 93 37 3e 09 b6 ff 3d 75 61 0b 3e 3f 39 e2 bc
       0.1792755 0.12485892 0.13611396 -0.027615188
000150 81 bb 00 bc 6a a5 17 bd b0 54 f7 3c c7 e9 b9 3d
       -0.007857204 -0.037022986 0.03019175 0.090777926
000160 fd 48 b0 3c 18 26 e4 bd 57 76 c4 3c c1 c1 3d bc
       0.021519179 -0.11140078 0.02398221 -0.011581839
000170 2a 0b 5f 3d 7e 0f c9 3c 63 75 e8 bc d5 5e 31 3b
       0.054454006 0.02454352 -0.028376287 0.002706458
000180 7f f6 fa 3c 20 1c 80 3d fa 59 56 bc 92 21 7f 3c
       0.030635117 0.062553644 -0.0130829755 0.015571969
000190 fe 00 82 be 3b 9a 59 be c9 df 22 bc 02 a3 01 3d
       -0.25391382 -0.2125024 -0.00994105 0.031649597
0001a0 b0 12 bf 3d 15 71 72 be 7b 32 63 be 89 54 d5 3d
       0.09329736 -0.2367595 -0.22187226 0.104165144
0001b0 cc cf f5 3d fd 28 8f 3d 74 19 d2 be a6 8c bd be
       0.12002525 0.0699024 -0.41035044 -0.3702137
0001c0 62 6b 9a 3d 4c 43 43 3e d6 29 f3 3d 81 25 00 bf
       0.07540013 0.1906864 0.11873214 -0.50057226
0001d0 89 8a 8c be f0 cc f6 3d ae 8f 7f 3e fc 2e c5 3d
       -0.27449444 0.120508075 0.24957153 0.09628102
0001e0 90 e4 b0 be 20 03 84 bd f8 38 28 3e 2c 28 e9 3d
       -0.3454938 -0.064459085 0.16427982 0.11384615
0001f0 39 49 8c 3d fe 6d 10 3e cf 10 73 bd 55 8a 8d be
       0.068499036 0.14104459 -0.0593422 -0.276446
000200 6f e5 e6 bd fa d9 0d 3e 86 93 34 3e 6f b1 7e 3d
       -0.1127423 0.13852683 0.176344 0.062180933
000210 ab 06 85 be 13 6c 9b be 28 c8 ab 3d 04 20 1a 3e
       -0.2598165 -0.30355892 0.08387786 0.15051275
000220 23 dc 54 be 54 f0 ad be e8 40 8f be 1c fc 1d be
       -0.207871 -0.33972418 -0.27979207 -0.15428203
000230 9f ed b7 bd db 28 81 be a4 41 87 be 9e d8 48 be
       -0.089808695 -0.25226483 -0.26417267 -0.19613883
000240 71 29 56 3d 63 e7 23 3d 60 ba bf 3b 04 f5 b9 bd
       0.052285615 0.04001559 0.005851075 -0.09079936
000250 8a 66 6a 3d e7 6e 44 3e c6 29 a4 3d 2b 21 d3 3d
       0.057226695 0.19182931 0.0801578 0.10309061
000260 c5 17 93 3b 7b 21 01 bd 2a 03 d6 bd 0c 11 e3 3d
       0.0044889175 -0.03152607 -0.10449822 0.11087236
000270 a0 5a 04 3e a5 a6 51 3d 55 5a 5e bd 88 fe 8d bc
       0.12925196 0.051184315 -0.054285366 -0.017333284
000280 0e b8 13 3e 12 14 a7 3d bb 11 55 bd 62 50 1e 3d
       0.1442568 0.08158125 -0.052018862 0.038650878
000290 10 37 7d bc 7a 00 1e bd 9a e2 d3 3d 61 3e c3 bb
       -0.015455022 -0.038574673 0.10345955 -0.005958364
0002a0 a8 72 3f 3d f8 3a be bc 66 a3 5b be f4 1b 12 be
       0.046740204 -0.023221478 -0.2144905 -0.14268476
0002b0 3b 36 30 be 42 ba 32 be b3 02 39 be 6c b4 e1 3d
       -0.17208187 -0.17453864 -0.18067436 0.11020741
0002c0 94 42 76 3e 3f 26 5a 3e 81 d0 e0 3d 52 f1 18 3e
       0.24048835 0.21303652 0.10977269 0.14935806
0002d0 6e ba bb 3c e4 e1 29 3d 88 e7 04 be 95 8b 7c bd
       0.022916045 0.04147519 -0.12978947 -0.061656553
0002e0 cd 2c 9e bc 6f 5f 18 be 18 85 5d 3d d0 20 d8 3c
       -0.019308472 -0.14880155 0.054082006 0.026382834
0002f0 77 49 7d bd e9 5a 16 be 6c b9 7e be 45 f1 40 3e
       -0.06183764 -0.14683117 -0.2487542 0.18842037
000300 15 5b b0 3e 78 ef 28 3e d6 2e 9b 3d 72 8e c1 be
       0.3444449 0.164976 0.075772926 -0.3780399
000310 1b 2b e9 3c 5c f6 31 3d 52 0a 3c bb 07 6a a4 bb
       0.028462937 0.043447837 -0.0028692675 -0.0050175223
000320 3a 3d 51 3d f8 8f bd 3d a4 e1 e5 3d 4a 01 79 3d
       0.05108378 0.092559755 0.11224678 0.060792245
000330 51 51 b3 bd 28 d6 ab bc 53 d3 0f 3e 1c 22 30 3e
       -0.08755744 -0.020976141 0.14045458 0.17200512
000340 31 72 d6 3c 1c 26 1f bd ad 34 4f bd b5 13 07 3d
       0.026177498 -0.038854703 -0.050587345 0.03297778
000350 ce 04 a0 3d ec 18 1e bd 9a 81 8c 3d 73 4e 11 3d
       0.078134164 -0.038597986 0.06860657 0.035475206
000360 c0 a6 ca 3c 63 0d 13 3e 39 7a c1 3c 05 f2 07 bd
       0.024737716 0.14360575 0.02361785 -0.033189792
000370 92 d0 bb bc 15 3e 73 bd 1c 84 db 3d e0 f7 5b bd
       -0.022926603 -0.059385378 0.10718557 -0.05370319
000380 66 ac a2 bd 6a 02 6e bd 55 37 93 3d 32 d0 9b bd
       -0.07943039 -0.05810777 0.07188288 -0.076080695
000390 7a 70 ed bd ac b4 fb bd d5 5c 06 bd 1f 25 29 3e
       -0.11593719 -0.1229032 -0.032803375 0.16518067
0003a0 2b 2c d9 3b 42 dd 92 bc c7 0b 0e 3d 5b 29 9a 3d
       0.0066275797 -0.01792777 0.0346792 0.07527419
0003b0 0c 2d fd 3d a3 0b 9c 3c 43 77 82 3c f6 54 c9 bc
       0.12362108 0.019048518 0.015926009 -0.024576645
0003c0 72 ba 70 3c 7b 73 f0 3c dd 44 ee bd d6 3b 02 bd
       0.0146928895 0.02935194 -0.116342284 -0.031795345
0003d0 ba f5 bd bd c3 5e 4e 3d 75 89 03 3d c9 b6 44 3c
       -0.09275384 0.05038334 0.03211351 0.01200647
0003e0 4b 67 90 3d fc 31 9b 3c 4d fc bd 3d 60 42 86 3d
       0.070509516 0.018944733 0.09276638 0.06555629
0003f0 9e 1f a9 bd 0d 65 b0 3c b3 64 81 3d 4a c4 a5 3d
       -0.082579836 0.02153256 0.06318035 0.0809408

convnet.c3.bias f4 [16]
000000 93 3a a0 bd 87 ec 12 be f9 ec 5b 3d cc fc 46 3d
       -0.07823672 -0.1434804 0.05369279 0.04858093
000010 c9 74 90 bd 35 e9 a8 3c 58 67 5e 3d b4 b1 6b 3c
       -0.07053525 0.020619014 0.054297775 0.014385629
000020 a5 7d 91 bd 10 9b 20 bc 33 aa c8 bc 5a b0 8b 3d
       -0.07104043 -0.009802595 -0.02449522 0.06820746
000030 e1 89 4e 3c 06 b0 bf 3d c7 db 72 3b 7d e7 34 bc
       0.012606115 0.09359746 0.0037057267 -0.011041519

convnet.c5.weight f4 [120, 16, 5, 5]
000000 2c a8 af bc 76 58 00 3d f1 e4 2b 3b 7d a4 4b 3d
       -0.021442495 0.031334363 0.002622899 0.049717415
000010 cf 2b b0 3c b3 54 58 bd 71 46 11 be 96 4a 89 bd
       0.021505265 -0.05281515 -0.14187028 -0.06703679
000020 b8 22 b5 bb f1 04 99 3d 0a 5b 45 bd 4e ba 55 3c
       -0.0055278204 0.074716456 -0.048182525 0.013044907
000030 d1 f7 33 3c c1 ba d6 bd 57 53 28 be 08 83 1e bd
       0.010984377 -0.10484839 -0.16438042 -0.03869918
000040 27 75 bd 3c 52 b3 53 bc bc 77 a3 bd d3 c6 a6 bc
       0.023127152 -0.012921171 -0.07981822 -0.020358479
000050 7a e6 55 3e 9d b6 70 3d b4 b8 d4 bd 97 59 21 be
       0.20888701 0.058767904 -0.10386792 -0.15756832
000060 76 63 ae 3b ac f5 ba bd 10 9e 33 bd fb c8 09 3b
       0.0053219153 -0.091288894 -0.043851912 0.0021024335
000070 e4 89 9c bc 9c ff 86 3d 1d bd 73 bd aa 72 28 3c
       -0.01910872 0.06591722 -0.059506524 0.010281244
000080 28 65 6c bd 0a 0f 77 bd fa 47 c7 3c 89 c8 5b bc
       -0.057713658 -0.060317077 0.024326313 -0.0134145105
000090 8f bd 46 bd b0 ea d3 bd ec 6f e7 3c 01 34 21 bd
       -0.04852062 -0.103474975 0.02825161 -0.039356235
0000a0 23 b1 f5 bd c5 f9 4d bd cc 4a be b8 10 c9 da 3c
       -0.11996677 -0.050287027 -9.073838e-05 0.026707202
0000b0 0f 04 4d 3c 61 27 a8 3d 98 31 1e 3e 2a 9d c9 3d
       0.012513175 0.08210636 0.15448606 0.0984443
0000c0 b8 16 db 3d a3 92 89 bc 03 c2 e9 bc e3 3b 1c bd
       0.10697693 -0.016793555 -0.028534895 -0.03814305
0000d0 f3 7c 2a 3d 70 6e 6b 3d e6 fe 65 39 d8 95 d6 bc
       0.041623067 0.05747837 0.00021934099 -0.026194498
0000e0 71 d1 b7 3b 8a 42 ac 3c 8b 43 a4 bd 47 d5 a0 bd
       0.005609684 0.021027822 -0.08020695 -0.078531794
0000f0 71 19 47 bb c4 eb b5 3c c0 39 5b bd 5c 60 04 bc
       -0.0030380154 0.022207148 -0.05352187 -0.0080796145
000100 cb 30 7d bd f4 c2 dc 3d 4f 3c df 3d 63 80 6e 3c
       -0.06181411 0.10779372 0.10900175 0.014556977
000110 da db da bd a1 a7 29 3d 3d 32 cc 3c 2e fa 97 3d
       -0.106864646 0.04141963 0.0249263 0.07420765
000120 17 cb de bd 47 20 55 bd 88 cc da bc 9c 96 10 3d
       -0.1087858 -0.052032735 -0.026708856 0.035299882
000130 8c 90 4d b9 de 46 94 3c 26 12 73 bd af 0e 7b bd
       -0.00019604171 0.018100198 -0.05934348 -0.0612933
000140 11 7a ac bc 1d 6c 10 3d c8 9f cb bd 70 f2 10 be
       -0.0210543 0.035259355 -0.09942585 -0.14154983
000150 4d 18 d4 bd d7 5f f5 3d f3 f0 44 3d 3f da 28 bc
       -0.103561975 0.119811706 0.04808135 -0.01030594
000160 b0 11 f0 bc e3 ed 90 3c 15 8e c5 bc 1f d7 ec bc
       -0.029305309 0.017691558 -0.024115602 -0.028911171
000170 ff 39 ed bd c1 e8 a0 bc 81 8b 91 3d 9b 6e 08 3d
       -0.115833275 -0.019642236 0.071066864 0.033308607
000180 60 6b c5 ba 29 79 d9 3d 18 80 12 3e 70 a3 86 3d
       -0.0015061907 0.106188126 0.14306676 0.06574142
000190 2e 37 ae 3c 8b 5f 32 3d 21 33 1e bc 9c 73 5e bc
       0.021266546 0.043548148 -0.009655745 -0.013577368
0001a0 4f 7e 3c bd e6 43 17 bd f9 d2 dc 3c a7 60 56 bd
       -0.046018895 -0.036929987 0.026956068 -0.05233827
0001b0 b4 db 41 bc 34 91 d5 3c 32 96 ac 3c 73 e7 b6 bc
       -0.011832166 0.026070215 0.021067712 -0.02232716
0001c0 96 f2 30 bd 47 01 a4 bc be e1 50 bd 8a 5f a6 bc
       -0.043200098 -0.02002014 -0.050996535 -0.020309228
0001d0 e0 4f 74 3c f6 59 65 3d 33 a7 17 3d d8 4e 08 3d
       0.014911622 0.055993997 0.037024688 0.033278316
0001e0 06 a7 82 bc 91 0c 38 3d b0 c1 85 bb a8 ba 2e 3c
       -0.015948784 0.04493386 -0.0040819272 0.0106646195
0001f0 20 ae 49 bb aa 52 00 3e 72 d2 21 bd 3a 6a 91 3d
       -0.0030773953 0.12531534 -0.039507337 0.07100339
000200 a5 8c c2 3d b0 09 ca 3c 41 ac f3 3d 63 7a 95 3d
       0.09499482 0.024662822 0.11898089 0.07298734
000210 0f f2 b1 3c 4e af d3 3b 97 75 2f bd b1 8c c5 3d
       0.021721868 0.006460107 -0.04283675 0.096459754
000220 ac bd 35 3d 9d 2a 62 bd e3 dd a1 3c 82 ca e5 3d
       0.04437034 -0.05521642 0.019759124 0.11220266
000230 ac 50 b5 3d ef 29 17 bc de 23 c3 bc 60 04 99 3c
       0.088532776 -0.009226306 -0.023820814 0.018678844
000240 75 5f ac bd 4f 90 58 bd a8 1d a0 3b 88 c7 0f 3d
       -0.084166445 -0.052872 0.004886348 0.035102397
000250 d5 93 5d 3c 80 2b 13 3d 99 e8 6d bd cb 0d 05 bd
       0.013524015 0.035930157 -0.05808315 -0.032483857
000260 3b 26 03 be 77 63 1a bd 2e ee b7 3d 2e 93 a0 3d
       -0.12807553 -0.037692513 0.08980976 0.07840572
000270 b2 1a 84 3b 36 33 24 be 66 bf 12 3d 8d bc 58 bc
       0.0040315026 -0.1603516 0.035827063 -0.013228548
000280 93 db 80 3d 87 79 b7 3d de b2 c3 3b 91 d8 dc 3c
       0.062918805 0.089587264 0.0059722504 0.026958736
000290 da 0d b0 bd fb 41 0e be 99 91 32 bd 16 f1 1d 3b
       -0.08596392 -0.13892357 -0.043595884 0.0024099997
0002a0 c7 ee eb 3d 29 01 16 3d 0a 3d 2a be f3 13 99 3d
       0.115201525 0.0366222 -0.16624847 0.07474508
0002b0 3f 92 20 3d ed ae 51 3d b4 9b 19 bd e1 16 1c be
       0.03920197 0.051192213 -0.037502006 -0.15243103
0002c0 02 38 47 3d 48 c9 00 3e ba f2 9f 3d 30 73 39 3d
       0.048637398 0.12576783 0.07809968 0.045275867
0002d0 33 ec 95 3c 8c 1d e4 bd 10 a9 00 be de 66 60 bd
       0.018301105 -0.11138448 -0.12564492 -0.0547856
0002e0 bb 58 72 bc 51 31 8c bd 98 0f 52 bd 83 53 b6 bc
       -0.014791663 -0.06845344 -0.051284403 -0.022256618
0002f0 87 c2 12 bd 2a 8f 64 bd b2 08 a2 bd c5 bd 02 bd
       -0.035830047 -0.055800594 -0.07911815 -0.03191926
000300 49 00 fa 3c c7 79 bb 3c e3 53 2b bd 63 82 8d 3d
       0.030517714 0.022885216 -0.041828047 0.06909635
000310 41 5a 08 bd 93 47 7f 3b f3 58 fd 3c b4 da c5 3c
       -0.033289198 0.0038952574 0.030926203 0.024152137
000320 9b f8 a9 bd d5 e2 09 bc fd f4 c0 3d c5 0a 1b 3d
       -0.08299371 -0.008415897 0.09421728 0.037852068
000330 7c bc 14 3d e2 20 45 3c 4e 15 fe bc 39 5a 3e bd
       0.036312565 0.012031766 -0.031016018 -0.04647276
000340 ac ba d5 3c 48 39 d9 3c 00 12 c3 bc f8 5f 6c 3c
       0.026089989 0.026516572 -0.023812294 0.014427178
000350 65 8a e4 3c 5d ca b6 bd e1 c9 30 bd 00 4d 09 be
       0.027898023 -0.089253165 -0.043161277 -0.1340828
000360 91 16 1f bd ce 80 a9 3c dd 8f 39 3d c9 52 43 3d
       -0.03883988 0.020691302 0.045303214 0.047686372
000370 2b 91 4b 3c 4d 98 1e 3d a8 95 78 bd 00 aa 6a b8
       0.012424747 0.038719464 -0.0606896 -5.5948272e-05
000380 3c 20 ae 3d 64 43 c2 bc a5 04 29 3d e5 13 86 3d
       0.08502242 -0.023713775 0.041264195 0.06546763
000390 85 91 04 3c 6d fd 0a 3e 3e 40 b1 3d 8a 4e 35 bd
       0.008091335 0.13573237 0.08654831 -0.044264354
0003a0 9c 69 3a be c8 05 04 be 07 89 df bc 08 87 52 3b
       -0.1820435 -0.1289283 -0.02728702 0.0032123942
0003b0 51 db 96 bd dc fc c0 bb 04 20 af bd 83 9b 6c 3d
       -0.0736605 -0.005889518 -0.08551028 0.057765495
0003c0 72 0d 25 be 03 b5 82 bb ad 95 c7 bd df 8b b2 bd
       -0.1611841 -0.0039888634 -0.09745345 -0.087180845
0003d0 54 98 00 3c 39 b4 6c 3d 83 26 5b 3d ab d6 d5 bb
       0.007848818 0.05778906 0.053503525 -0.0065258346
0003e0 68 8d 41 3d 5c 93 0a 3e 18 f1 fa 3d 9c 97 26 3e
       0.047253996 0.13532776 0.12253016 0.16268772
0003f0 4b ae 46 3d da 03 d2 bd ec 21 41 bd 73 a1 fb 3d
       0.048506062 -0.10254641 -0.04715149 0.12286653

convnet.c5.bias f4 [120]
000000 ec f8 37 3c 3c e1 31 bc 08 83 14 3d 72 6e ee bc
       0.011228781 -0.010856923 0.036257774 -0.029105399
000010 f4 3c 5f 3d dc 49 28 3c 57 44 90 bd 60 10 82 bd
       0.05450149 0.010271516 -0.07044285 -0.063507795
000020 78 e7 d8 bc a5 6e ac 3c db 05 be 3b 06 94 53 3c
       -0.02647756 0.021048853 0.005799038 0.0129137095
000030 4e d0 85 bc 16 9e 4a bd 4d ef 9d bc 7f 16 65 3d
       -0.016334679 -0.04946717 -0.019279147 0.055929657
000040 03 b0 8b 3d 2b 0b 61 3d 31 12 dd 3c 96 88 bc 3c
       0.06820681 0.05494229 0.026986213 0.023014348
000050 85 99 ce bc 1b 25 ff 3c 1a f2 83 3c f9 ca 3a bd
       -0.025219688 0.031145623 0.016106654 -0.045603726
000060 03 3a 89 3d fc 80 b3 ba ac ab 72 3c 0d ed 97 bc
       0.06700518 -0.0013695057 0.014811438 -0.018545652
000070 e3 96 28 bd 77 7d 9e bc 1c ca bd 3b 3d c5 bb 3d
       -0.04115952 -0.019346936 0.0057919156 0.091684796
000080 ec 00 21 bc 1a 89 86 bd 38 9b 5c 3d 0d 21 81 3d
       -0.00982688 -0.06569119 0.053858966 0.06305132
000090 2a 9d d7 bc af 56 20 be 7a 26 29 bd 70 33 56 3d
       -0.026320059 -0.15658067 -0.04129646 0.05229515
0000a0 a2 ca ce bc 2f 24 04 bd 1d 37 08 3d e6 e1 e0 3d
       -0.025243107 -0.03226107 0.033255685 0.10980587
0000b0 b9 1a 3a bd 80 74 fa 37 e5 94 b3 3d 4f 88 bc 3d
       -0.04543564 2.9856572e-05 0.08768634 0.09205686
0000c0 05 3e 40 bc 34 b2 89 3b f6 d8 d1 3c 90 a0 e4 3d
       -0.011733537 0.0042021517 0.02561615 0.11163437
0000d0 ea c8 31 bd 35 af 47 bd 91 a7 64 bc 85 2b 21 3d
       -0.043404497 -0.048751075 -0.013955967 0.039348144
0000e0 f4 2c e7 bd 72 b0 ca 3c a7 0a 0d 3b 04 3c 2a 3d
       -0.11287871 0.024742339 0.0021521242 0.04156114
0000f0 12 11 a4 bd de da 39 3e 99 33 3f 3c 28 a1 af 3d
       -0.080110684 0.18149897 0.011670017 0.0857566
000100 80 77 47 3d 91 9f 03 3d 25 bd 69 bd ca 67 a1 bd
       0.04869795 0.032134596 -0.057065148 -0.07881124
000110 89 f7 71 bd 0f 81 12 bb b0 ff 35 bc fb e6 dc bb
       -0.05907396 -0.0022354757 -0.011108324 -0.006741402
000120 7b ba 5d 3c 9e e6 5d 3a 6d 34 93 bb 79 de d5 bc
       0.01353323 0.00084648456 -0.0044923336 -0.02610706
000130 eb ea 05 3e 64 8f 85 bd 20 55 dd bc cb 7d 58 bb
       0.13077895 -0.0652149 -0.02701813 -0.0033033963
000140 dd 85 ac bb 6d 02 ec bc 8b 81 10 3c 5c 2b f5 bc
       -0.005264981 -0.02880975 0.008819948 -0.029927902
000150 3d 51 f7 3d 26 de cb 3d 63 f6 01 bd 0d ac be 3d
       0.12076042 0.09954481 -0.031729113 0.0931016
000160 18 38 5f 3c a2 6d 0c 3d 6c a6 ff ba 1d 75 89 bd
       0.013624214 0.03428424 -0.0019504554 -0.06711791
000170 82 32 7d 3c a0 c7 e7 b9 f2 06 06 bd e6 b4 5d bd
       0.0154539365 -0.00044208486 -0.032721467 -0.054127596
000180 ad e7 74 3c 9b 78 06 3d 30 05 a4 bb f0 8a a8 3d
       0.014947814 0.032829862 -0.005005501 0.08229625
000190 8a cd 0e bd 34 0a 6b bd cd 4b 51 3b c0 df f4 3d
       -0.034863986 -0.057382777 0.003193605 0.119567394
0001a0 4d c8 15 bd 5c 38 94 3d 84 ae 72 bd a2 a3 18 3d
       -0.036567975 0.07237312 -0.059248462 0.037265427
0001b0 44 f9 80 bb 79 94 e8 3d 0e bb 26 3c 17 37 11 bc
       -0.003935965 0.11356444 0.010176433 -0.008863232
0001c0 aa 1d 03 bc ba 10 8d bc d1 57 85 bc 15 39 8a bb
       -0.008002678 -0.01721989 -0.016277226 -0.0042182305
0001d0 ef 9e 63 3c 34 22 31 3b fe bc 70 3c 88 88 80 3d
       0.013892873 0.0027028443 0.014693497 0.06276041

fc.f6.weight f4 [84, 120]
000000 5c 62 e8 bc d5 15 a7 bc 76 a2 8c 3b 8f 2a 24 3e
       -0.028367214 -0.020396153 0.004291828 0.1603186
000010 6e 9b 13 3e a0 70 27 bd 70 62 92 bd 52 fb 92 3d
       0.1441476 -0.040878892 -0.07147682 0.07176842
000020 ec 37 2c bb ba 9b 6e bd 2d 54 fb 3b b9 97 b9 bd
       -0.002627845 -0.05825398 0.0076699466 -0.09062142
000030 e1 e5 d5 bb 02 00 02 3d 6d a1 4b 3d 89 38 cd 3d
       -0.006527648 0.03173829 0.049714494 0.10020549
000040 ba 04 08 3e 73 43 b7 3d bb dd 2d bc 35 a9 43 3b
       0.13283053 0.08948412 -0.010611947 0.0029855494
000050 3b 41 a9 bd 71 6d 78 3e c0 ef f9 3d 8b d1 d1 bd
       -0.08264395 0.24260499 0.12203932 -0.10245045
000060 4f a5 d0 bd f5 99 95 3d 06 cb 0e be a2 5d 20 3e
       -0.1018778 0.073047556 -0.13944635 0.15660718
000070 ee 69 13 3e 4c 05 40 bd 3a 88 ce 3d ca 2c ed 3d
       0.14395878 -0.04688005 0.10084577 0.115808085
000080 fc f6 b9 3d d6 aa 96 bd b7 fc ce bd a6 b5 44 be
       0.09080312 -0.07356803 -0.10106795 -0.19209918
000090 f8 f2 40 3b b3 11 80 bd c0 c2 6b 3c d0 5c 31 3e
       0.0029441696 -0.06253376 0.014389694 0.17320561
0000a0 d5 b0 33 3d c2 96 a6 bd 6a 2e bd 3d a3 2c 10 3e
       0.043869812 -0.081342235 0.092373684 0.14079528
0000b0 01 4e cf 3d c9 bb 0b 3d e2 9d b5 3d c5 6d 4b bd
       0.101223 0.034114633 0.088680044 -0.04966523
0000c0 22 a6 63 3d a3 47 3b 3e a7 64 8e 3c de 2c ec bd
       0.05557836 0.18289046 0.01738198 -0.11531995
0000d0 da bb 2e bd ce bb 8e bd 06 45 db bb da c5 7f 3d
       -0.042659618 -0.06969415 -0.006691578 0.062444545
0000e0 19 68 02 3e 30 be 3e bd 88 b4 55 3d 98 f2 93 3d
       0.12735023 -0.046568096 0.05217412 0.072240055
0000f0 6e 62 f6 bc 6e 3c 5a 3d ad 3e ec bd 12 43 ad 3c
       -0.030076232 0.053280286 -0.11535392 0.021150146
000100 bf b2 25 3e ad 16 9f 3c 3a 06 ae 3d 5e e2 fa 3a
       0.16181467 0.019419992 0.084972814 0.0019140949
000110 7d af 5f 3d a2 89 05 3e f4 8b 39 3d 78 79 32 3e
       0.054610718 0.13040784 0.045299485 0.17429149
000120 6d 6b e9 3b b0 e9 fb bc 03 ea 9d bd ad 19 5f bd
       0.007123402 -0.03075108 -0.0771065 -0.054467846
000130 38 c2 17 3d ee 3d 95 be c1 cd 40 bb e4 7c 57 bd
       0.037050456 -0.2914881 -0.0029419514 -0.05260934
000140 2f 85 cb 3d 40 5e 27 bd dc 27 f3 bd 33 8d 96 bd
       0.09937512 -0.04086137 -0.11872837 -0.0735115
000150 08 b5 ef 3d ca c9 a4 3d 5f a3 2a 3e ed 03 a4 3d
       0.11704451 0.08046301 0.16663884 0.08008561
000160 0c c7 79 bd db 84 d8 3d 50 14 7d 3c 21 0c 5c bd
       -0.06098084 0.10572215 0.015446737 -0.053722505
000170 0a 1f 8d 3d 59 ac 3f 3c 72 e6 14 bd 79 c6 c8 3d
       0.06890686 0.011698806 -0.036352582 0.09803481
000180 26 9b e8 3c 79 f8 76 3d 45 76 00 be b6 a6 07 3e
       0.028394293 0.060295556 -0.12545116 0.13247189
000190 6a 17 82 bd ae 07 8c bb 14 03 99 bc 6a 47 ee 3c
       -0.06352122 -0.0042733764 -0.018678226 0.029086787
0001a0 ef 4e 8a 3d 71 f4 f7 3d de d2 9b bd f7 d8 80 3b
       0.06753337 0.121071704 -0.07608579 0.003932114
0001b0 7e b0 a9 bc f3 42 48 3d 17 f2 bb 3c 08 4d 55 3d
       -0.02071404 0.048891973 0.022942586 0.052075416
0001c0 c1 cc aa 3d 69 7c 46 3e d4 1c 57 3c 8b 92 ba 3d
       0.08339835 0.19383396 0.013129432 0.09109982
0001d0 87 b6 b5 3c ad 95 86 be f8 66 50 3d 7f 3f 6e 3e
       0.022181762 -0.2628607 0.05087945 0.2326641
0001e0 14 7c 4c bd c9 3e 03 bd 14 13 5a bd fc 1a d1 bd
       -0.049923018 -0.0320423 -0.05324085 -0.10210225
0001f0 51 b1 84 bc 55 78 d5 3d 4a 7e 2b 3e 20 18 ff bb
       -0.016197832 0.10423342 0.16747394 -0.0077848583
000200 40 04 60 3d 59 ce 3f bd 14 97 62 bc e2 54 02 bd
       0.054691553 -0.046827648 -0.013829965 -0.03181923
000210 24 4c 0a be 31 8f 30 bd 0b bd 5e be 38 5f 35 3d
       -0.13505608 -0.043105308 -0.21751802 0.04428026
000220 18 08 df bd 68 ff 10 bd 65 62 2f bc 77 73 b8 3d
       -0.10890216 -0.035399824 -0.010704611 0.09006398
000230 3a 90 0f 3c 8c 8c b3 bd 9f 23 88 3c ed 05 c0 3b
       0.008762414 -0.087670416 0.016618548 0.0058600814
000240 23 3b c0 3d c8 3a 00 3e cd 43 46 3c 40 da b1 3c
       0.093862794 0.12522423 0.012101126 0.021710515
000250 36 99 22 3e 7f 28 4a bd 61 2b 2a bc 02 b6 01 bd
       0.15878758 -0.049355026 -0.010386319 -0.031667717
000260 6b e5 04 3e 0a 33 eb 3d 28 b1 08 3d ef b6 6c 3d
       0.12978141 0.11484344 0.033372074 0.057791647
000270 14 36 be bb af 49 ee bd 46 bb b2 bb 73 be 19 bc
       -0.0058047865 -0.11635148 -0.0054544536 -0.009383786
000280 12 e9 09 3d f2 6c 9c 3d 12 87 ae 3c a6 ee 34 3d
       0.03366954 0.07637967 0.02130464 0.044172905
000290 da 9a 24 3d ca b8 9b 3d d6 f1 28 3d b8 ea 27 3e
       0.04018674 0.07603605 0.041246258 0.16398132
0002a0 df 8f 6b 3b 9b 32 6a 3d d6 22 bb 3d ed e5 4a 3a
       0.0035943908 0.057177167 0.09137504 0.000773995
0002b0 5c 44 99 bd 52 69 87 bd 9a 4a a6 bd 7f 52 f2 3d
       -0.07483742 -0.06611885 -0.08119698 0.11832141
0002c0 b8 e1 95 bd 7c 05 c0 bd b0 66 31 3d 40 e6 b1 bd
       -0.07318443 -0.09376046 0.04331082 -0.08686495
0002d0 fd fc 88 bc ba e3 76 3e 5c 17 8c bd 7e 63 43 3e
       -0.016722197 0.24110308 -0.06840393 0.19080922
0002e0 82 9d 95 3d 6e 9c 2a bd bf 54 c4 bd 06 42 87 be
       0.07305433 -0.04165309 -0.095864765 -0.2641756
0002f0 e7 fb e4 bb a0 fd b8 3d fb ef 0a 3e d4 c3 df bd
       -0.006988037 0.0903275 0.13568108 -0.10926023
000300 ed ad 51 3a fe d5 51 3e 87 a3 ef bc 59 35 03 3d
       0.0007998634 0.20491788 -0.02925278 0.0320333
000310 0e 5f 2a 3c 78 6d 45 3e f5 e6 c3 3d 96 ae 38 3d
       0.010398639 0.1928004 0.09565536 0.045088373
000320 ae eb c8 3d 94 67 d3 bc 6e 63 67 bd 4c aa 37 3d
       0.09810577 -0.025806226 -0.056491308 0.044840142
000330 d9 dc f9 3d 5f 92 4d 3d 82 d8 50 bb 6a 0e aa 3d
       0.122003265 0.05018842 -0.003186733 0.083035305
000340 75 86 c4 bc de 07 ff 3d 83 cb 1a 3e 09 ea 2f 3d
       -0.023989895 0.124526724 0.15116696 0.042947803
000350 55 f1 c6 ba c8 4b 8c 3d 66 02 c6 bd cb 72 85 3d
       -0.0015178124 0.068503916 -0.09668426 0.06516036
000360 12 6d 69 3e 6c 32 e6 3d 9c 87 8c bd 63 d2 09 be
       0.22795513 0.11240086 -0.06861803 -0.13459162
000370 d1 e5 4e bd de 0c 83 3d 62 01 07 3d 92 ef 49 bc
       -0.05051214 0.063989386 0.032960303 -0.012325184
000380 9c 24 9b 3c 63 0e 02 3e 5d d0 70 3d cb 01 e1 3d
       0.018938355 0.127008 0.05879246 0.1098667
000390 54 7f 82 bd 78 83 ea 3b ad 0a 07 3d 7b 62 b5 bc
       -0.06371942 0.0071567856 0.032969166 -0.022141686
0003a0 f9 1c 95 3c 4b c8 48 be 0d 80 18 bd 1b 1d 12 3e
       0.018202292 -0.19607656 -0.037231494 0.14268915
0003b0 88 c8 09 3c c0 2a 59 3e a7 0b 41 bd 1f 5a db bc
       0.008409627 0.21207714 -0.047130253 -0.026776372
0003c0 46 52 84 bb 3f 8f a7 3d 11 d0 21 bd 96 e8 79 3c
       -0.004038128 0.08181619 -0.03950507 0.015253207
0003d0 e5 96 af 3c 20 e1 ad 3d de 95 d3 3d 31 1d e6 bc
       0.021434257 0.08490205 0.10331319 -0.028090091
0003e0 63 9d c9 bd 7d 1e 99 3d e0 6f a8 bd 70 16 fd 3c
       -0.09844472 0.07476518 -0.082244635 0.030894488
0003f0 90 67 10 bd 41 7e bc 3c a0 d3 a9 3c ce 55 9d bd
       -0.035255015 0.023009421 0.020730793 -0.076823816

fc.f6.bias f4 [84]
000000 3d 4d f8 3d 1b 74 19 3e c7 a7 2b 3d 6d f2 6d bc
       0.12124107 0.14985697 0.04190805 -0.014523131
000010 bc de ea bb 25 ad 15 3e 0f a2 94 3a 5e d1 34 bd
       -0.0071676653 0.1461683 0.0011339801 -0.04414498
000020 ea f2 31 3e b0 74 2a 3e 24 e2 ab bd c9 3d a7 bd
       0.1737782 0.16646075 -0.08392742 -0.081660815
000030 94 ca 0f 3c 26 75 c6 3b 89 d5 1c bd 94 98 db 3d
       0.008776326 0.0060564457 -0.03828958 0.10722461
000040 9b 21 fb 3c 54 58 8f 3c 04 6f 5f 3d a6 96 d0 bd
       0.030655673 0.017498173 0.054549232 -0.10184984
000050 6e 6b a6 bc 44 a0 c6 3c 01 c2 29 bc b9 44 a1 3d
       -0.020314898 0.024246342 -0.010361196 0.07874436
000060 ef fb 2a 3b d6 08 82 3d 16 fa 16 3e 4f a1 3d 3d
       0.0026090106 0.063493416 0.14743838 0.046296414
000070 60 dd a0 b9 6e be 14 3e 72 e9 06 3e 5a 50 11 be
       -0.00030682515 0.14525768 0.1317499 -0.14190808
000080 f3 5d 81 bd 34 da 0e 3e 68 14 96 bc 81 8c 51 3d
       -0.063167475 0.13950425 -0.018320277 0.051159386
000090 2e be f3 bd 96 81 4a 3d 4f 52 bb 3d 3f 3e d3 3d
       -0.11901508 0.04943999 0.091465585 0.10314607
0000a0 2b da 31 3c ce 52 b1 bd ee 91 91 bb ed 8c 83 3c
       0.010855238 -0.08658372 -0.004442445 0.01605841
0000b0 78 77 b9 bd 8f a6 93 bd a1 00 70 bd f1 36 00 bd
       -0.0905599 -0.07209503 -0.05859435 -0.031302396
0000c0 c9 26 30 bd 05 23 be bd cc 61 59 3c 3f 4c 1b 3d
       -0.04300574 -0.09284023 0.0132679455 0.03791451
0000d0 2e 9c 50 3d 34 aa b3 3c ab af 85 3d 6b 50 67 bd
       0.050930195 0.021931745 0.06527647 -0.056473177
0000e0 27 8d 05 bd fe 84 08 3e e0 b9 ce bc 71 2d e2 3d
       -0.032605316 0.13331982 -0.025235116 0.110438235
0000f0 fd 4b b2 3d 42 24 0c bb 17 af ab bd 63 35 fc 3d
       0.087059 -0.0021383916 -0.08383005 0.1231487
000100 08 63 9e 3d c6 52 b6 3d 70 f5 ef bd 26 d2 9c 3c
       0.077337325 0.089025065 -0.11716735 0.019143175
000110 f9 84 68 bd 39 6e 99 3d 94 62 29 bd 89 8f e7 bc
       -0.056767438 0.074917264 -0.041353777 -0.028266685
000120 f9 e0 96 bd d2 39 f3 3d 83 c9 ad 3c 7b 66 8c 3c
       -0.07367129 0.11876263 0.021214252 0.01713871
000130 7a 3b 9d 3d c2 41 8b 3d ac 66 98 3c 6c b5 5e 3d
       0.0767736 0.06799652 0.018603645 0.054372236
000140 6a fa ed 3d b7 b5 83 3d 00 81 84 bd c4 fe 35 bc
       0.11620028 0.06431144 -0.06469917 -0.011108104

fc.f7.weight f4 [10, 84]
000000 24 52 4f 3d 11 ae 32 be ad f6 0a be 7e ea 9a bd
       0.050615445 -0.17449214 -0.13570662 -0.07564257
000010 1f 5d 2f 3e 1e 36 de bd 99 3e 81 3d 31 a1 ae bc
       0.17125367 -0.10850166 0.06310768 -0.021317096
000020 de e5 21 be de e4 02 be 45 2c b0 bc 5f 34 a4 bd
       -0.15810344 -0.12782618 -0.021505484 -0.080178015
000030 d6 a5 30 3d d9 ea 0f be 70 4d 78 3d 32 df 27 3d
       0.043126903 -0.14054431 0.060620725 0.04098434
000040 b1 97 d8 3d 2d c5 9e 3d d1 37 84 bd 2f 80 5d be
       0.10575808 0.07752452 -0.06455959 -0.2163093
000050 61 59 38 3e 9b cc 83 bd 4e 45 60 bd a2 2d bc bd
       0.18002845 -0.0643551 -0.054753594 -0.09188391
000060 f2 6e aa bc ad 81 5b 3a 96 af ac bb 76 6f 46 bc
       -0.020804856 0.000837351 -0.005269955 -0.012111535
000070 38 97 2a be 89 3f 22 bd 0a 38 f8 bd 54 70 2e bd
       -0.16659248 -0.039611373 -0.121200636 -0.042587593
000080 30 b9 14 3e 84 c2 37 3e 90 66 ca bd 9b 07 44 be
       0.14523768 0.17945296 -0.098828435 -0.19143526
000090 90 68 51 3c cf d0 db 3d 61 d9 10 3e 6a dd 98 bd
       0.012781277 0.107331865 0.14145423 -0.074641064
0000a0 61 bd ec 3d ed 82 16 3e a6 f1 79 bd c5 96 24 3e
       0.11559559 0.14698382 -0.06102147 0.16073139
0000b0 ab b8 0e bd 32 0c 25 be ed 6f a9 bd 10 94 1a bb
       -0.03484408 -0.16117933 -0.08273301 -0.0023586787
0000c0 c7 b1 7e bc 8f 6f 38 be 44 c6 dd 3c bd 27 97 bc
       -0.015545315 -0.18011306 0.02707208 -0.018451566
0000d0 4b 64 8c 3d ca 1a 5d be da 53 f3 bd 67 34 17 3d
       0.06855067 -0.2159225 -0.11881228 0.03691521
0000e0 09 e1 bf bd 4a 9f e5 3c d1 8f 62 3d 92 38 7b 3d
       -0.09369094 0.028030057 0.055312935 0.061333247
0000f0 3c 4d b6 bd 6d 42 5c be 1b fd 19 bc 47 2a 53 3e
       -0.0890145 -0.21509714 -0.009398724 0.20621596
000100 92 06 84 bd 7d 86 71 3d 2e 93 2b 3d c4 6c 24 be
       -0.06446566 0.05896615 0.04188841 -0.16057116
000110 53 01 21 3d 38 d9 86 3c c7 b6 2b be 59 26 34 bd
       0.039307903 0.016461 -0.16768943 -0.043981884
000120 f8 67 ce bd b8 ac 72 3d 93 60 53 3c b6 5a 2b 3d
       -0.10078424 0.05924675 0.012901443 0.041834556
000130 e4 79 03 be 66 24 62 be fe 04 94 bd 75 b0 4c 3d
       -0.12839466 -0.22084197 -0.07227515 0.04997297
000140 bb ce 4d be e5 98 ae 3c 1d f7 f5 3d b6 48 3b 3d
       -0.20098393 0.02131314 0.12010024 0.04572364
000150 b6 6f 83 be 54 4a ab 3d 6e 4f 2e 3e ef 8e e1 bc
       -0.25671166 0.08363786 0.17022488 -0.027533976
000160 9e ca af 3d c6 f1 a2 bd b6 23 61 3d a3 61 67 be
       0.08583568 -0.07956271 0.054965697 -0.22595839
000170 d7 10 d4 3d 29 03 a4 3d 17 30 80 bd b8 e4 6b bd
       0.103547744 0.08008415 -0.062591724 -0.05759117
000180 ae f9 c9 3d 50 ff 51 3e 01 8d 46 be b7 a9 69 3e
       0.09862076 0.2050755 -0.19389726 0.22818647
000190 b3 83 8a 3d a5 64 02 3e 64 db 45 bd 1e f0 3e 3e
       0.06763401 0.12733705 -0.04830493 0.18646285
0001a0 07 83 25 3e f7 e4 38 be 10 7c 07 be 15 e0 dd bd
       0.16163264 -0.18056093 -0.1323092 -0.10833756
0001b0 b3 3c 76 bc 88 96 ba 3c 35 d5 06 3d fd 94 48 be
       -0.01502912 0.022776857 0.032918174 -0.19588085
0001c0 a1 07 ca bd 96 1a ee 3d c0 8e b5 3c 1f 69 e7 bd
       -0.09864736 0.116261646 0.022162795 -0.11299347
0001d0 8f 99 39 bd 30 85 21 3d 8c e7 70 be 99 91 6b 3d
       -0.04531246 0.039433658 -0.23525828 0.0575119
0001e0 d1 08 2d bc b3 db 94 3d 0e cb 94 bd 20 f9 19 3e
       -0.010561184 0.07268467 -0.07265292 0.1503644
0001f0 49 c9 8b bd b2 27 80 3d dc 5d d3 bd 41 9e 58 be
       -0.068255015 0.06257571 -0.10320637 -0.21154119
000200 19 8a 14 bd d1 31 85 3d ec 3e a3 bd d2 e7 11 be
       -0.036264513 0.06503642 -0.07970986 -0.14248589
000210 8e 22 fa bd 18 bf 7b be 70 e5 08 3e 82 03 17 bd
       -0.12213622 -0.24584615 0.13368773 -0.03686858
000220 34 ed a7 bd ff 2c 7c bd 16 e6 e2 3d 85 59 37 3d
       -0.0819954 -0.06156635 0.11079042 0.044763107
000230 8c 7d 92 bc ac b9 d4 3d 6b 0c 8b 3d 26 fa 1b 3e
       -0.017882131 0.103869766 0.06789478 0.15232143
000240 16 0d 20 3e 0c d2 d5 bd 41 dd 64 bd 08 05 94 bd
       0.15629992 -0.10440454 -0.055875067 -0.07227522
000250 2d 82 68 be 57 51 59 be 8f 64 12 3e aa 4c 02 be
       -0.22705908 -0.21222435 0.14296173 -0.12724558
000260 e0 14 3f 3d a2 5b 17 be 6b 95 78 3d ea 5c 95 be
       0.046650767 -0.14781049 0.06068937 -0.2917245
000270 ba 35 7a bd 0a 64 4d 3e 52 bc 61 be d0 b0 80 bd
       -0.061086394 0.20057693 -0.22044495 -0.06283724
000280 89 b7 c4 3d cd 80 a0 bd 60 7b d0 3c 0c d8 c9 bd
       0.09605319 -0.07837067 0.025449455 -0.09855661
000290 95 d4 2b bc ff 87 48 be f5 7e 93 bd 19 41 35 be
       -0.010487695 -0.19583128 -0.072019495 -0.17700614
0002a0 69 d1 a1 3c 36 b0 23 be c5 96 a0 3d 09 0e 2a 3e
       0.019753175 -0.15985188 0.07841257 0.16606916
0002b0 fa dc 07 bd 2f 38 13 be 76 00 69 3d 20 1e 1c be
       -0.033169724 -0.14376901 0.056885205 -0.15245867
0002c0 64 51 5c bd 92 e1 13 bc 4f 2b 34 bd 76 96 1b bb
       -0.053788558 -0.009025948 -0.043986615 -0.0023740805
0002d0 eb 21 b8 be 80 3f 07 3e 55 bd c6 bd 9a b3 88 bc
       -0.35963377 0.13207817 -0.09704081 -0.016687203
0002e0 a8 ed 0c be 14 49 61 bd 4d 1d eb 3d 89 18 af 3d
       -0.13762534 -0.055001333 0.11480198 0.085496016
0002f0 fd a7 42 3d 9f 27 45 be da 60 27 3e 61 27 ef bc
       0.047523487 -0.19253395 0.1634554 -0.029193582
000300 90 73 e4 bd a2 15 7d 3d 0f 17 64 be e2 40 e6 3d
       -0.11154854 0.06178821 -0.22274421 0.11242844
000310 15 3f 94 3d b5 be 3a be e5 6d 55 bc b9 2c 64 bd
       0.072385944 -0.18236811 -0.013026689 -0.055706713
000320 88 04 d1 bd 79 c9 f5 3d 4e ac 09 bd 5c b8 21 3e
       -0.102059424 0.120013185 -0.03361159 0.15792984
000330 d4 dd 16 bd ff 2d 08 be 98 0d b7 3d 91 75 07 be
       -0.036832646 -0.13298796 0.0893814 -0.13228442
000340 61 e7 0e be 04 f5 0c 3d a7 cd 24 3e 10 d5 fc bd
       -0.13955452 0.034413353 0.16094075 -0.12345326
000350 fb 06 b8 bd 1b 9a 4b be 91 e0 19 3d e9 20 2a 3e
       -0.089857064 -0.19883005 0.03756768 0.16614117
000360 0d 3e 92 3d 15 1c 2e bd 95 f3 28 3d 8e 5e 23 3e
       0.071407415 -0.04250725 0.041247923 0.15954039
000370 0c 41 b7 3d 22 b0 ab bd b6 d4 36 3d 83 67 0a be
       0.089479536 -0.08383204 0.04463645 -0.13516049
000380 85 f2 de bd 9c de 9e 3c bd 56 17 3d f1 b5 22 be
       -0.10886101 0.019393258 0.036947954 -0.15889718
000390 45 39 1b 3b d7 9a 2f 3d 52 e1 9c bd 87 72 0e 3e
       0.0023685258 0.042872276 -0.07660164 0.13910876
0003a0 0d ed 20 3e ee ff de 3c 5a 45 34 be 73 1a 4e bd
       0.15715428 0.027221646 -0.1760458 -0.050318193
0003b0 6f b1 84 bd d0 38 7d bd 9b a7 c5 bc 52 b9 89 bd
       -0.06479155 -0.06182176 -0.024127772 -0.067248
0003c0 9a c8 56 bd a4 87 2a be f7 3c 24 3e ee c3 0d 3e
       -0.052437402 -0.16653305 0.16038881 0.13844272
0003d0 16 33 c1 bd 23 b4 ea 3d 95 a1 65 3d 4a 1d 61 3d
       -0.09433572 0.114601396 0.0560623 0.054959573
0003e0 f6 f3 2e be 7d f0 f2 bd 34 2d 56 bd b6 72 b9 3d
       -0.17085251 -0.11862276 -0.052289203 0.090550825
0003f0 c5 16 9a 3d 83 1f 13 be d8 a2 1f be 35 47 7e 3c
       0.07523874 -0.1436749 -0.15589464 0.015519907

fc.f7.bias f4 [10]
000000 79 61 cf 3c b1 20 22 3e 61 0a 59 bd cf 61 3b 3b
       0.025315033 0.15832783 -0.052988414 0.0028592234
000010 e3 d1 9d bd b0 40 6c 3c b0 e3 ec bd cc ac 09 3d
       -0.07706048 0.01441972 -0.115668654 0.033612058
000020 75 3b 45 bc 4f 0e 00 bc
       -0.012038101 -0.007815911
