Lenet-5_mnist/model/13_model.pkl (torch, 250431 bytes, 10 tensors)

convnet.c1.weight f4 [6, 1, 5, 5]
0	0x3cafb328	0.021447733
1	0xbe5d01b6	-0.21582684
2	0xbded712f	-0.11593854
3	0x3da32e13	0.07967772
4	0x3e6738ee	0.2258031
5	0xbe502707	-0.20327388
6	0x3dc9bdf5	0.098506846
7	0xbdb6886d	-0.0891274
8	0xbd3a71ab	-0.04551856
9	0x3e04bd87	0.12962924
10	0xbe63fc71	-0.22264268
11	0x3e50f6ce	0.20406649
12	0x3d505bc5	0.05086877
13	0x3e8b3402	0.27188116
14	0xbe137f9d	-0.1440415
15	0x3d892f7a	0.066985086
16	0x3eaa1656	0.33220166
17	0x3e77813e	0.24170396
18	0x3e973318	0.2953117
19	0x3ca1f328	0.019769266
20	0xbc6ef616	-0.014585039
21	0x3c76d23b	0.015064771
22	0x3e6580ed	0.22412463
23	0x3e2d3885	0.16916092
24	0xbcd3df2b	-0.02586325
25	0x3ccd341a	0.025049258
26	0xbe6e7588	-0.23287022
27	0xbee86682	-0.45390707
28	0xbed967fc	-0.42462146
29	0xbe86c0f7	-0.26319095
30	0x3e507196	0.2035583
31	0xbe1f9174	-0.1558283
32	0x3ca556ca	0.020182986
33	0xbeb6973b	-0.35662255
34	0xbe667017	-0.22503696
35	0x3e00c7a5	0.12576158
36	0x3eb4da09	0.35322598
37	0xbb8cf699	-0.0043018577
38	0x3d09cd2d	0.033642936
39	0x3bfa8c18	0.007646095
40	0x3d21152f	0.039326843
41	0x3e8defd8	0.2772205
42	0x3eaa29a0	0.33234882
43	0x3e8c9a50	0.2746148
44	0x3e80575b	0.25066647
45	0x3dbf59aa	0.09343274
46	0x3d1f34db	0.038868766
47	0x3e7618c1	0.2403288
48	0x3dc52281	0.09625722
49	0x3e94af32	0.29039913
50	0x3e5bad99	0.21452941
51	0xbe4803ca	-0.19532695
52	0x3d1306d1	0.035895173
53	0x3d2ca590	0.04215008
54	0xbd5b80e8	-0.05358973
55	0x3e462b0c	0.19352359
56	0xbe812485	-0.25223175
57	0x3d59e072	0.053192563
58	0xbdf016a7	-0.117230706
59	0x3e2051a9	0.15656151
60	0xbc489f10	-0.012244955
61	0xbd6779cb	-0.056512635
62	0x3e2d7b29	0.16941513
63	0x3e62d31a	0.22150841
64	0x3e32a93c	0.1744737
65	0x3e08f044	0.13372904
66	0x3e009d43	0.1255999
67	0xbe2d9e88	-0.16955006
68	0x3e606cfa	0.21916571
69	0x3e08bf74	0.13354284
70	0x3e5fceee	0.21856281
71	0x3e10a7ca	0.14126506
72	0xbeb18afd	-0.34676352
73	0xbe93878b	-0.2881435
74	0x3c55cc90	0.01304926
75	0xbe30d13f	-0.17267321
76	0x3d4a9d13	0.049466204
77	0x3d0ccada	0.03437314
78	0x3e623b99	0.22093047
79	0x3e79c795	0.24392541
80	0xbe122219	-0.1427082
81	0x3e8a42cb	0.27004084
82	0x3e8844ef	0.26615092
83	0x3e14498b	0.1448118
84	0x3e19b6ba	0.15011111
85	0xbd00b109	-0.031418834
86	0x3e9a7797	0.30169365
87	0xbc841218	-0.016121909
88	0xbdfb6146	-0.12274413
89	0x3d5a411e	0.053284757
90	0x3c3aaa15	0.01139309
91	0xbd3d3380	-0.046191692
92	0xbd5d634b	-0.05404977
93	0xbe85cf54	-0.2613474
94	0xbd86e429	-0.06586487
95	0xbd131c05	-0.035915393
96	0x3db24e09	0.0870629
97	0xbe4a900f	-0.19781516
98	0x3d2b9334	0.04188843
99	0x3cd10ab3	0.025517797
100	0x3e9ce889	0.3064616
101	0x3eb0c619	0.34526137
102	0x3c37c368	0.011216022
103	0x3ddcf3d0	0.10788691
104	0xbeaea133	-0.3410736
105	0x3e1635e9	0.14669003
106	0x3e2bcc2e	0.16777107
107	0x3df6f28d	0.12057982
108	0xbe097196	-0.13422236
109	0xbeb97d75	-0.3622853
110	0x3e493e9a	0.19652787
111	0x3eb71c95	0.35763994
112	0x3d3e6b8c	0.046489283
113	0xbec73595	-0.38908067
114	0xbebd00ad	-0.36914578
115	0x3e0cf567	0.13765489
116	0x3e030b5b	0.127973
117	0x3db47867	0.088120274
118	0xbe4b8890	-0.19876313
119	0xbe81f523	-0.25382337
120	0x3e5f86c1	0.21828748
121	0x3e83f0db	0.25769696
122	0xbca5bcc2	-0.020231608
123	0xbe88b00e	-0.2669682
124	0xbde99a53	-0.11406388
125	0x3e263d61	0.16234352
126	0x3eacad9e	0.3372621
127	0x3e55b5fa	0.208702
128	0x3e84d1e0	0.25941372
129	0x3ee97d64	0.45603478
130	0x3e12c9ed	0.14334841
131	0x3edc1509	0.429848
132	0x3eabd0b0	0.33557653
133	0x3dedae60	0.11605525
134	0x3dcbbc1a	0.09947987
135	0x3d7074f8	0.0587053
136	0xbe10727e	-0.14106175
137	0xbdaa2fac	-0.08309874
138	0x3dd48f58	0.10378903
139	0x3d81cec6	0.06338267
140	0xbd5ac60c	-0.05341153
141	0xbecab6b1	-0.39592507
142	0xbe93eeda	-0.28893167
143	0xbe955315	-0.2916495
144	0xbea39d85	-0.31956115
145	0xbec68b12	-0.38777977
146	0xbe95173d	-0.29119292
147	0xbeb0e614	-0.34550536
148	0xbea22c56	-0.3167445
149	0x3e159f9b	0.14611666

convnet.c1.bias f4 [6]
0	0xbcfcb8ed	-0.030849898
1	0xbb95ea04	-0.004575016
2	0xbcc1b744	-0.023646958
3	0xbc08c54d	-0.008347821
4	0x3d86bc33	0.06578865
5	0x3e0f3501	0.13985063

convnet.c3.weight f4 [16, 6, 5, 5]
0	0x3d1e50c4	0.038651243
1	0x3e0da611	0.1383288
2	0x3dd7cedb	0.105375014
3	0x3dcf3457	0.10117405
4	0xbdce9857	-0.1008765
5	0x3ba936ad	0.0051639886
6	0xba8e7901	-0.0010869802
7	0x3df783a8	0.12085658
8	0x3d520ee6	0.05128374
9	0xbe0d6fac	-0.1381213
10	0xbd1ce373	-0.03830285
11	0x3cf5ceda	0.030005861
12	0x3dd36a15	0.10322968
13	0x3d031439	0.032001708
14	0xbe04edcd	-0.12981339
15	0x3d145062	0.03620947
16	0x3e1d83cb	0.15382306
17	0x3dfbfa24	0.1230357
18	0xbd6081e3	-0.05481137
19	0xbcb984df	-0.022646366
20	0x3bfe136f	0.0077537815
21	0x3d5dcc44	0.05414988
22	0x3d804a77	0.06264203
23	0xbe495586	-0.19661531
24	0xbea4a7c5	-0.32159248
25	0x3db3cb5c	0.08779022
26	0x3dbf617a	0.09344764
27	0x3db55f12	0.08856024
28	0x3daee336	0.08539431
29	0xbe278e8b	-0.1636297
30	0xbdaad808	-0.08341986
31	0xbe30ed35	-0.17277987
32	0xbddb98f2	-0.107225314
33	0xbda388d8	-0.07985085
34	0xbe78ef57	-0.24310051
35	0xbd3d0faf	-0.046157535
36	0xbe288751	-0.16457869
37	0xbd97b19c	-0.07406923
38	0xbdb67cac	-0.08910498
39	0x3d8cac29	0.068687744
40	0xba8dcfe7	-0.0010819406
41	0xbe72266f	-0.23647474
42	0xbdc2226f	-0.09479224
43	0x3c374410	0.011185661
44	0x3de09225	0.10965375
45	0xbe75ccb0	-0.24003863
46	0xbeab5ef6	-0.33470887
47	0xbe979d3d	-0.2961215
48	0xbdf256e5	-0.1183298
49	0xbdfcbc01	-0.123405464
50	0x3d068cde	0.032849185
51	0x3d740394	0.059573725
52	0x3b31c299	0.0027124046
53	0x3de1006b	0.10986408
54	0x3ddf424e	0.109013185
55	0x3deabde8	0.11462003
56	0xbd8b2c16	-0.06795518
57	0xbdc61dc5	-0.09673647
58	0x3d9ac81e	0.075577006
59	0xbd96f543	-0.07370999
60	0xbe2271d0	-0.15863729
61	0x3d923308	0.0713864
62	0xbc58b31d	-0.013226298
63	0x3e0340e6	0.12817726
64	0x3c44ca34	0.0120111
65	0xbde841b2	-0.113406554
66	0x3ddcada8	0.1077531
67	0x3dd1d8f0	0.10246456
68	0x3e4401bb	0.19141285
69	0x3da24e8b	0.07925137
70	0x3cd17ed7	0.025573177
71	0x3d72c8f6	0.059273683
72	0x3dd17c9a	0.10228844
73	0x3c016843	0.007898393
74	0x3cfd2c66	0.03090496
75	0x3dc63d9d	0.096797206
76	0x3ce79701	0.028270246
77	0x3d4ad5a5	0.049520154
78	0xbd109fd5	-0.035308678
79	0xbd29a4f9	-0.041417096
80	0x3e42f086	0.19037065
81	0x3e057ed2	0.1303666
82	0x3e0b7ce4	0.1362186
83	0xbcdeb28e	-0.02718475
84	0xbbb650fa	-0.0055638524
85	0xbd115bcd	-0.03548794
86	0x3cea74bb	0.028620115
87	0x3db20c6e	0.08693777
88	0x3cba9373	0.022775387
89	0xbdee8b67	-0.11647683
90	0x3ce4f9fd	0.027951235
91	0xbc183847	-0.009290761
92	0x3d6156e5	0.05501451
93	0x3cce0215	0.025147477
94	0xbcb0650a	-0.021532554
95	0x3c11f11e	0.0089075845
96	0x3d11f9b6	0.035638534
97	0x3d886ccb	0.066613756
98	0xbc35c1a4	-0.011093531
99	0x3c768972	0.015047418
100	0xbe7aca84	-0.24491316
101	0xbe6aa02c	-0.22912663
102	0xbc8d1189	-0.017220275
103	0x3cc11e2d	0.02357396
104	0x3db6beea	0.08923133
105	0xbe6fde76	-0.23424706
106	0xbe6bb86a	-0.23019567
107	0x3dd3ec29	0.10347778
108	0x3def466a	0.11683352
109	0x3d89abf9	0.06722254
110	0xbedab067	-0.4271271
111	0xbec443ce	-0.3833298
112	0x3da03f62	0.07824589
113	0x3e4329d8	0.19058931
114	0x3de95590	0.11393273
115	0xbf04229d	-0.51615316
116	0xbe8cfde8	-0.27537465
117	0x3df88cf7	0.12136262
118	0x3e7e9e2c	0.24865025
119	0x3dbd10c6	0.09231715
120	0xbeb8c973	-0.36091194
121	0xbd47dfc3	-0.04879738
122	0x3e264613	0.16237669
123	0x3de83761	0.11338688
124	0x3d92c244	0.071659595
125	0x3e281ef5	0.16418059
126	0xbd37edbd	-0.04490446
127	0xbe8d625a	-0.276141
128	0xbdd92421	-0.10602594
129	0x3e10a81d	0.1412663
130	0x3e3bc1a9	0.18335594
131	0x3d9247d6	0.07142608
132	0xbe804319	-0.2505119
133	0xbe8f0a83	-0.27937707
134	0x3dc5f4cf	0.09665834
135	0x3e164563	0.14674906
136	0xbe6017e6	-0.21884117
137	0xbeb73c4f	-0.357882
138	0xbe8e4bb6	-0.27792138
139	0xbe1d6ef9	-0.15374364
140	0xbdb15176	-0.086581156
141	0xbe801f0d	-0.2502369
142	0xbe818d6a	-0.25303203
143	0xbe448157	-0.19189964
144	0x3d85eefd	0.06539724
145	0x3d2ed77c	0.04268597
146	0x3c8d0815	0.017215768
147	0xbda388aa	-0.07985051
148	0x3d861c62	0.06548382
149	0x3e47887c	0.19485658
150	0x3da9687b	0.08271881
151	0x3dd0730f	0.10178196
152	0x3c023cf0	0.007949099
153	0xbcebb953	-0.028774893
154	0xbdcbff94	-0.09960857
155	0x3de4e6fc	0.11176869
156	0x3e046203	0.12928014
157	0x3d7477a3	0.059684407
158	0xbd3b5e0b	-0.045743983
159	0xbbb5b11b	-0.0055447943
160	0x3e0fd8a0	0.1404748
161	0x3daab241	0.083347805
162	0xbd3610e5	-0.044449706
163	0x3d3eeba2	0.046611436
164	0xbbd620db	-0.0065346784
165	0xbd3ec07d	-0.04657029
166	0x3dda6e4e	0.1066557
167	0xbadebff7	-0.0016994466
168	0x3d4dddba	0.050260283
169	0xbc3ad3c2	-0.011403026
170	0xbe6488a6	-0.22317752
171	0xbe0f6c30	-0.14006114
172	0xbe32a13f	-0.17444323
173	0xbe2d9430	-0.1695106
174	0xbe39dfba	-0.18151751
175	0x3dd26306	0.102727935
176	0x3e7ae3e0	0.2450099
177	0x3e6862ad	0.22693892
178	0x3df5450c	0.1197606
179	0x3e25091c	0.16116756
180	0x3c9a8919	0.018864201
181	0x3d3b9519	0.045796487
182	0xbde3ca45	-0.11122564
183	0xbd106a9d	-0.035257924
184	0x3c43f945	0.011961286
185	0xbe1e6602	-0.154686
186	0x3d56f4b4	0.05247946
187	0x3ce3004e	0.027710106
188	0xbd6a1032	-0.05714435
189	0xbe170202	-0.1474686
190	0xbe83bb83	-0.25728998
191	0x3e3cc31b	0.18433802
192	0x3eb306d6	0.34966153
193	0x3e307961	0.17233802
194	0x3d95820c	0.07300195
195	0xbebb804d	-0.36621323
196	0x3ce495ec	0.02790352
197	0x3d09f907	0.033684757
198	0xbc02c6fd	-0.007982013
199	0xbc57396e	-0.013136251
200	0x3d6d2702	0.05789853
201	0x3dbd02ff	0.09229087
202	0x3de0cf2a	0.109770134
203	0x3d81c6c9	0.063367434
204	0xbdbbab70	-0.091635585
205	0xbcb64260	-0.022248447
206	0x3e191502	0.1494942
207	0x3e357db4	0.17723733
208	0x3d1c93a7	0.03822675
209	0xbd055369	-0.03255025
210	0xbd5085f0	-0.050908983
211	0x3d2b9292	0.041887827
212	0x3daf4a49	0.08559091
213	0xbcbe96de	-0.023265298
214	0x3d9ed3a3	0.0775521
215	0x3d25e742	0.040503748
216	0x3d0c3bce	0.03423672
217	0x3e16c271	0.14722611
218	0x3d011dca	0.03152255
219	0xbcdbd867	-0.026836587
220	0xbc9b2c99	-0.018942164
221	0xbd78156c	-0.060567304
222	0x3dd78c29	0.1052478
223	0xbd438e4e	-0.047743134
224	0xbd9ebab6	-0.07750456
225	0xbd623163	-0.05522288
226	0x3d9599d1	0.07304729
227	0xbda304ac	-0.079598755
228	0xbdee2ec5	-0.11630014
229	0xbdfb8890	-0.122819066
230	0xbd03eccd	-0.032208253
231	0x3e2d4606	0.16921243
232	0x3bae1173	0.0053121387
233	0xbc629f03	-0.013831857
234	0x3d0c68f3	0.034279775
235	0x3d9bd86b	0.07609638
236	0x3e028668	0.12746584
237	0x3cc883e0	0.024476945
238	0x3ceab922	0.028652731
239	0xbc28926e	-0.010288818
240	0x3c2df03d	0.010616359
241	0x3cf1f730	0.029536813
242	0xbdd6e6a8	-0.10493213
243	0xbcaebe4a	-0.021330971
244	0xbda77a60	-0.08177638
245	0x3d4e3594	0.050344065
246	0x3d1afa16	0.037836157
247	0x3c8ac5aa	0.016939957
248	0x3d976bbe	0.07393597
249	0x3cd177cd	0.02556982
250	0x3da36d85	0.079798736
251	0x3d43fd80	0.04784918
252	0xbdbf37a1	-0.09336782
253	0x3c5557cc	0.013021421
254	0x3d858067	0.065186314
255	0x3d9ccfdf	0.07656836

convnet.c3.bias f4 [16]
0	0xbda1abb4	-0.07894078
1	0xbe1ab2d6	-0.15107283
2	0x3d496f88	0.04917863
3	0x3d31a7d6	0.04337295
4	0xbd9074c9	-0.07053525
5	0x3c506838	0.01272016
6	0x3d6b042b	0.05737702
7	0x3c7ec213	0.015549201
8	0xbd978c1f	-0.07399773
9	0x3b306f8d	0.0026921958
10	0xbcc87af3	-0.02447269
11	0x3d882bb2	0.06648959
12	0xb9b5fe35	-0.0003471241
13	0x3db6c505	0.08924297
14	0xbc56e51f	-0.01311615
15	0xbc3cce9e	-0.011523871

convnet.c5.weight f4 [120, 16, 5, 5]
0	0xbce95b2f	-0.028485863
1	0x3ca58154	0.02020327
2	0xbc3f494b	-0.011675189
3	0x3d5a02e6	0.05322542
4	0x3cdb72e8	0.02678819
5	0xbd4ad1e4	-0.049516574
6	0xbdfeba4d	-0.12437878
7	0xbd89ff91	-0.067381985
8	0x3c91a720	0.017779887
9	0x3d98cd6a	0.074610546
10	0xbd5b2bf5	-0.053508718
11	0x3c866270	0.01640436
12	0x3b462fcd	0.0030240894
13	0xbdc3484f	-0.09535276
14	0xbe381584	-0.17976958
15	0xbd21a4c4	-0.039463773
16	0x3cdd38a2	0.027004544
17	0xbbe6c2fb	-0.0070422865
18	0xbdb25403	-0.0870743
19	0xbd09ac5a	-0.033611633
20	0x3e59849c	0.21241993
21	0x3d4f0816	0.05054482
22	0xbdb34f38	-0.08755344
23	0xbe3c6c1d	-0.18400617
24	0x3b69921d	0.0035640069
25	0xbdc76cd3	-0.097375534
26	0xbd53d8b5	-0.05172034
27	0xbc8c7c0d	-0.017148996
28	0xbcdaf7e5	-0.026729533
29	0x3d8a1a5d	0.0674331
30	0xbd5fedfa	-0.05467031
31	0x3bb0df17	0.005397688
32	0xbd888758	-0.0666644
33	0xbda23e57	-0.07922047
34	0x3cda7bd6	0.026670378
35	0x3b270de3	0.0025490455
36	0xbd3fe4e0	-0.04684913
37	0xbdd7d09e	-0.105378374
38	0x3cbc9eea	0.023024995
39	0xbd527759	-0.05138335
40	0xbe104d6f	-0.14092039
41	0xbd7b10a9	-0.061295185
42	0xbb25291a	-0.00252015
43	0x3cb46857	0.02202241
44	0x39e58d5f	0.00043783613
45	0x3d7f1e52	0.062284775
46	0x3e12755b	0.1430258
47	0x3dc8de4d	0.098080255
48	0x3e031fee	0.12805149
49	0xbc8e8107	-0.01739551
50	0xbd047362	-0.0323366
51	0xbd3d1486	-0.04616215
52	0x3d552a51	0.05204231
53	0x3d99aeb7	0.07504027
54	0x3b1dad25	0.00240595
55	0xbc9f074a	-0.019412655
56	0x3c2dc989	0.010607132
57	0x3c9f0038	0.019409284
58	0xbd9b300b	-0.07577523
59	0xbdd83925	-0.105577745
60	0x3c30169d	0.010747579
61	0x3cc94965	0.02457113
62	0xbd20a8f3	-0.039223623
63	0xbab7dd24	-0.0014027697
64	0xbdaac44c	-0.08338222
65	0x3dcb7173	0.09933748
66	0x3df16694	0.11787143
67	0x3cdeec44	0.02721227
68	0xbdfb5138	-0.122713506
69	0x3d1ecd0e	0.038769774
70	0x3d1b52e0	0.037920833
71	0x3d96c5bc	0.073619336
72	0xbdf235d5	-0.11826674
73	0xbdab36d9	-0.08360071
74	0xbcf4de70	-0.029891223
75	0x3d243082	0.040085323
76	0x3b9fd175	0.004877264
77	0x3c3ef0b7	0.011654071
78	0xbd8dee6f	-0.06930243
79	0xbd9bf11a	-0.07614346
80	0xbd019b49	-0.031642232
81	0x3d0fb110	0.03508097
82	0xbddf829b	-0.10913583
83	0xbe069453	-0.13142519
84	0xbdc57b2f	-0.09642636
85	0x3e12dcb4	0.14342004
86	0x3d67526e	0.056475095
87	0xbc56938b	-0.0130967
88	0xbd25ed09	-0.040509257
89	0x39853448	0.0002540669
90	0xbd44a59e	-0.048009507
91	0xbd318a38	-0.043344706
92	0xbde9427d	-0.11389635
93	0xbcab8b99	-0.020940589
94	0x3d86e3d5	0.06586424
95	0x3bded53b	0.0068003214
96	0xbc812285	-0.01576353
97	0x3dce4f5c	0.1007373
98	0x3e0f4c03	0.1399384
99	0x3d7c80ec	0.061646387
100	0x3cae372e	0.021266546
101	0x3d325f8b	0.043548148
102	0xbc1e3321	-0.009655745
103	0xbc5e739c	-0.013577368
104	0xbd3c7e4f	-0.046018895
105	0xbd1743e6	-0.036929987
106	0x3cdcd2f9	0.026956068
107	0xbd5660a7	-0.05233827
108	0xbc41dbb4	-0.011832166
109	0x3cd59134	0.026070215
110	0x3cac9632	0.021067712
111	0xbcb6e773	-0.02232716
112	0xbd30f296	-0.043200098
113	0xbca40147	-0.02002014
114	0xbd50e1be	-0.050996535
115	0xbca65f8a	-0.020309228
116	0x3c744fe0	0.014911622
117	0x3d6559f6	0.055993997
118	0x3d17a733	0.037024688
119	0x3d084ed8	0.033278316
120	0xbc82a706	-0.015948784
121	0x3d380c91	0.04493386
122	0xbb85c1b0	-0.0040819272
123	0x3c2ebaa8	0.0106646195
124	0xbb49ae20	-0.0030773953
125	0x3e0d5ae0	0.13804197
126	0xbd422b28	-0.04740444
127	0x3da3652a	0.0797828
128	0x3dfaed26	0.12252264
129	0x3d47d307	0.048785236
130	0x3e060c59	0.13090648
131	0x3dab0437	0.08350413
132	0x3cbb2f11	0.022849591
133	0xbb9093ce	-0.004412151
134	0xbd5cf059	-0.05394015
135	0x3dc35d74	0.09539309
136	0x3d165199	0.03669891
137	0xbd8f0dcf	-0.06985056
138	0x3d10e6b2	0.03537626
139	0x3e0a426a	0.13501897
140	0x3d9b710b	0.075899206
141	0xbc42e130	-0.011894509
142	0xbcb2243d	-0.021745795
143	0x3a5b1daf	0.000835861
144	0xbdb21b36	-0.08696596
145	0xbd68e547	-0.05685928
146	0xbb489d49	-0.0030611327
147	0x3d150fe7	0.03639212
148	0x3b5ed775	0.0034002934
149	0x3cc35c01	0.023847582
150	0xbd8bcbf8	-0.06826013
151	0xbcf877a4	-0.030330487
152	0xbe100728	-0.1406523
153	0xbd7e0569	-0.06201688
154	0x3da8425c	0.08215782
155	0x3d9de5eb	0.07709869
156	0xbb159a14	-0.0022827433
157	0xbe31d5a6	-0.17366657
158	0x3cdfebbf	0.027334092
159	0xbc22d1c5	-0.009937708
160	0x3d5f8e13	0.054578852
161	0x3db1ad63	0.08675649
162	0x3bf800a1	0.0075684343
163	0x3c85ece7	0.016348315
164	0xbdcc1625	-0.09965161
165	0xbe251219	-0.16120185
166	0xbd6bc9b6	-0.057565413
167	0x3cd26c74	0.02568648
168	0x3e04fb39	0.12986459
169	0x3ca940b5	0.020660738
170	0xbe1dcbc3	-0.1540976
171	0x3d8b1a6f	0.06792151
172	0x3c8099d3	0.01569835
173	0x3d867fa1	0.06567312
174	0xbcfeb26d	-0.03109094
175	0xbe23ea48	-0.1600734
176	0x3d447575	0.04796358
177	0x3e00dfb2	0.12585333
178	0x3da27a32	0.07933463
179	0x3d5dd66d	0.05415957
180	0x3badd0e3	0.0053044423
181	0xbe110b51	-0.14164473
182	0xbe0b54aa	-0.13606516
183	0xbd6e7913	-0.058220934
184	0xbd16795d	-0.036736835
185	0xbd84b067	-0.064789586
186	0xbd4adf8c	-0.049529597
187	0xbd320bc2	-0.043468244
188	0xbd3c02a0	-0.04590094
189	0xbda01c06	-0.07817845
190	0xbd939cfe	-0.07207678
191	0xbc7b276d	-0.015329224
192	0x3ce421bb	0.027848115
193	0x3c39c99e	0.011339573
194	0xbd3834c5	-0.0449722
195	0x3d5f2edb	0.054488044
196	0xbd43993e	-0.047753565
197	0xbbbd8195	-0.0057832696
198	0x3cc05cb0	0.023481697
199	0x3c82a8f1	0.015949698
200	0xbda999ee	-0.08281313
201	0xbc8082d0	-0.015687376
202	0x3db987d9	0.09059114
203	0x3d3601f9	0.044435475
204	0x3ce5bcb2	0.028044078
205	0x3c2a617a	0.010399217
206	0xbd26ee9d	-0.040754903
207	0xbd703363	-0.058642756
208	0x3d26b4c9	0.040699754
209	0x3ca3ffa6	0.020019364
210	0xbcc243cb	-0.023713967
211	0x3c62dfcd	0.013847304
212	0x3c8693c3	0.01642788
213	0xbdd15f34	-0.10223237
214	0xbd4b8cab	-0.0496947
215	0xbe12bd8c	-0.14330119
216	0xbcfd29da	-0.030903745
217	0x3cff1225	0.031136582
218	0x3caca59f	0.021075068
219	0x3d296700	0.041357994
220	0x3be7fd80	0.00707978
221	0x3d034fb7	0.032058444
222	0xbd49091e	-0.04908096
223	0xbb62f4cc	-0.0034630774
224	0x3da61716	0.08109872
225	0xbcfc7b79	-0.030820595
226	0x3d280b2d	0.041026283
227	0x3d8942f1	0.06702221
228	0x3c08e1c5	0.008354609
229	0x3e10243f	0.14076327
230	0x3d99ffe7	0.075195126
231	0xbd896e39	-0.067104764
232	0xbe586520	-0.21132326
233	0xbe153cf6	-0.14574036
234	0xbc9df844	-0.019283421
235	0x3cab1d76	0.020888072
236	0xbda4ce97	-0.080472164
237	0xbc3d5e85	-0.01155818
238	0xbdd56815	-0.10420243
239	0x3d226e6f	0.0396561
240	0xbe1ec1be	-0.15503594
241	0x3bfdab96	0.007741402
242	0xbdc0e914	-0.09419456
243	0xbdbb1f96	-0.09136884
244	0xbbafea44	-0.005368503
245	0x3d38c948	0.04511383
246	0x3d4c42e6	0.049868487
247	0xbc734de9	-0.014850118
248	0x3d26d7b8	0.04073307
249	0x3e04dd6d	0.12975092
250	0x3e0732a7	0.13202916
251	0x3e33c75a	0.17556515
252	0x3d5b2f6d	0.053512026
253	0xbdc3b956	-0.095568344
254	0xbd8a3ab3	-0.06749477
255	0x3df1b613	0.11802306

convnet.c5.bias f4 [120]
0	0x3c851c17	0.016248746
1	0xbc31e13c	-0.010856923
2	0x3d2ed7bb	0.042686205
3	0xbd258a2f	-0.040414985
4	0x3d62ed08	0.055401832
5	0x3b5b7edf	0.003349237
6	0xbd8f1537	-0.06986468
7	0xbd821060	-0.063507795
8	0xbcd8e778	-0.02647756
9	0x3cbafe70	0.022826403
10	0x3bab42fe	0.005226492
11	0x3bca621a	0.0061762454
12	0xbcefbdfe	-0.0292654
13	0xbd4a9e16	-0.04946717
14	0xbca77b7d	-0.020444626
15	0x3d6ea40e	0.058261923
16	0x3d89ce90	0.06728852
17	0x3d5f35e2	0.054494746
18	0x3c84556b	0.016154012
19	0x3cee6977	0.029103024
20	0xbcce9985	-0.025219688
21	0x3cb93148	0.022606507
22	0x3bd65ade	0.006541594
23	0xbd1c622d	-0.038179565
24	0x3dab73f2	0.08371724
25	0xbbe9ddfe	-0.0071370592
26	0x3b9a66e2	0.0047119716
27	0xbcddc01d	-0.027069146
28	0xbd2cf02c	-0.042221233
29	0xbc99c16d	-0.01876899
30	0x3c213578	0.009839408
31	0x3db17bab	0.08666166
32	0xbc8c0866	-0.017093848
33	0xbd85470e	-0.06507693
34	0x3d49b797	0.04924735
35	0x3d66ed11	0.056378428
36	0xbcd79d2a	-0.026320059
37	0xbe2169c2	-0.15763
38	0xbd29267a	-0.04129646
39	0x3d4a1348	0.049334794
40	0xbccecaa2	-0.025243107
41	0xbd04242f	-0.03226107
42	0x3d16a902	0.036782272
43	0x3dc9c72f	0.098524444
44	0xbd3a1ab9	-0.04543564
45	0x3bc984a8	0.006149847
46	0x3da5d00b	0.08096322
47	0x3db048ac	0.08607611
48	0xbc7b68ed	-0.0153448405
49	0x3a5a200f	0.0008320817
50	0x3cd1b34d	0.025598193
51	0x3de5abea	0.11214431
52	0xbd51af1a	-0.05119238
53	0xbd5a8ee9	-0.053358946
54	0xbcafc258	-0.021454975
55	0x3d150416	0.03638085
56	0xbde72cf4	-0.11287871
57	0x3c8eeae4	0.017445989
58	0x3b0d0aa7	0.0021521242
59	0x3d3923ff	0.045200344
60	0xbda9067c	-0.0825319
61	0x3e3d4aa5	0.18485506
62	0x3c4d0a34	0.01251464
63	0x3da41be8	0.08013135
64	0x3d611613	0.054952692
65	0x3d039f91	0.032134596
66	0xbd69bd25	-0.057065148
67	0xbd9a930b	-0.075475775
68	0xbd71f789	-0.05907396
69	0xbc2795a8	-0.010228552
70	0x3ae42060	0.0017404668
71	0xbb9aaf1a	-0.0047205808
72	0x3c783921	0.015150339
73	0x3c55add7	0.013041935
74	0xbbbdef88	-0.0057963766
75	0xbd05580f	-0.032554682
76	0x3e0b7157	0.13617454
77	0xbd91d481	-0.0712061
78	0xbcdd5520	-0.02701813
79	0xbb587eb2	-0.00330345
80	0xbbec042f	-0.007202647
81	0xbcec026d	-0.02880975
82	0x3c84e3ae	0.016221847
83	0xbc8c87f9	-0.01715468
84	0x3de37916	0.1110708
85	0x3dc6f316	0.09714334
86	0xbcfaabda	-0.030599523
87	0x3dc4e4e8	0.09613973
88	0x3c093ff1	0.008377061
89	0x3d1a397b	0.037652474
90	0xbc04b0d9	-0.008098804
91	0xbd89751d	-0.06711791
92	0x3c7d3282	0.0154539365
93	0xb9e7c7a0	-0.00044208486
94	0xbd11efb2	-0.035628982
95	0xbd5db4e6	-0.054127596
96	0x3c1ceb84	0.009577636
97	0x3ce4ae1f	0.027915059
98	0xbb7a910b	-0.0038233425
99	0x3dc67746	0.09690718
100	0xbd0aab69	-0.033854876
101	0xbd6b0a34	-0.057382777
102	0x3b514bcd	0.003193605
103	0x3e0414d0	0.12898564
104	0xbd15c84d	-0.036567975
105	0x3d9b01b7	0.075686865
106	0xbd72ae84	-0.059248462
107	0x3d19218f	0.03738552
108	0xbb80f944	-0.003935965
109	0x3dd9bdee	0.10631929
110	0x3c26bb0e	0.010176433
111	0xbc113717	-0.008863232
112	0x39fb1bd4	0.00047895184
113	0xbc868362	-0.01642007
114	0xbc70b785	-0.014692192
115	0xb9cf7b48	-0.00039573968
116	0x3ca2b8d2	0.01986352
117	0xba4d6ab2	-0.0007836028
118	0x3c70bcfe	0.014693497
119	0x3d661c1a	0.056179143

fc.f6.weight f4 [84, 120]
0	0xbcdb7032	-0.026786897
1	0xbca715d5	-0.020396153
2	0x3c434e66	0.011920547
3	0x3e218b14	0.1577571
4	0x3e16b7dc	0.14718574
5	0xbd32f8df	-0.043694373
6	0xbd929c61	-0.07158733
7	0x3d92fb52	0.07176842
8	0xbb2c37ec	-0.002627845
9	0xbd6adfb2	-0.05734224
10	0x3cea6df9	0.028616892
11	0xbdb261ec	-0.08710083
12	0xbd127616	-0.035757147
13	0x3d020002	0.03173829
14	0x3d530e54	0.051527336
15	0x3dd035ea	0.10166533
16	0x3e0bdd10	0.13658547
17	0x3dbf0766	0.09327583
18	0xb94f5bc6	-0.00019775247
19	0xbb86ca83	-0.0041134967
20	0xbda9413b	-0.08264395
21	0x3e76a2e0	0.2408557
22	0x3dfd29d3	0.12361493
23	0xbddcc14c	-0.10779056
24	0xbdd0700f	-0.101776235
25	0x3d9a9196	0.075472996
26	0xbe206889	-0.15664877
27	0x3e19d5f7	0.15023027
28	0x3e1b4051	0.15161254
29	0xbd4768e9	-0.048684034
30	0x3dd439ba	0.10362573
31	0x3dfe40a4	0.12414673
32	0x3dc7cb29	0.097555466
33	0xbd938afe	-0.07204245
34	0xbde6c54a	-0.11268099
35	0xbe35ae0a	-0.17742172
36	0x3b40f2f8	0.0029441696
37	0xbd612dc0	-0.05497527
38	0x3c6bc2c0	0.014389694
39	0x3e354152	0.17700699
40	0x3d33b0d5	0.043869812
41	0xbda696c2	-0.081342235
42	0x3dce2146	0.1006494
43	0x3e10b10c	0.14130038
44	0x3dcf4e01	0.101223
45	0x3cef1749	0.029185908
46	0x3dd255bb	0.10270258
47	0xbd537d50	-0.05163318
48	0x3d5ea8d3	0.054360222
49	0x3e46d509	0.19417204
50	0x3d018d7f	0.03162908
51	0xbdeed877	-0.11662381
52	0xbd1be9aa	-0.038064636
53	0xbdc2ce4a	-0.09512003
54	0xbc10e4d7	-0.008843622
55	0x3d6b9bfb	0.0575218
56	0x3e026819	0.12735023
57	0xbd52a018	-0.05142221
58	0x3d55b488	0.05217412
59	0x3db49ebe	0.0881934
60	0xbcc987d0	-0.024600893
61	0x3d846fb3	0.064666174
62	0xbdf38681	-0.11890889
63	0x3c999e9a	0.018752385
64	0x3e2f79fe	0.1713638
65	0x3c9f16ad	0.019419992
66	0x3dae063a	0.084972814
67	0x3c198841	0.009370864
68	0x3d5faf7d	0.054610718
69	0x3e102675	0.1407717
70	0x3d1a0246	0.037599824
71	0x3e2d9160	0.16949987
72	0x3c1a3e80	0.009414315
73	0xbd32fb91	-0.043696944
74	0xbdc341e0	-0.09534049
75	0xbd58e215	-0.052949984
76	0x3d277ff2	0.040893503
77	0xbe9236db	-0.28557476
78	0xbb40cdc1	-0.0029419514
79	0xbd577ce6	-0.052609347
80	0x3dd3ff0e	0.10351382
81	0xbd275e40	-0.04086137
82	0xbe07549e	-0.13215873
83	0xbda48c4c	-0.08034572
84	0x3de984ce	0.114022836
85	0x3dabe5e8	0.083934605
86	0x3e3608e1	0.17776825
87	0x3d9f6a72	0.07783975
88	0xbd84675a	-0.06465025
89	0x3ddccbfc	0.107810944
90	0x3c16a597	0.009194753
91	0xbd5c0c21	-0.053722505
92	0x3d8d1f0a	0.06890686
93	0x3c3fac59	0.011698806
94	0xbd2935ba	-0.041311003
95	0x3dc8c679	0.09803481
96	0x3ce53c91	0.027982982
97	0x3d838d5e	0.06423448
98	0xbe032065	-0.12805326
99	0x3e163852	0.14669922
100	0xbd51eddb	-0.051252227
101	0xbb8c07ae	-0.0042733764
102	0xbc990314	-0.018678226
103	0x3ce956a6	0.0284837
104	0x3d8a4eef	0.06753337
105	0x3dfcf94e	0.123522386
106	0xbd9bd2de	-0.07608579
107	0xbb158848	-0.0022816826
108	0xbca9b07e	-0.02071404
109	0x3d3e112c	0.046403095
110	0x3cbbf217	0.022942586
111	0x3d554d08	0.052075416
112	0x3dbd6650	0.0924803
113	0x3e5750a0	0.2102685
114	0x3c8749f2	0.016514752
115	0x3db9b079	0.090668626
116	0x3cc0dd72	0.023543093
117	0xbe8b2cfe	-0.27182764
118	0x3d5066f8	0.05087945
119	0x3e793a7c	0.24338716
120	0xbd1f63c1	-0.038913492
121	0xbd033ec9	-0.0320423
122	0xbd506501	-0.050877575
123	0xbdd6f539	-0.10495991
124	0xbc2207fd	-0.0098896
125	0x3dc4dcc3	0.096124195
126	0x3e26f200	0.16303253
127	0xbbff1820	-0.0077848583
128	0x3d600440	0.054691553
129	0xbd124a0d	-0.03571515
130	0xbc2d508d	-0.010578287
131	0x3b5e29b4	0.0033899369
132	0xbe1e09f5	-0.15433486
133	0xbd308f31	-0.043105308
134	0xbe54b77f	-0.20773123
135	0x3d4f8e51	0.050672833
136	0xbdc71975	-0.097216524
137	0xbd292b8a	-0.041301288
138	0xbbdaf687	-0.0066822204
139	0x3dc429a8	0.09578258
140	0x3c0f903a	0.008762414
141	0xbd9ac671	-0.07557381
142	0x3d021c3b	0.031765204
143	0x3c04fe15	0.0081172185
144	0x3de5aa7d	0.11214159
145	0x3e03e109	0.12878813
146	0x3c307102	0.010769131
147	0x3c85fbd9	0.016355442
148	0x3e240e9a	0.16021195
149	0xbd209bf2	-0.03921122
150	0xbbcb627e	-0.0062068095
151	0xbcd97f59	-0.026549982
152	0x3e0a263a	0.13491145
153	0x3ddcbc9b	0.10778161
154	0x3ce3fa3f	0.027829288
155	0x3d390c67	0.045177843
156	0xbbbe3614	-0.0058047865
157	0xbdecb5ad	-0.115580894
158	0xbbb2bb46	-0.0054544536
159	0xbc5aa7dc	-0.013345685
160	0x3d09e912	0.03366954
161	0x3d9c6cf2	0.07637967
162	0x3c8ede1d	0.017439896
163	0x3d537e9d	0.05163442
164	0x3d249ada	0.04018674
165	0x3db4ebb3	0.088340186
166	0x3d4a4678	0.04938361
167	0x3e2caaf8	0.16862094
168	0x3c06dc47	0.008231229
169	0x3d5ceb13	0.05393512
170	0x3dd130b8	0.102143705
171	0x3c1ec7c8	0.009691186
172	0xbda88628	-0.08228713
173	0xbd597bab	-0.053096455
174	0xbda4189d	-0.08012507
175	0x3dfbca61	0.1229446
176	0xbd95e1b8	-0.07318443
177	0xbdffc14c	-0.1248804
178	0x3d3166b0	0.04331082
179	0xbdb1c05d	-0.086792685
180	0xbc5c8c6d	-0.0134612145
181	0x3e819341	0.25307658
182	0xbd61e548	-0.0551503
183	0x3e4a9944	0.19785029
184	0x3da69a9a	0.08134957
185	0xbd2a9c6e	-0.04165309
186	0xbdc454bf	-0.095864765
187	0xbe7ef80f	-0.24899314
188	0xbbe4fbe7	-0.006988037
189	0x3dc073b6	0.0939707
190	0x3e14d1dc	0.1453318
191	0xbde1f020	-0.11032128
192	0x3c36a732	0.011148261
193	0x3e4d8774	0.20071203
194	0xbcfdee39	-0.030997382
195	0x3d1c6854	0.038185433
196	0x3c7e740c	0.015530597
197	0x3e3e00e0	0.18555021
198	0x3dc3e6f5	0.09565536
199	0x3d38ae96	0.045088373
200	0x3dda23e2	0.10651375
201	0xbcd36794	-0.025806226
202	0xbd846981	-0.06465436
203	0x3d6cc05f	0.057800647
204	0x3e079749	0.13241304
205	0x3d584e89	0.052809272
206	0xbcff9760	-0.03120011
207	0x3dba3e54	0.090939194
208	0xbd0264f6	-0.031834565
209	0x3e1342c3	0.14380936
210	0x3e1a423e	0.15064332
211	0x3d2fea09	0.042947803
212	0xbac6f155	-0.0015178124
213	0x3d8c4bc8	0.068503916
214	0xbdc71479	-0.09720702
215	0x3d8572cb	0.06516036
216	0x3e76edfb	0.2411422
217	0x3e0167c3	0.12637238
218	0xbd9618c8	-0.073289454
219	0xbe0d1edb	-0.13781302
220	0xbd20f484	-0.03929569
221	0x3d830cde	0.063989386
222	0x3d070162	0.032960303
223	0x3a60334c	0.00085525657
224	0x3c9b249c	0.018938355
225	0x3e160f5f	0.14654301
226	0x3d70d05d	0.05879246
227	0x3dfca7ea	0.123367146
228	0xbd827f54	-0.06371942
229	0x3b641bb3	0.003480655
230	0x3d070aad	0.032969166
231	0xbcb5627b	-0.022141686
232	0x3ce6eb1e	0.028188284
233	0xbe4a09b0	-0.19730258
234	0xbcdfa708	-0.027301326
235	0x3e1c33e6	0.15254173
236	0x3c65e75b	0.01403221
237	0x3e674a24	0.22586876
238	0xbd410ba7	-0.047130253
239	0xbcccbe0b	-0.024992963
240	0xbc6dcf76	-0.014514795
241	0x3da78f3f	0.08181619
242	0xbd3672f0	-0.044543207
243	0x3c2df02c	0.0106163435
244	0x3c5cc0df	0.013473718
245	0x3da9f6b8	0.08299011
246	0x3de53a93	0.11192813
247	0xbce61d31	-0.028090091
248	0xbdc99d63	-0.09844472
249	0x3d8862ca	0.066594675
250	0xbdd3e849	-0.10347039
251	0x3cec61e7	0.028855277
252	0xbca6297e	-0.020283457
253	0x3cbc7e41	0.023009421
254	0x3cb3c7bd	0.021945829
255	0xbd924cde	-0.071435675

fc.f6.bias f4 [84]
0	0x3e0378ec	0.12839097
1	0x3e242af7	0.16032015
2	0x3d0d3da5	0.034482617
3	0xbb7e3b8b	-0.0038792815
4	0xbbab0d0f	-0.0052200626
5	0x3e1d09e6	0.15335807
6	0x3a94a20f	0.0011339801
7	0xbd546ee9	-0.051863585
8	0x3e3acd34	0.18242341
9	0x3e3ad46f	0.182451
10	0xbdabe224	-0.08392742
11	0xbda73dc9	-0.081660815
12	0x3aca528e	0.001543598
13	0xbb0f8c62	-0.0021903743
14	0xbd37c193	-0.04486234
15	0x3dbf7247	0.093479685
16	0x3d21bda5	0.0394875
17	0x3c83f64c	0.016108654
18	0x3d4928d5	0.049111206
19	0xbddf73f6	-0.1091079
20	0xbcc69b3b	-0.024243942
21	0x3ccfdabb	0.025372854
22	0xbc11dfb5	-0.008903434
23	0x3da8e62b	0.08247026
24	0x3b2afbef	0.0026090106
25	0x3d876c2f	0.06612431
26	0x3e0e61ce	0.13904497
27	0x3d459a1a	0.048242666
28	0x3c0c96f1	0.008580909
29	0x3e16c84f	0.14724849
30	0x3e0abcb2	0.13548544
31	0xbe11509a	-0.14190903
32	0xbdb3d592	-0.0878097
33	0x3e0b25b7	0.13588606
34	0xbc9fb306	-0.019494545
35	0x3d7137fc	0.05889128
36	0xbdfe8275	-0.124272265
37	0x3d72ec2a	0.059307255
38	0x3db47e8f	0.08813202
39	0x3dd3fefa	0.10351367
40	0x3c0f3a2a	0.008741895
41	0xbdcbd9bb	-0.09953638
42	0x3bdb71e1	0.006696925
43	0x3bcadb70	0.00619071
44	0xbe043a4b	-0.12912862
45	0xbd9dce59	-0.07705373
46	0xbd7000a1	-0.05859435
47	0xbd232f23	-0.039839875
48	0xbd3db9c8	-0.046319753
49	0xbda41acf	-0.08012926
50	0x3a8d6202	0.0010786655
51	0x3d3ceea4	0.046126023
52	0x3d3bb9d0	0.0458315
53	0x3ca1e5b3	0.01976285
54	0x3d5cc4c4	0.053898588
55	0xbd6b53bb	-0.0574529
56	0xbcd76c40	-0.026296735
57	0x3e0efb04	0.13962942
58	0xbcceb9e0	-0.025235116
59	0x3dd7ff6a	0.10546763
60	0x3da0ee88	0.07857996
61	0xb9f32b3e	-0.0004638079
62	0xbdabaf17	-0.08383005
63	0x3e06c12e	0.1315963
64	0x3db0a7f2	0.08625783
65	0x3dbcb7da	0.092147544
66	0xbdf00167	-0.117190175
67	0x3c827934	0.015926935
68	0xbdc92e3d	-0.098232724
69	0x3d934ee2	0.0719278
70	0xbd1d17a2	-0.038352616
71	0xbd17d383	-0.037066948
72	0xbd96e0f9	-0.07367129
73	0x3df34d00	0.11879921
74	0x3cdb857e	0.026797052
75	0x3cb1c137	0.021698577
76	0x3da9e614	0.08295837
77	0x3d865e30	0.065609336
78	0x3cef247a	0.029192198
79	0x3d31aa47	0.04337528
80	0x3dfc6a38	0.12324947
81	0x3d7a48c3	0.061104547
82	0xbd840caa	-0.06447728
83	0xbc1bcce3	-0.009509298

fc.f7.weight f4 [10, 84]
0	0x3d5c1be1	0.053737525
1	0xbe356def	-0.17717718
2	0xbe1ea20d	-0.15491505
3	0xbdc4784c	-0.09593257
4	0x3e2cfb59	0.16892757
5	0xbddae837	-0.10688823
6	0x3d813e99	0.06310768
7	0xbca2ffa2	-0.019897286
8	0xbe3354b0	-0.17512774
9	0xbe083622	-0.133019
10	0xbcb02c45	-0.021505484
11	0xbda4345f	-0.080178015
12	0x3d46cd73	0.048535775
13	0xbe204368	-0.15650713
14	0x3d7a00bc	0.061035857
15	0x3d0c9f18	0.03433141
16	0x3de306fe	0.11085318
17	0x3d8f7a04	0.070056945
18	0xbd898ee7	-0.067167096
19	0xbe78e1c5	-0.24304874
20	0x3e36bdf8	0.17845905
21	0xbd8013ae	-0.062537536
22	0xbd8069db	-0.0627019
23	0xbdd298d8	-0.10283059
24	0xbcaa6ef2	-0.020804856
25	0x3b32f294	0.0027305232
26	0xbbfde1f9	-0.0077478853
27	0xbc8c046e	-0.017091956
28	0xbe350d40	-0.17680836
29	0xbce37f46	-0.02777065
30	0xbdfb55bd	-0.12272213
31	0xbd2e7054	-0.042587593
32	0x3e17af7c	0.14813036
33	0x3e341704	0.17586905
34	0xbdeccf79	-0.1156301
35	0xbe4d9de9	-0.20079769
36	0x3ba9c437	0.0051808613
37	0x3dfe3aa4	0.124135286
38	0x3e1495f3	0.14510326
39	0xbdb4f771	-0.08836258
40	0x3df06826	0.11738615
41	0x3e071781	0.1319256
42	0xbd73f8fc	-0.059563622
43	0x3e2d2438	0.16908348
44	0xbdb9a9d2	-0.09065594
45	0xbe318272	-0.17334917
46	0xbda96fed	-0.08273301
47	0xbbb25ff4	-0.0054435674
48	0xbc7c97bd	-0.015417037
49	0xbe3b7ca1	-0.18309261
50	0x3d279a8c	0.04091887
51	0xbca0f8e0	-0.019649923
52	0x3d8197e0	0.06327796
53	0xbe63a55d	-0.2223105
54	0xbe04ecf3	-0.12981014
55	0x3d300ba8	0.042979866
56	0xbdca8ecf	-0.0989052
57	0x3cbd5403	0.023111349
58	0x3d628fd1	0.055312935
59	0x3d8275d0	0.06370127
60	0xbdbc2c32	-0.09188117
61	0xbe684f36	-0.22686467
62	0xbc19fd1b	-0.009398724
63	0x3e5497e0	0.2076106
64	0xbd935e65	-0.07195739
65	0x3d771b20	0.060328603
66	0x3d2b88d8	0.04187855
67	0xbe28c825	-0.16482599
68	0x3d1ae7fa	0.037818886
69	0x3c99ad1b	0.018759301
70	0xbe30ce5f	-0.17266224
71	0xbd4673f4	-0.048450425
72	0xbdce67f8	-0.10078424
73	0x3d829542	0.06376125
74	0x3be19bfb	0.0068850494
75	0x3d1cf4a8	0.03831926
76	0xbe0dde57	-0.13854347
77	0xbe5caa24	-0.21549278
78	0xbd9fc297	-0.07800787
79	0x3d4ae2e5	0.04953279
80	0xbe5a3ce7	-0.21312295
81	0x3cefa71b	0.029254487
82	0x3e042b69	0.12907185
83	0x3d3262b5	0.043551166
84	0xbe8b91e9	-0.27259758
85	0x3da65a94	0.08122745
86	0x3e2ff330	0.17182612
87	0xbcef37d5	-0.029201427
88	0x3dabef6a	0.08395274
89	0xbdb03355	-0.08603541
90	0x3d6123b6	0.054965697
91	0xbe716c8a	-0.2357656
92	0x3dd55f54	0.10418573
93	0x3d965f06	0.07342343
94	0xbd803017	-0.062591724
95	0xbd6be4b8	-0.05759117
96	0x3dafe828	0.08589202
97	0x3e530ed1	0.20611121
98	0xbe5789a8	-0.21048605
99	0x3e6c4cb6	0.23076138
100	0x3d7134c1	0.0588882
101	0x3df89068	0.12136918
102	0xbd2fda2e	-0.04293268
103	0x3e40be51	0.188226
104	0x3e22bc07	0.15892039
105	0xbe47b28f	-0.19501708
106	0xbe0b3498	-0.13594282
107	0xbdf5a2ef	-0.11993968
108	0xbc763cb3	-0.01502912
109	0x3c808521	0.01568848
110	0x3ceb0722	0.028689925
111	0xbe4a50d1	-0.19757392
112	0xbdcd67b7	-0.10029548
113	0x3ddc969c	0.10770914
114	0x3cc698ab	0.02424272
115	0xbde7691f	-0.11299347
116	0xbd3a2d22	-0.0454532
117	0x3d160864	0.036629096
118	0xbe754952	-0.2395375
119	0x3d7ae1a1	0.061250333
120	0xbc45ac4e	-0.012065006
121	0x3d8fad2b	0.07015451
122	0xbd9d24fb	-0.07673069
123	0x3e163987	0.14670382
124	0xbd90e8c6	-0.07075648
125	0x3d8aa118	0.067690074
126	0xbdd50d1d	-0.10402892
127	0xbe6a8719	-0.22903098
128	0xbd8f447c	-0.06995484
129	0x3d6bbe33	0.057554435
130	0xbda33eec	-0.07970986
131	0xbe12c912	-0.14334515
132	0xbdfa3aa1	-0.12218214
133	0xbe84dda2	-0.25950342
134	0x3e010220	0.12598467
135	0xbd14cb0e	-0.03632646
136	0xbdacccce	-0.08437501
137	0xbd5ef2ed	-0.05443089
138	0x3dd6ee2d	0.10494647
139	0x3d2a85a3	0.041631352
140	0xbcf821d5	-0.03028957
141	0x3dd69dda	0.104793265
142	0x3d8b0c6b	0.06789478
143	0x3e19fbdf	0.15037487
144	0x3e1b3ed6	0.15160689
145	0xbde516c8	-0.11185986
146	0xbd64dd41	-0.055875067
147	0xbda4f78b	-0.080550276
148	0xbe7670b7	-0.24066435
149	0xbe5cd531	-0.21565701
150	0x3e1266fb	0.14297096
151	0xbe13a8fe	-0.14419934
152	0x3bed8025	0.007247942
153	0xbe1ddab0	-0.15415454
154	0x3d5bc50c	0.053654715
155	0xbe979797	-0.2960784
156	0xbd7a35ba	-0.061086394
157	0x3e47ca9f	0.19510888
158	0xbe66857f	-0.22511862
159	0xbd8a38d9	-0.06749124
160	0x3dc2676e	0.09492384
161	0xbd925a68	-0.0714615
162	0x3cac2c44	0.021017201
163	0xbdd70d41	-0.10500575
164	0xbc4453ec	-0.011982899
165	0xbe530ba2	-0.20609906
166	0xbdbc4dec	-0.0919455
167	0xbe342459	-0.1759199
168	0x3c9a4144	0.01882995
169	0xbe369c92	-0.17833164
170	0x3d9833fa	0.07431789
171	0x3e2c2384	0.16810423
172	0xbd2a0dee	-0.04151719
173	0xbe1a314c	-0.15057868
174	0x3d690076	0.056885205
175	0xbe20bdde	-0.15697429
176	0xbd5fd8bf	-0.054650065
177	0xbc86dddd	-0.016463215
178	0xbd342b4f	-0.043986615
179	0xbb1b9676	-0.0023740805
180	0xbeb6e6e1	-0.35723022
181	0x3e073845	0.13205059
182	0xbdde411f	-0.108522646
183	0xbcf4dc6d	-0.029890263
184	0xbe0e1618	-0.13875616
185	0xbd514581	-0.051091675
186	0x3def68b1	0.1168989
187	0x3db6b39d	0.08920977
188	0x3d4a105e	0.049332015
189	0xbe47a9fa	-0.19498435
190	0x3e335a5a	0.17514935
191	0xbd250a43	-0.04029299
192	0xbde47390	-0.11154854
193	0x3d820eb0	0.06350458
194	0xbe68e3dc	-0.22743171
195	0x3de26656	0.11054675
196	0x3d91f77d	0.07127283
197	0xbe464879	-0.19363584
198	0xbc8e5888	-0.0173762
199	0xbd642cb9	-0.055706713
200	0xbdcd9706	-0.10038571
201	0x3df2ad8d	0.118495084
202	0xbd350f0a	-0.044203795
203	0x3e266dcd	0.16252823
204	0xbd387405	-0.04503252
205	0xbe1fcd2c	-0.1560561
206	0x3db92ac2	0.090413585
207	0xbe0f4664	-0.13991696
208	0xbe14ab19	-0.14518394
209	0x3d4cc31e	0.049990766
210	0x3e2317ae	0.15927002
211	0xbe017ec4	-0.12646013
212	0xbd0bbf8b	-0.034118216
213	0xbe53c5e8	-0.20680964
214	0x3d19e091	0.03756768
215	0x3e2c3f48	0.16821015
216	0x3d792d69	0.060834322
217	0xbd1dcb75	-0.03852411
218	0x3d20dd19	0.039273355
219	0x3e21668d	0.15761776
220	0x3db67d51	0.08910621
221	0xbdc2155b	-0.094767295
222	0x3d58de97	0.052946653
223	0xbe0b89ad	-0.13626738
224	0xbdf0a201	-0.1174965
225	0x3c977b54	0.018491425
226	0x3d1756bd	0.036947954
227	0xbe258f94	-0.16168052
228	0x3b9cb551	0.004782357
229	0x3d2c03d2	0.04199583
230	0xbd9ce152	-0.07660164
231	0x3e179b4b	0.14805333
232	0x3e1b8ddb	0.15190832
233	0x3d07ee15	0.033186037
234	0xbe344b09	-0.17606749
235	0xbd6fc9ae	-0.058541946
236	0xbd852963	-0.065020345
237	0xbd73b1c3	-0.0594957
238	0xbd1130a6	-0.035446785
239	0xbd87c011	-0.06628431
240	0xbd56c89a	-0.052437402
241	0xbe2f421a	-0.1711506
242	0x3e283ea9	0.16430153
243	0x3e0eb5c2	0.13936523
244	0xbdc46898	-0.09590262
245	0x3df7f006	0.12106328
246	0x3d643411	0.055713717
247	0x3d4924d6	0.049107395
248	0xbe408294	-0.18799812
249	0xbdf7c1b7	-0.12097495
250	0xbd657e8e	-0.056028895
251	0x3dba6664	0.09101561
252	0x3da062b7	0.07831328
253	0xbe1369d4	-0.14395839
254	0xbe20b371	-0.15693451
255	0x3c810fab	0.015754541

fc.f7.bias f4 [10]
0	0x3c9d55b4	0.019205905
1	0x3e1d1d27	0.15343152
2	0xbd647959	-0.05577979
3	0x3bd9428b	0.006630247
4	0xbd989b48	-0.074514925
5	0x3b9c9bf7	0.0047793346
6	0xbdf32171	-0.11871613
7	0x3d11a06d	0.035553385
8	0x391db494	0.00015039957
9	0xbbfeea16	-0.00777937
