Lenet-5_mnist/model/14_model.pkl (torch, 250431 bytes, 10 tensors)

convnet.c1.weight f4 [6, 1, 5, 5]
0	0x3cdd943b	0.02704822
1	0xbe575263	-0.21027522
2	0xbde28e1b	-0.11062261
3	0x3dac4afb	0.08412739
4	0x3e6c03a9	0.23048271
5	0xbe49d225	-0.1970907
6	0x3dd4d748	0.10392624
7	0xbda3fe4c	-0.08007488
8	0xbd2a00bf	-0.041504618
9	0x3e029016	0.12750277
10	0xbe5d62dd	-0.21619745
11	0x3e5929cd	0.21207352
12	0x3d76958e	0.06020122
13	0x3e8d0acb	0.27547297
14	0xbe193d1e	-0.1496472
15	0x3d78970d	0.06069093
16	0x3eab5a78	0.3346746
17	0x3e7ddb68	0.24790728
18	0x3e98bbee	0.2983088
19	0x3c3a91ac	0.01138727
20	0xbd06f59e	-0.032949083
21	0xb88e819f	-6.7952315e-05
22	0x3e5a55e7	0.21321832
23	0x3e26b081	0.16278268
24	0xbd0afc4c	-0.033932015
25	0x3cef38f3	0.02920196
26	0xbe746a22	-0.23868611
27	0xbeef43ae	-0.46731323
28	0xbee12584	-0.43973935
29	0xbe888409	-0.26663235
30	0x3e5a3a0a	0.21311203
31	0xbe1d23a9	-0.15345635
32	0x3c6f35c0	0.014600217
33	0xbeba75d1	-0.36418012
34	0xbe6a21b3	-0.22864418
35	0x3e0680f6	0.13135132
36	0x3eb79cee	0.35861915
37	0xbaef5572	-0.0018259718
38	0x3d065335	0.032794196
39	0x3b902562	0.0043989876
40	0x3d1ab6f0	0.03777212
41	0x3e90d684	0.28288662
42	0x3eae01e1	0.33985808
43	0x3e8ed04a	0.27893287
44	0x3e7fda18	0.2498554
45	0x3db65195	0.08902279
46	0x3d234e5d	0.039869655
47	0x3e79d8ce	0.2439911
48	0x3dcdd745	0.10050825
49	0x3e94a68a	0.2903331
50	0x3e68c3f1	0.22730996
51	0xbe357549	-0.17720522
52	0x3d337078	0.04380843
53	0x3d2c3b2e	0.042048626
54	0xbd506ded	-0.050886083
55	0x3e45af96	0.19305262
56	0xbe808c73	-0.25107154
57	0x3d5aeeb5	0.053450305
58	0xbdf2c8b3	-0.118546866
59	0x3e1f10f5	0.15533812
60	0xbc887942	-0.016659383
61	0xbd785676	-0.06062933
62	0x3e2a983e	0.16659638
63	0x3e64fc8d	0.22361965
64	0x3e35e64e	0.17763636
65	0x3e0a9520	0.13533449
66	0x3e005467	0.12532197
67	0xbe33fae1	-0.17576171
68	0x3e6333a7	0.22187673
69	0x3e1297d8	0.14315736
70	0x3e58767e	0.21138951
71	0x3e0c991c	0.13730282
72	0xbeb6463d	-0.35600463
73	0xbe9273a6	-0.28603858
74	0x3cf3607f	0.029709099
75	0xbe3ae194	-0.18250114
76	0x3d48385e	0.04888188
77	0x3d2cf5ce	0.042226605
78	0x3e6d34cc	0.23164672
79	0x3e7adf2c	0.24499196
80	0xbe1ae4b8	-0.15126312
81	0x3e8b9148	0.27259278
82	0x3e8d78c1	0.2763119
83	0x3e1d65cd	0.15370865
84	0x3e18e633	0.14931564
85	0xbd1f8b45	-0.038951177
86	0x3e9c0094	0.3046919
87	0xbc2e63b5	-0.010643889
88	0xbdf7dc85	-0.12102608
89	0x3d5fb8f4	0.054619744
90	0xbb087ee2	-0.0020827581
91	0xbd4af135	-0.04954644
92	0xbd693e96	-0.056944452
93	0xbe86ef3a	-0.2635439
94	0xbd639211	-0.05555922
95	0xbd612e9b	-0.054976087
96	0x3d9ae24b	0.07562693
97	0xbe4acac0	-0.19803905
98	0x3d54f705	0.05199339
99	0x3d356dc8	0.04429415
100	0x3e9d1110	0.3067708
101	0x3eb177b0	0.34661627
102	0x3c78050e	0.015137924
103	0x3de10ac4	0.109883815
104	0xbeaff458	-0.34366107
105	0x3e186392	0.14881733
106	0x3e2e77d5	0.170379
107	0x3dfc0d6b	0.12307247
108	0xbe0c1d06	-0.13682947
109	0xbebc01bf	-0.36720082
110	0x3e4a52f4	0.19758207
111	0x3eb75cd5	0.35813013
112	0x3d3c03da	0.04590211
113	0xbecc14c5	-0.39859596
114	0xbec3ef74	-0.38268626
115	0x3e0e102e	0.1387336
116	0x3e01e975	0.12686713
117	0x3da90dcd	0.082545854
118	0xbe5858df	-0.21127652
119	0xbe868227	-0.26271173
120	0x3e5faa50	0.21842313
121	0x3e82ae15	0.2552344
122	0xbcd47250	-0.025933415
123	0xbe8a6f73	-0.27038154
124	0xbdd9b9ac	-0.10631117
125	0x3e142ed3	0.14470987
126	0x3ea6c95c	0.325755
127	0x3e4faaf7	0.20280062
128	0x3e832043	0.2561055
129	0x3ee5f82c	0.44915903
130	0x3e075894	0.13217384
131	0x3ed86247	0.4226248
132	0x3ea92e23	0.33043012
133	0x3de39e6d	0.11114202
134	0x3db7f8eb	0.08983024
135	0x3d59368e	0.053030543
136	0xbe15b2e3	-0.14619021
137	0xbdb65242	-0.08902408
138	0x3dbeb7be	0.0931239
139	0x3d4b7d2a	0.049679913
140	0xbd7ab18a	-0.06120447
141	0xbed0baf4	-0.40767634
142	0xbe9b8e69	-0.30382088
143	0xbe9d73eb	-0.307525
144	0xbea8ca85	-0.3296701
145	0xbecba356	-0.39773053
146	0xbe9c81ec	-0.30567873
147	0xbeb9d883	-0.36297998
148	0xbea8cf2a	-0.32970554
149	0x3e105635	0.14095385

convnet.c1.bias f4 [6]
0	0xbcee0443	-0.029054767
1	0xbb805e18	-0.003917467
2	0xbcc358a8	-0.023845986
3	0xbb7aef34	-0.0038289549
4	0x3d7ab8d9	0.06121144
5	0x3e0c8d28	0.13725722

convnet.c3.weight f4 [16, 6, 5, 5]
0	0x3d141ee5	0.036162276
1	0x3e0f9bfc	0.14024347
2	0x3dd93c3c	0.10607192
3	0x3dc9f3d0	0.09860957
4	0xbdd78f7c	-0.10525414
5	0x3b7d1ba2	0.0038621207
6	0xbbee5174	-0.0072728936
7	0x3dee6c48	0.11641747
8	0x3d52b20b	0.051439326
9	0xbe12c4cb	-0.14332883
10	0xbd15ce53	-0.03657372
11	0x3ccbc08c	0.024872087
12	0x3dd42652	0.103588715
13	0x3d0fcd6d	0.03510802
14	0xbe025498	-0.12727582
15	0x3cfb9af5	0.030713538
16	0x3e18382d	0.1486518
17	0x3dfddc48	0.12395531
18	0xbd5b7824	-0.053581372
19	0xbc9fd613	-0.019511258
20	0xbc05d419	-0.008168244
21	0x3d3bb0e9	0.04582301
22	0x3d82c4af	0.06385171
23	0xbe4ad176	-0.19806466
24	0xbea830ef	-0.32849833
25	0x3da05109	0.07827956
26	0x3db998fb	0.09062382
27	0x3dac80d8	0.084230125
28	0x3da0f00a	0.07858284
29	0xbe3c2c46	-0.18376264
30	0xbdd486c6	-0.103772685
31	0xbe426b06	-0.18986139
32	0xbde14172	-0.10998811
33	0xbd9ef66f	-0.07761847
34	0xbe757694	-0.23971015
35	0xbd3ffea2	-0.046873696
36	0xbe2abb6c	-0.16673058
37	0xbd99eb3e	-0.07515572
38	0xbda9b0a6	-0.08285646
39	0x3da9be73	0.082882784
40	0xbc525429	-0.012837448
41	0xbe76f1b0	-0.24115634
42	0xbdcbd004	-0.09951785
43	0x3c3c52e8	0.011494376
44	0x3deae34b	0.11469134
45	0xbe831a66	-0.25606078
46	0xbeae7ea9	-0.3408101
47	0xbea15226	-0.31507987
48	0xbe05f835	-0.13082965
49	0xbe094c83	-0.13408093
50	0x3cfb6ae3	0.030690616
51	0x3d81a114	0.06329551
52	0x3bec54d0	0.007212259
53	0x3dd580e4	0.104249746
54	0x3ddd4944	0.1080499
55	0x3de111b2	0.10989703
56	0xbd91864d	-0.07105694
57	0xbdcbb16a	-0.099459484
58	0x3d95ad8b	0.07308491
59	0xbd95d743	-0.073164485
60	0xbe297e05	-0.16551979
61	0x3d93f631	0.07224692
62	0xbc4cffd7	-0.012512169
63	0x3e035d16	0.12828478
64	0x3c839b09	0.016065137
65	0xbde6abeb	-0.112632595
66	0x3dd9b011	0.10629285
67	0x3dc6711e	0.09689544
68	0x3e48b346	0.19599637
69	0x3daa0614	0.083019406
70	0x3c9ca2e3	0.01912064
71	0x3d72b9fa	0.059259392
72	0x3dc6fbba	0.09715982
73	0x3b857848	0.0040731765
74	0x3ccaa6f4	0.024737813
75	0x3dc0826d	0.09399877
76	0x3ce92525	0.028460095
77	0x3d638d8a	0.055554904
78	0xbd098c45	-0.033581037
79	0xbd1f7184	-0.038926616
80	0x3e474ebe	0.19463632
81	0x3e0c2759	0.13686885
82	0x3e0ac471	0.13551499
83	0xbd0dce53	-0.034620594
84	0xbbff68f4	-0.007794494
85	0xbd291710	-0.04128176
86	0x3cdcbdcf	0.026945977
87	0x3da23c8d	0.079217054
88	0x3ca7e9d7	0.020497246
89	0xbdfa5561	-0.12223316
90	0x3cf72ad3	0.030171787
91	0xbc23c4d2	-0.009995656
92	0x3d585de1	0.052823905
93	0x3d0100e3	0.031494986
94	0xbc63162b	-0.013860266
95	0x3c37ad72	0.011210786
96	0x3cfde8bf	0.030994771
97	0x3d88c3da	0.06677981
98	0xbba88075	-0.0051422664
99	0x3caaa948	0.020832673
100	0xbe8acd01	-0.2710953
101	0xbe62d002	-0.22149661
102	0xbc545ce7	-0.012961603
103	0x3ca9a089	0.020706432
104	0x3db900e2	0.090333715
105	0xbe856d0b	-0.26059756
106	0xbe61ea34	-0.22061998
107	0x3dc69bc1	0.096976765
108	0x3deaf66a	0.11472781
109	0x3d8be2a1	0.068303354
110	0xbee54d4b	-0.44785532
111	0xbec8939e	-0.39175123
112	0x3d88f010	0.06686413
113	0x3e436ca3	0.1908441
114	0x3de621a4	0.11236885
115	0xbf083229	-0.5320154
116	0xbe9a6648	-0.3015616
117	0x3deba563	0.115061544
118	0x3e808c87	0.25107214
119	0x3dae706e	0.08517538
120	0xbec7463b	-0.3892077
121	0xbd8f91be	-0.0701022
122	0x3e1fc76b	0.15603416
123	0x3de77968	0.11302453
124	0x3d8b0c38	0.0678944
125	0x3e27a8ec	0.16373032
126	0xbd5f707c	-0.054550633
127	0xbe8a732c	-0.27040994
128	0xbdb59ba7	-0.08867579
129	0x3e1837e0	0.14865065
130	0x3e40e508	0.18837368
131	0x3d97df40	0.074156284
132	0xbe73214a	-0.23743168
133	0xbe933b97	-0.287564
134	0x3db1a7e1	0.086745985
135	0x3e083e90	0.13305116
136	0xbe6c4ca0	-0.23076105
137	0xbebe015e	-0.37110418
138	0xbe9b0d2d	-0.3028349
139	0xbe2ca140	-0.16858387
140	0xbdaf1b12	-0.08550085
141	0xbe790416	-0.24317965
142	0xbe7be898	-0.24600446
143	0xbe41765a	-0.18892804
144	0x3da72b19	0.08162517
145	0x3d6c9289	0.057756934
146	0x3cf0d915	0.029400388
147	0xbd9bd194	-0.07608333
148	0x3d90de90	0.070737004
149	0x3e50fef8	0.20409763
150	0x3da0efe2	0.07858254
151	0x3ddbe615	0.10737244
152	0x3c88c493	0.016695296
153	0xbca9e521	-0.02073914
154	0xbdcfa673	-0.101391695
155	0x3de6ce59	0.112698264
156	0x3e1053ca	0.14094463
157	0x3d96ceae	0.0736364
158	0xbd325824	-0.04354109
159	0xbc84e177	-0.016220791
160	0x3e1628ec	0.14664048
161	0x3dbc0738	0.09181064
162	0xbd3b0ab1	-0.045664493
163	0x3d227587	0.039662864
164	0xbc9b5447	-0.018961085
165	0xbd1dabda	-0.03849397
166	0x3df007d1	0.11720241
167	0xbb584987	-0.003300281
168	0x3d1702f1	0.03686804
169	0xbca7357c	-0.020411246
170	0xbe5e483d	-0.21707244
171	0xbe0f7939	-0.14011087
172	0xbe3ee727	-0.18642865
173	0xbe316b9b	-0.17326204
174	0xbe39ac2c	-0.18132085
175	0x3dddf6b8	0.108380735
176	0x3e8199e2	0.25312716
177	0x3e65a5e0	0.22426558
178	0x3de26090	0.11053574
179	0x3e1d6508	0.15370572
180	0x3c9c19e4	0.019055314
181	0x3d690742	0.056891687
182	0xbdd18815	-0.10231034
183	0xbd1cce35	-0.03828259
184	0x3c05d9b1	0.008169577
185	0xbe2428bd	-0.16031165
186	0x3d3c90e2	0.04603661
187	0x3c8ec535	0.01742802
188	0xbd8a7a28	-0.06761581
189	0xbe251431	-0.16120984
190	0xbe808080	-0.25098038
191	0x3e3fd542	0.18733695
192	0x3eb02d81	0.34409717
193	0x3e26ccaf	0.16289018
194	0x3d9650ec	0.073396534
195	0xbeba17a3	-0.36346158
196	0x3d52f86f	0.051506456
197	0x3d6d7394	0.057971552
198	0x3b8f86a6	0.004380065
199	0xbc280ace	-0.010256482
200	0x3d82a199	0.063784786
201	0x3dad9d91	0.08477319
202	0x3deaf6a7	0.114728265
203	0x3d8bb83a	0.06822248
204	0xbdc63262	-0.096775785
205	0xbc9337f5	-0.017971018
206	0x3e1fedbb	0.1561803
207	0x3e396e40	0.18108463
208	0x3d125693	0.035727095
209	0xbd1b548a	-0.03792242
210	0xbd472cb3	-0.048626613
211	0x3d3320df	0.04373252
212	0x3dbcfdf0	0.09228122
213	0xbcbad199	-0.022805022
214	0x3d968b92	0.0735084
215	0x3d3fc8d3	0.04682238
216	0x3d22bcc2	0.039730795
217	0x3e1b059b	0.15138857
218	0x3d00b3e1	0.031421546
219	0xbd0d9fee	-0.03457635
220	0xbc1b789a	-0.009489203
221	0xbd74b421	-0.059742097
222	0x3dcb444c	0.09925136
223	0xbd3aa973	-0.045571756
224	0xbd9bb689	-0.07603175
225	0xbd6afc9e	-0.05736982
226	0x3d8cf321	0.06882311
227	0xbd9a62d1	-0.07538379
228	0xbdd4fbc0	-0.1039958
229	0xbde8a9bd	-0.113605
230	0xbd1eb009	-0.0387421
231	0x3e300b91	0.17191912
232	0x3c16567d	0.009175894
233	0xbba6033f	-0.005066305
234	0x3cfef15f	0.031120954
235	0x3d94a41c	0.07257864
236	0x3e0b67e5	0.13613851
237	0x3cf40563	0.029787725
238	0x3cebce88	0.028785005
239	0xbc818343	-0.01580966
240	0x3be04599	0.006844234
241	0x3d02e926	0.03196063
242	0xbdd25325	-0.10269765
243	0xbcd8959d	-0.026438529
244	0xbdba4b79	-0.090964265
245	0x3d6518e4	0.05593194
246	0x3d31112b	0.043229263
247	0x3c797751	0.015226201
248	0x3d826e4d	0.063686945
249	0x3c7b907e	0.015354274
250	0x3dc8125e	0.09769128
251	0x3d619bd1	0.05508024
252	0xbdbe3eb0	-0.092893004
253	0x3cb3f46a	0.021967132
254	0x3dc158a3	0.09440734
255	0x3da85d89	0.082209654

convnet.c3.bias f4 [16]
0	0xbda8f3e5	-0.08249644
1	0xbe1d3777	-0.1535319
2	0x3d4c1cea	0.049832262
3	0x3d4e2701	0.050330166
4	0xbd9074c9	-0.07053525
5	0x3c566397	0.0130852675
6	0x3d84c8e4	0.06483629
7	0x3c47eae2	0.0122019965
8	0xbd93476a	-0.071913555
9	0xbb24e72c	-0.0025162203
10	0xbc9c8be9	-0.019109683
11	0x3d8cd013	0.068756245
12	0x3ca91ace	0.020642664
13	0x3db45e92	0.088071
14	0xbc40d041	-0.011768402
15	0xbb992f00	-0.0046747923

convnet.c5.weight f4 [120, 16, 5, 5]
0	0xbd10ad93	-0.035321783
1	0x3c5b308e	0.013378276
2	0xbbb73a14	-0.0055916402
3	0x3d36e609	0.044652972
4	0x3ca38ed6	0.01996557
5	0xbd402266	-0.046907805
6	0xbdf61607	-0.1201592
7	0xbd891654	-0.06693712
8	0x3d06ce95	0.032911856
9	0x3d81929e	0.06326793
10	0xbd5dd378	-0.05415675
11	0x3cd7642f	0.026292888
12	0x3cac035b	0.020997694
13	0xbd9f34a1	-0.0777371
14	0xbe4c6c8b	-0.19963281
15	0xbd208211	-0.03918654
16	0x3d06bfb9	0.032897685
17	0xbc1e94af	-0.009679004
18	0xbdb211e3	-0.08694818
19	0xbcd7afb6	-0.026328903
20	0x3e622f32	0.22088316
21	0x3d8077d2	0.06272854
22	0xbdd581c7	-0.10425144
23	0xbe41044e	-0.18849298
24	0x3b5836f0	0.003299173
25	0xbdcc4996	-0.09974973
26	0xbd59871c	-0.053107366
27	0xbc52ed0e	-0.012873901
28	0xbc7ae0aa	-0.015312353
29	0x3d98c29d	0.074589945
30	0xbd5f5c24	-0.05453123
31	0xba062209	-0.0005116766
32	0xbd56f613	-0.05248077
33	0xbd99991a	-0.07499905
34	0x3ca11103	0.019661432
35	0x3a90014e	0.0010986717
36	0xbd8204c6	-0.06348567
37	0xbdf08756	-0.11744563
38	0x3cae751a	0.021296073
39	0xbd38170c	-0.044943854
40	0xbe1b1018	-0.15142858
41	0xbd80b380	-0.06284237
42	0xbc32d190	-0.010914221
43	0x3c94fd35	0.018187145
44	0x3babe9ee	0.0052463925
45	0x3d978fa0	0.07400441
46	0x3e1f3bf8	0.1555022
47	0x3dd1ef65	0.10250739
48	0x3e11e8a0	0.14248896
49	0xbbb6e3bb	-0.005581347
50	0xbd3ca6bd	-0.04605745
51	0xbd361ad5	-0.044459183
52	0x3d2b4f36	0.04182359
53	0x3d8c7399	0.06857986
54	0xbc8ad149	-0.016945498
55	0xbd1efca4	-0.038815156
56	0x3c654b9f	0.01399508
57	0x3cbece59	0.023291754
58	0xbd8c8e85	-0.06863121
59	0xbe0434e5	-0.12910803
60	0x3c992100	0.018692493
61	0x3c9358f7	0.017986758
62	0xbd139894	-0.03603418
63	0xbad8d233	-0.0016542136
64	0xbdcaf373	-0.099097155
65	0x3dc51d19	0.096246906
66	0x3df1af6e	0.11801039
67	0x3cb874b5	0.022516588
68	0xbdfaaa15	-0.12239472
69	0x3d1a1e8d	0.03762679
70	0x3d0cfd26	0.03442111
71	0x3d848af1	0.064718135
72	0xbde4c5ab	-0.11170515
73	0xbdc7edff	-0.09762191
74	0xbd278be4	-0.040904894
75	0x3d2c18fa	0.042016007
76	0x3b792abf	0.0038019863
77	0x3c623f71	0.013809071
78	0xbd8250f6	-0.06363098
79	0xbd928fc4	-0.07156327
80	0xbce520ab	-0.027969679
81	0x3d2b82ba	0.041872717
82	0xbdd11813	-0.1020967
83	0xbe054ab8	-0.13016784
84	0xbdf114e1	-0.117715605
85	0x3e17ebf0	0.14836097
86	0x3d30c1ac	0.04315345
87	0xbcd31006	-0.025764477
88	0xbd3c101f	-0.04591381
89	0x3c12a5c6	0.008950656
90	0xbd39fb4b	-0.045405667
91	0xbd109916	-0.035302244
92	0xbdf56421	-0.11981989
93	0xbcf53516	-0.02993254
94	0x3d743782	0.05962325
95	0x3c49d1d3	0.012318092
96	0x3bdf698d	0.0068180026
97	0x3defc636	0.117077276
98	0x3e1b0920	0.151402
99	0x3d97fe24	0.0742152
100	0x3cae372e	0.021266546
101	0x3d325f8b	0.043548148
102	0xbc1e3321	-0.009655745
103	0xbc5e739c	-0.013577368
104	0xbd3c7e4f	-0.046018895
105	0xbd1743e6	-0.036929987
106	0x3cdcd2f9	0.026956068
107	0xbd5660a7	-0.05233827
108	0xbc41dbb4	-0.011832166
109	0x3cd59134	0.026070215
110	0x3cac9632	0.021067712
111	0xbcb6e773	-0.02232716
112	0xbd30f296	-0.043200098
113	0xbca40147	-0.02002014
114	0xbd50e1be	-0.050996535
115	0xbca65f8a	-0.020309228
116	0x3c744fe0	0.014911622
117	0x3d6559f6	0.055993997
118	0x3d17a733	0.037024688
119	0x3d084ed8	0.033278316
120	0xbc82a706	-0.015948784
121	0x3d380c91	0.04493386
122	0xbb85c1b0	-0.0040819272
123	0x3c2ebaa8	0.0106646195
124	0xbb49ae20	-0.0030773953
125	0x3e132bcf	0.1437218
126	0xbd33ee62	-0.04392851
127	0x3db4e37a	0.0883245
128	0x3df78a96	0.1208698
129	0x3d1ed052	0.03877289
130	0x3e0c49bb	0.13700001
131	0x3d9f2da8	0.0777238
132	0x3d107da0	0.035276055
133	0xbb585b4a	-0.0033013397
134	0xbd1617cb	-0.036643784
135	0x3dd83f19	0.1055891
136	0x3d63c1d9	0.05560479
137	0xbd4f5ba2	-0.050624497
138	0x3d3405b0	0.043950737
139	0x3e0bdb07	0.13657771
140	0x3db18db9	0.086696096
141	0xbbd81081	-0.0065937643
142	0xbc8ea823	-0.017414158
143	0x3b93afaf	0.004507027
144	0xbdbc11f8	-0.09183115
145	0xbd7b9597	-0.061421957
146	0xba742fc2	-0.0009314978
147	0x3d380f88	0.044936687
148	0xb9e8e7f5	-0.0004442331
149	0x3d07bd93	0.033139776
150	0xbd91251b	-0.070871554
151	0xbd19dc09	-0.037563358
152	0xbe026386	-0.12733278
153	0xbd0e6a5b	-0.034769397
154	0x3dd5017a	0.10400672
155	0x3da7c4f6	0.08191864
156	0xbab91997	-0.0014122006
157	0xbe3599d2	-0.17734459
158	0x3d282277	0.041048493
159	0xbb21ed78	-0.0024708193
160	0x3d5dfbc2	0.054195173
161	0x3dc9d0cc	0.09854278
162	0xba8dae30	-0.0010809358
163	0x3cb19f00	0.021682262
164	0xbdc2e4a0	-0.09516263
165	0xbe22cfb1	-0.1589954
166	0xbd53048f	-0.05151802
167	0x3d28ab28	0.041178852
168	0x3dfbcdf9	0.122951455
169	0x3cd3d178	0.025856718
170	0xbe06aec6	-0.13152608
171	0x3ddec9f5	0.10878364
172	0x3cd40f2a	0.025886137
173	0x3d9b6417	0.0758745
174	0xbc6dd278	-0.014515512
175	0xbe198467	-0.14991914
176	0x3d5d23f9	0.053989384
177	0x3e07956b	0.13240592
178	0x3db43be7	0.08800488
179	0x3d7dba88	0.06194547
180	0x3b873404	0.004126074
181	0xbdf2c1fb	-0.11853405
182	0xbdfe9623	-0.1243098
183	0xbd843571	-0.06455506
184	0xbcddc060	-0.02706927
185	0xbdb71207	-0.08938985
186	0xbd6f2870	-0.058388174
187	0xbd081c07	-0.033229854
188	0xbd0329a1	-0.032022122
189	0xbdbc7689	-0.09202296
190	0xbd852b50	-0.06502402
191	0xbc5aa7f6	-0.013345709
192	0x3c921454	0.017831959
193	0x3c3a7344	0.0113800205
194	0xbd4b05f4	-0.049566224
195	0x3d9a4763	0.07533147
196	0xbd13cf85	-0.036086578
197	0x3ba2d54e	0.0049692756
198	0x3cdcf67e	0.026973005
199	0x3c592caf	0.013255282
200	0xbdb0242e	-0.08600651
201	0xba167836	-0.0005739959
202	0x3dd76f72	0.105193034
203	0x3d4d664d	0.05014639
204	0x3caa5be9	0.02079578
205	0x3a8825bc	0.0010387222
206	0xbd241f01	-0.04006863
207	0xbd5adbf5	-0.053432424
208	0x3d34cf5d	0.04414307
209	0x3c6befd7	0.014400444
210	0xbd02274b	-0.031775754
211	0x3be63a64	0.0070260037
212	0x3d0af38f	0.03392368
213	0xbdbe61c9	-0.09295995
214	0xbd76026d	-0.060060907
215	0xbe13d6f0	-0.14437461
216	0xbd0b4fb2	-0.03401155
217	0x3cfc4bd5	0.030797878
218	0x3d01376d	0.031547
219	0x3d32a2f7	0.043612447
220	0x3b231fb6	0.0024890727
221	0x3d2dfea1	0.04247916
222	0xbd614402	-0.054996498
223	0x3b5a860a	0.0033344054
224	0x3da5344a	0.08066614
225	0xbcb518d4	-0.022106566
226	0x3d3517a0	0.044211984
227	0x3d9d7e90	0.076901555
228	0x3ca61781	0.02027488
229	0x3e293f52	0.16528061
230	0x3dd7d168	0.10537988
231	0xbd1eee9d	-0.038801778
232	0xbe5dfc2c	-0.21678227
233	0xbe0f9bdd	-0.14024301
234	0xbb227d72	-0.002479401
235	0x3be51cc0	0.0069919527
236	0xbdc42a1a	-0.09578343
237	0xbc5278cf	-0.012846186
238	0xbdfaf80e	-0.12254344
239	0x3cc4c07d	0.024017567
240	0xbe23a6ce	-0.159816
241	0x3c1dfae9	0.009642341
242	0xbded79e1	-0.11595512
243	0xbdd33159	-0.10312147
244	0xbbc92b14	-0.0061391685
245	0x3d6a57c4	0.057212606
246	0x3d921216	0.07132356
247	0x39844147	0.00025225637
248	0x3d644d1a	0.055737592
249	0x3e115bd6	0.14195189
250	0x3e05e970	0.1307733
251	0x3e3a8be0	0.1821742
252	0x3d64b395	0.055835325
253	0xbdaaa5e3	-0.08332422
254	0xbd5ff236	-0.05467435
255	0x3e01b0f7	0.12665163

convnet.c5.bias f4 [120]
0	0x3cdf5ae7	0.027265025
1	0xbdbcd1a5	-0.09219674
2	0x3d60757b	0.054799538
3	0xbd1027ea	-0.035194315
4	0x3d787dc4	0.060666814
5	0x3bc883b4	0.006119216
6	0xbd93666b	-0.07197269
7	0xbd821060	-0.063507795
8	0xbcd8e778	-0.02647756
9	0x3c762002	0.01502228
10	0x3b048a45	0.0020224017
11	0xbb70a1db	-0.0036717567
12	0xbcbb43a3	-0.0228594
13	0xbd4a9e16	-0.04946717
14	0xbd0d5127	-0.03450122
15	0x3d67b01a	0.056564428
16	0x3d950d69	0.072779484
17	0x3d73a8c2	0.059487112
18	0x3c472571	0.012154923
19	0x3ccb24a2	0.024797741
20	0xbcce9985	-0.025219688
21	0x3cdd9b46	0.02705158
22	0x3cb5fb52	0.022214565
23	0xbd4523f8	-0.048130006
24	0x3db4f9fd	0.08836744
25	0x3b3351ed	0.0027362064
26	0x3ba543ba	0.005043474
27	0xbcb9071a	-0.022586394
28	0xbd47d2e0	-0.04878509
29	0xbcbc56fb	-0.022990694
30	0x3c8c9127	0.017159058
31	0x3dc5c8a0	0.09657407
32	0xbcc616a7	-0.024180723
33	0xbd9574b1	-0.07297648
34	0x3d3c02ea	0.045901217
35	0x3d64a902	0.05582524
36	0xbcd79d2a	-0.026320059
37	0xbe277174	-0.16351873
38	0xbd29267a	-0.04129646
39	0x3d6fdc10	0.058559477
40	0xbccecaa2	-0.025243107
41	0xbd04242f	-0.03226107
42	0x3cefcd34	0.029272653
43	0x3dde1f77	0.10845845
44	0xbd3a1ab9	-0.04543564
45	0x3c8eb592	0.017420564
46	0x3db70fce	0.089385614
47	0x3db674d5	0.08909003
48	0xbce2480f	-0.02762225
49	0x3bda4092	0.0066605294
50	0x3c65dbdb	0.014029468
51	0x3dda024b	0.106449686
52	0xbd361723	-0.04445566
53	0xbd6a2c00	-0.057170868
54	0xbcce34ea	-0.025171716
55	0x3d2598e8	0.040429026
56	0xbde72cf4	-0.11287871
57	0x3c7735de	0.0150885265
58	0x3b0d0aa7	0.0021521242
59	0x3d27ad48	0.04093674
60	0xbdac3d58	-0.08410138
61	0x3e3f6c7c	0.18693727
62	0x3b8e3022	0.004339234
63	0x3db6fbac	0.08934721
64	0x3d4220ea	0.04739467
65	0x3d039f91	0.032134596
66	0xbd69bd25	-0.057065148
67	0xbda46fb7	-0.080291204
68	0xbd71f789	-0.05907396
69	0xbc498054	-0.012298662
70	0x3b2266ee	0.002478059
71	0xbc66f4d9	-0.014096462
72	0x3c904870	0.017612666
73	0x3c37c7f5	0.011217107
74	0xba6d9638	-0.0009063217
75	0xbd10bca4	-0.03533615
76	0x3e185530	0.14876246
77	0xbdb8c5cd	-0.090221025
78	0xbcdd5520	-0.02701813
79	0xbb589b5d	-0.0033051588
80	0xbc7e01f8	-0.015503399
81	0xbcec026d	-0.02880975
82	0x3b375290	0.0027972795
83	0xbd0449d8	-0.032296985
84	0x3dfacfa9	0.12246639
85	0x3dafabb1	0.085776694
86	0xbd1cc271	-0.03827137
87	0x3de1a53d	0.11017845
88	0xbba65d82	-0.005077065
89	0x3d2d67fa	0.042335488
90	0x3ae5154c	0.001747766
91	0xbd89751d	-0.06711791
92	0x3c7d3282	0.0154539365
93	0xb9e7c7a0	-0.00044208486
94	0xbd1fb771	-0.038993303
95	0xbd5db4e6	-0.054127596
96	0x3c9b93fa	0.01899146
97	0x3d0c68d3	0.034279656
98	0xba2cee5e	-0.0006596799
99	0x3dd0c3d5	0.10193602
100	0xbd39b842	-0.045341738
101	0xbd6b0a34	-0.057382777
102	0x3b514bcd	0.003193605
103	0x3e0b41bb	0.13599293
104	0xbd15c84d	-0.036567975
105	0x3db0bdf8	0.08629984
106	0xbd72ae84	-0.059248462
107	0x3d0cddf5	0.034391362
108	0xbb80f944	-0.003935965
109	0x3def9064	0.11697462
110	0x3c26bb0e	0.010176433
111	0xbc113717	-0.008863232
112	0x3b124446	0.0022318526
113	0xbcb8019f	-0.02246171
114	0xbc86fee4	-0.016478963
115	0x393bfbb8	0.00017927482
116	0x3c97bfd8	0.018524095
117	0x396630c4	0.00021952676
118	0x3c70bcfe	0.014693497
119	0x3d6e38dc	0.058159694

fc.f6.weight f4 [84, 120]
0	0xbd0b379b	-0.033988576
1	0xbc9ffb93	-0.01952914
2	0x3bc4e329	0.006008525
3	0x3e1a7914	0.1508525
4	0x3e0c496b	0.13699882
5	0xbd32780e	-0.043571524
6	0xbd97c423	-0.07410457
7	0x3d92fb52	0.07176842
8	0xbb2c37ec	-0.002627845
9	0xbd84058f	-0.06446373
10	0x3d140bbb	0.036144
11	0xbdc52b03	-0.096273445
12	0xbcd3b0e3	-0.025841182
13	0x3d020002	0.03173829
14	0x3d354730	0.044257343
15	0x3dda33ab	0.10654386
16	0x3e02e9e0	0.12784529
17	0x3da53631	0.08066977
18	0xbab998e8	-0.001415995
19	0x3b42003f	0.0029602197
20	0xbda9413b	-0.08264395
21	0x3e7c1275	0.24616416
22	0x3e0084d4	0.1255067
23	0xbde4ecdf	-0.11177992
24	0xbdaff33b	-0.085913144
25	0x3d8a5e39	0.06756253
26	0xbe2abe34	-0.16674119
27	0x3e19f439	0.1503457
28	0x3e2441df	0.16040753
29	0xbd6cf611	-0.057851855
30	0x3dc2c80e	0.09510814
31	0x3e012e43	0.12615304
32	0x3dc79dc9	0.09746892
33	0xbd99b3bc	-0.07504985
34	0xbdf2ba19	-0.118519016
35	0xbe42ac61	-0.1901107
36	0x3b40f2f8	0.0029441696
37	0xbd8cb018	-0.06869525
38	0x3c6bc2c0	0.014389694
39	0x3e245fe6	0.16052207
40	0x3d33b0d5	0.043869812
41	0xbda696c2	-0.081342235
42	0x3db7c7af	0.089736335
43	0x3e1376e1	0.14400817
44	0x3dcf4e01	0.101223
45	0x3d1729eb	0.03690521
46	0x3dc58ef2	0.09646405
47	0xbd6dbf8e	-0.05804401
48	0x3d460a37	0.048349585
49	0x3e55a000	0.20861816
50	0x3cf3ac6a	0.0297453
51	0xbdee1f79	-0.11627097
52	0xbd3582b5	-0.044314105
53	0xbdcc7e67	-0.09985047
54	0xbc8dabd6	-0.017293852
55	0x3d7bca16	0.06147202
56	0x3e026819	0.12735023
57	0xbd33cffa	-0.043899514
58	0x3d55b488	0.05217412
59	0x3d8a534a	0.067541674
60	0xbd0dca8b	-0.03461699
61	0x3d8a2123	0.067446016
62	0xbdf9c1df	-0.12195181
63	0x3c9ac3ae	0.018892135
64	0x3e2c20a8	0.16809332
65	0x3c9f16ad	0.019419992
66	0x3dae063a	0.084972814
67	0xbc9876a2	-0.018611256
68	0x3d5faf7d	0.054610718
69	0x3e0ccf92	0.13751057
70	0x3d1441e8	0.036195666
71	0x3e321836	0.17392048
72	0x3b921c1b	0.004458917
73	0xbd337f6e	-0.0438227
74	0xbdc79722	-0.09745623
75	0xbd95c3da	-0.07312746
76	0x3d15ca64	0.036569968
77	0xbea1eddf	-0.31626794
78	0xbb40cdc1	-0.0029419514
79	0xbd577dbb	-0.05261014
80	0x3dbde851	0.092728265
81	0xbd275e40	-0.04086137
82	0xbe012fc2	-0.12615874
83	0xbdb92325	-0.090399064
84	0x3de5d3b8	0.11222023
85	0x3dab4bf6	0.08364098
86	0x3e3a520a	0.18195358
87	0x3d9d2fd0	0.07675135
88	0xbd8b286a	-0.06794818
89	0x3dc884df	0.09790968
90	0x3d059efe	0.03262233
91	0xbd5c0c21	-0.053722505
92	0x3d8d1f0a	0.06890686
93	0x3c3fac59	0.011698806
94	0xbd2b17be	-0.04177069
95	0x3dc8c679	0.09803481
96	0x3d064256	0.032778107
97	0x3d86762b	0.065655075
98	0xbe0224c6	-0.1270934
99	0x3e15ba53	0.14621858
100	0xbd80bbe2	-0.06285836
101	0xbb8c07ae	-0.0042733764
102	0xbc990314	-0.018678226
103	0x3ce766ab	0.028247198
104	0x3d8a4eef	0.06753337
105	0x3e0101f8	0.12598407
106	0xbd9bd2de	-0.07608579
107	0xbc0d39e4	-0.008619759
108	0xbca9b07e	-0.02071404
109	0x3d2ef0bf	0.042710062
110	0x3cbbf217	0.022942586
111	0x3d554d08	0.052075416
112	0x3dbe1ef4	0.092832476
113	0x3e54cd29	0.20781387
114	0x3c8ada6b	0.016949853
115	0x3dbfe6b1	0.09370173
116	0x3cce6da4	0.025198765
117	0xbe91d064	-0.28479302
118	0x3d5066f8	0.05087945
119	0x3e7e47ca	0.24832073
120	0xbcd5018a	-0.02600171
121	0xbccbe6fa	-0.024890412
122	0xbd1600ea	-0.036621965
123	0xbdb44326	-0.0880187
124	0xbb384502	-0.0028117304
125	0x3dc66f97	0.09689253
126	0x3e2982cb	0.165538
127	0xbbff1820	-0.0077848583
128	0x3d600440	0.054691553
129	0xbcf391e0	-0.029732645
130	0xbcd0ac0b	-0.025472661
131	0xbb10afd9	-0.002207747
132	0xbe28e4e9	-0.16493572
133	0xbd308f31	-0.043105308
134	0xbe5904e0	-0.21193266
135	0x3d199068	0.037491232
136	0xbdcd96b3	-0.10038509
137	0xbd8bb3e4	-0.06821421
138	0xbc59f095	-0.013301988
139	0x3dccbc93	0.09996905
140	0x3c0f903a	0.008762414
141	0xbd98f8c9	-0.07469327
142	0x3d0e337d	0.03471707
143	0x3c464110	0.012100473
144	0x3dd2d7cd	0.10295067
145	0x3e0d1f2e	0.13781425
146	0x3cb1b34a	0.021691937
147	0x3ccfe79e	0.025378998
148	0x3e213ec6	0.15746602
149	0xbd19dee0	-0.037566066
150	0x3b121335	0.002228928
151	0xbcf5f718	-0.03002505
152	0x3e119e0e	0.1422045
153	0x3de3e0d4	0.11126867
154	0x3cd6368b	0.026149055
155	0x3d538317	0.05163869
156	0xbbbe3614	-0.0058047865
157	0xbe087be0	-0.13328505
158	0xbbb2bb46	-0.0054544536
159	0xbc6684e4	-0.0140697695
160	0x3d09e912	0.03366954
161	0x3d9c6cf2	0.07637967
162	0x3c69b9f4	0.014265526
163	0x3d5eb674	0.05437322
164	0x3d249ada	0.04018674
165	0x3dbeba08	0.093128264
166	0x3d6c2c6a	0.057659544
167	0x3e35996b	0.17734306
168	0x3b933344	0.0044921953
169	0x3d7d81ad	0.061891247
170	0x3dbfc8a1	0.09364439
171	0xbae6d076	-0.0017609734
172	0xbda1cd4b	-0.07900485
173	0xbd779c55	-0.060451824
174	0xbdc5f88d	-0.09666548
175	0x3df9c236	0.12195246
176	0xbd95e1b8	-0.07318443
177	0xbdeb8587	-0.11500078
178	0x3d3166b0	0.04331082
179	0xbdbe841c	-0.093025416
180	0xbc78a70d	-0.015176547
181	0x3e843db2	0.2582832
182	0xbd4e7452	-0.0504039
183	0x3e44d95f	0.19223545
184	0x3da196be	0.0789008
185	0xbd2a9c6e	-0.04165309
186	0xbdc454bf	-0.095864765
187	0xbe82c737	-0.25542614
188	0xbbe4fbe7	-0.006988037
189	0x3db35441	0.087563045
190	0x3e0c2c61	0.13688804
191	0xbdee7dd1	-0.11645091
192	0x3c7ecdb3	0.015551972
193	0x3e530a06	0.20609292
194	0xbd1df774	-0.038566068
195	0x3d24b9e3	0.040216338
196	0x3c425ef5	0.01186346
197	0x3e379fcc	0.17932051
198	0x3dc3e6f5	0.09565536
199	0x3d38ae96	0.045088373
200	0x3dd32c7b	0.10311218
201	0xbcd36794	-0.025806226
202	0xbd61cfb8	-0.055129737
203	0x3d5a6228	0.053316265
204	0x3e0d6220	0.13806963
205	0x3d6392d7	0.05555996
206	0xbc15fc0d	-0.009154332
207	0x3dc28f97	0.09500044
208	0xbd313567	-0.04326382
209	0x3e07f358	0.13276422
210	0x3e1bf83e	0.15231416
211	0x3d2fea09	0.042947803
212	0xbac6f155	-0.0015178124
213	0x3d8c4bc8	0.068503916
214	0xbdd2ba5c	-0.102894515
215	0x3d8572cb	0.06516036
216	0x3e7d5f56	0.24743399
217	0x3e0533d8	0.13008058
218	0xbd9cba9a	-0.07652779
219	0xbe0a59f3	-0.13510875
220	0xbd44ff18	-0.04809484
221	0x3d830cde	0.063989386
222	0x3d070162	0.032960303
223	0x3bf613b3	0.0075096725
224	0x3c9b249c	0.018938355
225	0x3e15b22c	0.14618748
226	0x3d70d05d	0.05879246
227	0x3defe53d	0.117136456
228	0xbd827f54	-0.06371942
229	0xbad436ab	-0.0016190609
230	0x3d070aad	0.032969166
231	0xbcb5627b	-0.022141686
232	0x3d3c84ec	0.0460252
233	0xbe595b24	-0.21226174
234	0xbcf9495b	-0.030430486
235	0x3e197d5d	0.14989229
236	0x3c31731e	0.010830669
237	0x3e762f56	0.24041495
238	0xbd410ba7	-0.047130253
239	0xbd042f5a	-0.03227172
240	0xbca0e12b	-0.019638618
241	0x3da40db6	0.08010428
242	0xbd2d130e	-0.0422545
243	0x3ccdf939	0.025143253
244	0x3cafbc04	0.021451958
245	0x3dc03a97	0.09386175
246	0x3e05c8c5	0.13064869
247	0xbce61d31	-0.028090091
248	0xbdc99d63	-0.09844472
249	0x3d932f7c	0.07186791
250	0xbddcb65b	-0.10776969
251	0x3d014efc	0.031569466
252	0xbcb350ea	-0.021889169
253	0x3cbc7e41	0.023009421
254	0x3ca9c4b9	0.020723687
255	0xbd973d84	-0.0738478

fc.f6.bias f4 [84]
0	0x3e02dff2	0.12780741
1	0x3e2877d4	0.16451961
2	0x3d1e0fa8	0.03858915
3	0x3c655af5	0.013998737
4	0x3bb23ce8	0.0054393895
5	0x3e1f0427	0.15528928
6	0x3a94a20f	0.0011339801
7	0xbd4d06eb	-0.050055426
8	0x3e41a798	0.18911588
9	0x3e48cfce	0.19610521
10	0xbdabe224	-0.08392742
11	0xbda73dc9	-0.081660815
12	0xbb89e442	-0.0042081187
13	0xbb83b6e3	-0.0040196045
14	0xbd3af740	-0.045645952
15	0x3dab0d9e	0.08352207
16	0x3d419426	0.047260426
17	0x3b8527b9	0.004063573
18	0x3d5c4ea8	0.05378595
19	0xbdeb7fce	-0.11498986
20	0xbce61fc9	-0.028091328
21	0x3ce0b876	0.027431708
22	0x3846e150	4.7416717e-05
23	0x3daca9f2	0.08430852
24	0x3b2afbef	0.0026090106
25	0x3d8d83c3	0.06909897
26	0x3e1c3b6f	0.15257047
27	0x3d31e900	0.043435097
28	0x3c64bc06	0.013960844
29	0x3e1e0dca	0.15434948
30	0x3e0c3430	0.13691783
31	0xbe11509a	-0.14190903
32	0xbd96df4d	-0.0736681
33	0x3e174b14	0.14774734
34	0xbca00f21	-0.019538464
35	0x3d744554	0.05963643
36	0xbe070079	-0.13183774
37	0x3d65456f	0.05597442
38	0x3dcc512a	0.09976418
39	0x3dcb3643	0.09922459
40	0x3a192a76	0.0005842814
41	0xbdadb6b4	-0.084821135
42	0x3c52f09f	0.012874751
43	0xbc0c08f6	-0.008547058
44	0xbe043a4b	-0.12912862
45	0xbd9fde9d	-0.07806132
46	0xbd7000a1	-0.05859435
47	0xbd34eaea	-0.044169344
48	0xbd41b442	-0.047291048
49	0xbdb18cbe	-0.086694226
50	0x3bf7ff78	0.007568296
51	0x3d10804f	0.035278615
52	0x3d6a6c41	0.057232145
53	0x3cef574a	0.029216427
54	0x3d17fd8a	0.037107028
55	0xbd863034	-0.06552163
56	0xbcd108d0	-0.025516897
57	0x3e143403	0.14472966
58	0xbcceb9e0	-0.025235116
59	0x3dd7f34c	0.10544452
60	0x3da54eb3	0.08071651
61	0xbc138fc1	-0.009006442
62	0xbdabaf17	-0.08383005
63	0x3e04c9ba	0.12967578
64	0x3dad9bf3	0.084770106
65	0x3db4698e	0.088091955
66	0xbdf00167	-0.117190175
67	0x3ca7f0d8	0.020500585
68	0xbdca9218	-0.098911464
69	0x3da162e4	0.0788019
70	0xbd3c0a41	-0.045908216
71	0xbcbe12eb	-0.02320238
72	0xbd969232	-0.07352103
73	0x3df7e188	0.121035635
74	0x3ce04140	0.027374864
75	0x3cacb8d9	0.021084236
76	0x3db2268a	0.08698757
77	0x3d9a3555	0.075297035
78	0x3cd3e1e1	0.025864543
79	0x3d4238c5	0.04741742
80	0x3e01677c	0.12637132
81	0x3d60ee4d	0.05491476
82	0xbd9ec93e	-0.07753228
83	0xbbb23ad8	-0.0054391436

fc.f7.weight f4 [10, 84]
0	0x3d63db16	0.05562886
1	0xbe3769e0	-0.17911482
2	0xbe2cfc4a	-0.16893116
3	0xbdbc7b17	-0.09203165
4	0x3e2dd7d6	0.16976866
5	0xbde98ad6	-0.11403434
6	0x3d813e99	0.06310768
7	0xbcb9ccae	-0.022680607
8	0xbe3c9c6c	-0.18419045
9	0xbe0d1c46	-0.13780317
10	0xbcb02c45	-0.021505484
11	0xbda4345f	-0.080178015
12	0x3d26c951	0.040719334
13	0xbe235cf4	-0.15953428
14	0x3d862bcb	0.065513216
15	0x3d15a758	0.036536545
16	0x3de41105	0.11136059
17	0x3d692635	0.056921203
18	0xbd896582	-0.06708814
19	0xbe7e3b76	-0.2482737
20	0x3e39e983	0.18155484
21	0xbd88d89f	-0.06681942
22	0xbdb10fed	-0.08645616
23	0xbdd7fe6d	-0.10546575
24	0xbcaa6ef2	-0.020804856
25	0xbb678f00	-0.0035333037
26	0xbc36f25e	-0.011166183
27	0xbc9e160e	-0.019297626
28	0xbe383a12	-0.17990902
29	0xbd2c4692	-0.04205949
30	0xbdfccb84	-0.12343505
31	0xbd2e7054	-0.042587593
32	0x3e09749b	0.13423388
33	0x3e38fc50	0.18065
34	0xbdf456f6	-0.11930649
35	0xbe533d63	-0.20628886
36	0x3ba03da4	0.0048901606
37	0x3de9a22f	0.11407887
38	0x3e151a3b	0.14560787
39	0xbdab29ba	-0.08357568
40	0x3df21591	0.1182052
41	0x3e1533ba	0.14570513
42	0xbd6552a2	-0.055987008
43	0x3e293e86	0.16527757
44	0xbdb9a9d2	-0.09065594
45	0xbe265dc0	-0.162467
46	0xbda96fed	-0.08273301
47	0xbbd3fd59	-0.0064694104
48	0xbc7c935b	-0.015415992
49	0xbe406cce	-0.18791506
50	0x3cdea036	0.027176004
51	0xbc5eda28	-0.013601817
52	0x3d7a68bb	0.061135035
53	0xbe63b5cb	-0.22237317
54	0xbe00cad6	-0.12577376
55	0x3d2425cb	0.040075105
56	0xbdc6e0e2	-0.09710862
57	0x3ccd1e46	0.02503885
58	0x3d628fd1	0.055312935
59	0x3d5f6595	0.054540236
60	0xbdcaa0a9	-0.09893925
61	0xbe6ec0b1	-0.23315693
62	0xbc19fd1b	-0.009398724
63	0x3e595e4b	0.21227376
64	0xbd970145	-0.07373289
65	0x3d724c2b	0.05915467
66	0x3d2b88d8	0.04187855
67	0xbe2dec81	-0.1698475
68	0x3d1ae7d6	0.037818752
69	0x3c56ffa0	0.013122469
70	0xbe357739	-0.17721261
71	0xbd44f119	-0.04808149
72	0xbdd09465	-0.10184554
73	0x3d6846a3	0.05670799
74	0x3bf27554	0.0073992405
75	0x3d15b11d	0.03654586
76	0xbe1189ad	-0.14212675
77	0xbe68bfee	-0.22729465
78	0xbdb1f176	-0.08688633
79	0x3d4c3e2f	0.04986399
80	0xbe60fd0a	-0.21971527
81	0x3ccb4663	0.024813836
82	0x3e03bc43	0.12864785
83	0x3d20e878	0.0392842
84	0xbe8e8804	-0.27838147
85	0x3da3412c	0.07971415
86	0x3e2d4a85	0.16922958
87	0xbd2aeeb6	-0.04173156
88	0x3d951491	0.07279313
89	0xbdc4591e	-0.0958731
90	0x3d6123b6	0.054965697
91	0xbe8b6dd8	-0.27232242
92	0x3dcbf7bf	0.09959363
93	0x3d9ea125	0.0774558
94	0xbd803017	-0.062591724
95	0xbd6be4b8	-0.05759117
96	0x3dafabd3	0.08577695
97	0x3e519848	0.20468247
98	0xbe55ff2d	-0.20898123
99	0x3e69e26c	0.2284028
100	0x3d7b2cfd	0.0613222
101	0x3de4cd73	0.11171999
102	0xbd31a962	-0.043374427
103	0x3e3cd8f5	0.18442138
104	0x3e2b4c37	0.16728292
105	0xbe43952f	-0.19099878
106	0xbe06b725	-0.13155802
107	0xbdff6dbc	-0.12472102
108	0xbc763cb3	-0.01502912
109	0x3c5b6015	0.013389607
110	0x3cc7fce0	0.024412572
111	0xbe488404	-0.1958161
112	0xbdce9fca	-0.10089071
113	0x3ddc631a	0.107610896
114	0x3c9f2057	0.0194246
115	0xbde7691f	-0.11299347
116	0xbd420946	-0.047372125
117	0x3d12e366	0.035861395
118	0xbe8430ab	-0.2581838
119	0x3d60a6ce	0.054846577
120	0xbc481220	-0.012211353
121	0x3d8668ab	0.065629326
122	0xbd90e552	-0.070749894
123	0x3e169a65	0.14707334
124	0xbd94905d	-0.072540976
125	0x3dce2764	0.10066107
126	0xbdfe8853	-0.124283455
127	0xbe735333	-0.23762207
128	0xbd8f447c	-0.06995484
129	0x3d313bc6	0.043269895
130	0xbda33eec	-0.07970986
131	0xbe134143	-0.14380364
132	0xbdfa5161	-0.12222553
133	0xbe86f8c9	-0.26361683
134	0x3e0a385d	0.13498063
135	0xbd08f639	-0.03343794
136	0xbda9ec8e	-0.08297072
137	0xbd9efff8	-0.07763666
138	0x3dda4c2c	0.1065906
139	0x3d2e554c	0.042561814
140	0xbcef46c1	-0.029208543
141	0x3dd407b9	0.103530355
142	0x3d8b0c6b	0.06789478
143	0x3e1e5b84	0.15464598
144	0x3e1c1cdc	0.15245384
145	0xbdf4f625	-0.11961011
146	0xbd64dd41	-0.055875067
147	0xbdaf87c5	-0.08570818
148	0xbe865b36	-0.26241463
149	0xbe6a537d	-0.22883411
150	0x3e1266fb	0.14297096
151	0xbe1dfcb0	-0.15428424
152	0x3c462941	0.012094797
153	0xbe1d018f	-0.15332626
154	0x3d318348	0.04333809
155	0xbe993ac1	-0.29927638
156	0xbd7a35c4	-0.06108643
157	0x3e515a74	0.20444661
158	0xbe7d852c	-0.24757832
159	0xbd9853ac	-0.07437834
160	0x3dbde237	0.09271663
161	0xbd8effae	-0.06982361
162	0x3c6204e7	0.013795114
163	0xbdd0295b	-0.10164138
164	0xbc9b294e	-0.018940594
165	0xbe514bc2	-0.20439056
166	0xbdbfc00e	-0.093628034
167	0xbe40e3f7	-0.18836962
168	0x3caa9385	0.020822296
169	0xbe391e0a	-0.18077865
170	0x3da4bfb1	0.08044375
171	0x3e34efd5	0.17669614
172	0xbd554bb2	-0.05207414
173	0xbe189ae7	-0.1490284
174	0x3d690076	0.056885205
175	0xbe248977	-0.16068064
176	0xbd2e5970	-0.042565763
177	0xbc97ac86	-0.018514883
178	0xbd342b4f	-0.043986615
179	0xbb1b9676	-0.0023740805
180	0xbebbc8c5	-0.36676612
181	0x3e0cb9c8	0.13742745
182	0xbde12659	-0.10993642
183	0xbcb6e6f4	-0.022326924
184	0xbe143490	-0.14473176
185	0xbd1d6a99	-0.038431738
186	0x3de516c6	0.11185984
187	0x3dce825d	0.100834586
188	0x3d43dbdf	0.047817107
189	0xbe47d31d	-0.19514127
190	0x3e23d74c	0.16000098
191	0xbd14de87	-0.03634503
192	0xbde47390	-0.11154854
193	0x3d83b217	0.06430452
194	0xbe64fb10	-0.22361398
195	0x3de273ef	0.11057269
196	0x3d9a4415	0.07532517
197	0xbe4ec919	-0.201939
198	0xbb591994	-0.0033126818
199	0xbd642cb9	-0.055706713
200	0xbdcfaf5c	-0.10140869
201	0x3df5ba26	0.119983956
202	0xbd0c56fe	-0.03426265
203	0x3e2f71d9	0.17133273
204	0xbd422dc4	-0.047406927
205	0xbe2293d3	-0.15876703
206	0x3dbf0da1	0.093287714
207	0xbe08ab48	-0.13346589
208	0xbe1d4253	-0.15357332
209	0x3d21c4e0	0.039494395
210	0x3e25fd87	0.16209994
211	0xbe009773	-0.12557773
212	0xbd0bbf8b	-0.034118216
213	0xbe56c5a7	-0.20973836
214	0x3d19e091	0.03756768
215	0x3e318694	0.17336494
216	0x3d7b1a77	0.061304536
217	0xbd01a221	-0.03164876
218	0x3d0387f2	0.03211207
219	0x3e1f8bf3	0.1558073
220	0x3db478d0	0.08812106
221	0xbdc26a0a	-0.094928816
222	0x3d763810	0.06011206
223	0xbe09bcc2	-0.13450912
224	0xbdecef27	-0.11569052
225	0x3cccb473	0.024988389
226	0x3d1756bd	0.036947954
227	0xbe278f81	-0.16363336
228	0x3ad9bc68	0.0016611936
229	0x3d4b90d7	0.049698677
230	0xbd9ce152	-0.07660164
231	0x3e20ddee	0.1570966
232	0x3e20e888	0.15713704
233	0x3d0702b3	0.03296156
234	0xbe344b09	-0.17606749
235	0xbd6360b3	-0.05551214
236	0xbd852a44	-0.06502202
237	0xbd70d6d6	-0.058798634
238	0xbcfe1c96	-0.03101949
239	0xbd6f33e4	-0.058399096
240	0xbd549cf4	-0.051907495
241	0xbe257e29	-0.16161408
242	0x3e326960	0.1742301
243	0x3e14564b	0.14486043
244	0xbdaf5350	-0.085608125
245	0x3e01cdaa	0.12676111
246	0x3d7deba7	0.061992314
247	0x3d4ed3b9	0.050494883
248	0xbe48b272	-0.19599321
249	0xbdf684b4	-0.1203703
250	0xbd69c30f	-0.057070788
251	0x3dc78b7a	0.097434
252	0x3d9e73c7	0.077369265
253	0xbe16301b	-0.14666788
254	0xbe22df9a	-0.1590561
255	0x3cb51a0a	0.022107143

fc.f7.bias f4 [10]
0	0x3c8370ce	0.016045
1	0x3e1dcf69	0.15411152
2	0xbd647d3c	-0.055783495
3	0x3bcaa537	0.006184246
4	0xbd9ae56c	-0.0756329
5	0x3b3d9c57	0.0028932297
6	0xbdee79aa	-0.11644299
7	0x3d0a6204	0.03378488
8	0x3ba1f7de	0.004942878
9	0xbc0a8b51	-0.008456067
