Lenet-5_mnist/model/15_model.pkl (torch, 250431 bytes, 10 tensors)

convnet.c1.weight f4 [6, 1, 5, 5]
000000 cb 49 b6 3c 7d 4c 61 be 46 5b f2 bd a2 29 a3 3d
       0.022251984 -0.22001834 -0.11833815 0.07966925
000010 72 4f 64 3e ff 71 57 be 3f 32 ae 3d 3a 0d ab bd
       0.22295931 -0.2103958 0.085056774 -0.08352132
000020 a7 54 17 bd f7 9b 00 3e 9f 38 6d be 8e 5a 49 3e
       -0.036945965 0.12559496 -0.2316613 0.1966345
000030 6f 9c 7a 3d 47 e0 91 3e 4f 49 19 be 01 30 33 3d
       0.061184343 0.28491423 -0.14969371 0.043746952
000040 75 42 a8 3e fa 53 80 3e 95 0f 9c 3e bf c6 d1 3b
       0.32863203 0.2506407 0.30480638 0.006401866
000050 b9 b8 2e bd 16 76 94 ba 91 b5 59 3e 12 d4 28 3e
       -0.042656634 -0.0011326696 0.21260668 0.16487148
000060 3b 29 10 bd f7 6d 22 3d 03 3f 71 be 61 6e f0 be
       -0.03519557 0.039655652 -0.23559193 -0.46959212
000070 7f df e2 be a4 b8 87 be 6e da 63 3e 7e 61 18 be
       -0.4431114 -0.26508057 0.22251293 -0.1488094
000080 e2 f9 64 3c df f1 bb be 5e 22 6a be 4e 7f 0a 3e
       0.013975592 -0.3670797 -0.22864673 0.13525125
000090 f1 47 ba 3e c0 12 00 3b 3a 4e 10 3d 58 d0 d3 3b
       0.36383012 0.0019542426 0.035230853 0.0064640455
0000a0 4b 2e 24 3d 6d 49 93 3e 73 a2 b0 3e 2c aa 90 3e
       0.04008321 0.28766957 0.3449894 0.2825483
0000b0 c0 fe 80 3e 16 db af 3d 5a 01 19 3d b8 95 79 3e
       0.2519436 0.08586709 0.037354805 0.2437352
0000c0 fa 6f d3 3d b3 fd 95 3e fe 8b 58 3e 74 fb 3e be
       0.10324092 0.2929512 0.21147153 -0.18650609
0000d0 d6 a8 01 3d 61 c5 f1 3c e0 40 7d bd c4 91 3b 3e
       0.031655155 0.029513063 -0.061829448 0.18317324
0000e0 86 6e 84 be e7 92 3d 3d 31 ed ff bd d3 c9 14 3e
       -0.25865573 0.046282675 -0.124964125 0.14530115
0000f0 54 c0 82 bc 0a b5 77 bd 08 59 29 3e 42 7d 61 3e
       -0.01596085 -0.060475387 0.16537869 0.22020438
000100 e9 5d 2e 3e 43 cb 13 3e f3 07 02 3e 8d d8 3b be
       0.17028011 0.14433007 0.12698345 -0.18344326
000110 fb 45 5a 3e 84 6b 0d 3e 98 5b 5d 3e 75 c9 06 3e
       0.21315758 0.13810545 0.21616971 0.13162787
000120 b3 8e bf be cd 68 9a be 3a b1 c1 3c 88 ff 5a be
       -0.37413558 -0.30158082 0.023644079 -0.2138654
000130 b2 cf c4 3c 54 7e e9 3c eb 81 60 3e 67 b4 6c 3e
       0.024024818 0.02850262 0.2192456 0.23115693
000140 c8 e0 2d be 60 3e 89 3e 0f 05 8e 3e e3 21 18 3e
       -0.16980278 0.268054 0.27738234 0.14856677
000150 8d 0c 13 3e eb f9 2b bd da 6f 9f 3e 4a 50 cf bb
       0.14360256 -0.041986387 0.31140023 -0.00632671
000160 7d e4 04 be 85 0f 44 3d 6e 86 8e 3b 4b c7 0e bd
       -0.12977786 0.047866363 0.0043495214 -0.03485803
000170 5b 57 58 bd 30 ad 8c be 6b 86 7e bd 19 1c 3a bd
       -0.052817684 -0.27475882 -0.06213991 -0.045436952
000180 09 9c af 3d 43 96 47 be 5c a5 37 3d ad 76 24 3d
       0.08574683 -0.19490914 0.044835433 0.04015224
000190 f8 47 96 3e 80 1b ae 3e bb c5 44 3c cd be d8 3d
       0.29351783 0.34005356 0.012010033 0.10583267
0001a0 a8 99 b4 be 31 d9 10 3e 1b fd 2b 3e 64 99 f8 3d
       -0.3527348 0.14145352 0.16795771 0.12138632
0001b0 00 09 12 be 82 2c c3 be 49 a9 49 3e 30 83 b7 3e
       -0.14261246 -0.38119894 0.19693483 0.35842276
0001c0 4c 07 2f 3d 75 59 d1 be 20 cb cb be 3e 53 0e 3e
       0.04273157 -0.40888563 -0.3980341 0.13898942
0001d0 15 74 03 3e 42 0d a8 3d f3 d9 5d be 65 35 87 be
       0.1283725 0.08205654 -0.21665172 -0.26407924
0001e0 12 a5 5b 3e 2e 1b 81 3e 58 53 cf bc 3a 1b 89 be
       0.21449688 0.2521605 -0.025308296 -0.26778585
0001f0 47 d9 c4 bd 50 ce 1f 3e 7e 05 ad 3e f8 ea 59 3e
       -0.09611755 0.15606046 0.33793253 0.2128104
000200 9d 09 87 3e 3a 79 ea 3e 5f 69 15 3e cb d8 de 3e
       0.26374522 0.45795614 0.14590977 0.43524775
000210 5d 0a ae 3e bd 58 f0 3d fd 32 ce 3d 04 27 82 3d
       0.33992282 0.117356755 0.10068319 0.06355098
000220 7a 6f 10 be fd de af bd 28 6e c5 3d 54 20 74 3d
       -0.14105025 -0.085874535 0.09640151 0.059601143
000230 13 94 6a bd 6c f3 d2 be f1 d1 9d be 8c b2 9c be
       -0.05727012 -0.4120134 -0.30824235 -0.3060497
000240 df e5 a4 be c3 e5 ca be c5 75 9f be b2 9a bc be
       -0.32206628 -0.3962842 -0.3114454 -0.36836773
000250 0e 54 a7 be 95 c1 17 3e
       -0.32681316 0.1481994

convnet.c1.bias f4 [6]
000000 0b fc f4 bc 48 4a 41 bb 1c 9c 06 bd 3c 78 27 bc
       -0.02990534 -0.0029493738 -0.03286372 -0.010221537
000010 9f 28 56 3d 8b 55 24 3e
       0.052284833 0.16048257

convnet.c3.weight f4 [16, 6, 5, 5]
000000 9d 20 0f 3d 74 12 0c 3e 15 a0 d5 3d fa e0 b8 3d
       0.03494321 0.13678914 0.10430924 0.09027286
000010 bf 38 fe bd a8 87 16 3b 75 a2 1c bc db cd ea 3d
       -0.12413167 0.002296904 -0.009560217 0.11465045
000020 f1 37 24 3d 95 f9 2d be 24 af e5 bc fb e4 d0 3c
       0.040092412 -0.16989739 -0.028037615 0.025499811
000030 83 be cf 3d a3 dc da 3c 5b e4 0f be 6e 13 f8 3c
       0.10143759 0.026716536 -0.14051954 0.030282702
000040 29 77 15 3e f4 47 ed 3d 49 83 83 bd 49 24 0e bd
       0.14596237 0.115859896 -0.06421525 -0.034702573
000050 b6 25 2d bc 2a 55 2e 3d 2d 8b 74 3d f9 40 59 be
       -0.010568073 0.042561688 0.05970304 -0.21216191
000060 b3 5e b4 be 25 2a 9d 3d d4 bb c7 3d dd c7 9d 3d
       -0.352285 0.07674054 0.09752622 0.077041365
000070 3c 0d 8c 3d 74 60 3a be c8 45 d4 bd c7 51 40 be
       0.06838462 -0.18200856 -0.10364872 -0.18781196
000080 ca dc e9 bd 57 a6 b3 bd 5a 3c 81 be 77 f7 df bc
       -0.11419065 -0.08771961 -0.25241357 -0.02733968
000090 63 03 1e be 4c 9c 8d bd 0d 56 9c bd 3e 1b ad 3d
       -0.1543098 -0.06914577 -0.076336004 0.08452462
0000a0 df 57 80 bc b7 3d 7e be 69 e0 d4 bd 0b 5d 48 3c
       -0.0156669 -0.2482823 -0.10394365 0.012229214
0000b0 4f cc e6 3d 8c 2d 89 be ec 87 ae be 60 d7 a5 be
       0.112694375 -0.26792562 -0.34088075 -0.3239088
0000c0 74 ee 0a be 80 37 10 be 34 24 36 3d 7e f9 91 3d
       -0.13567525 -0.14083672 0.04446812 0.07127665
0000d0 32 59 46 3c 09 e6 cf 3d 0b 04 cc 3d 14 86 e2 3d
       0.012106227 0.101512976 0.09961709 0.110607296
0000e0 bb 61 9e bd a9 67 da bd 3e fa 90 3d 9b a0 a0 bd
       -0.07733484 -0.10664303 0.0707898 -0.07843133
0000f0 a7 d2 23 be d3 b2 a4 3d 9e d4 a3 bc 2c ed fe 3d
       -0.15998326 0.080419205 -0.019998845 0.12447581
000100 0e 9f 63 3c 2f dd e4 bd ef a7 d4 3d d5 9e b7 3d
       0.013892902 -0.11175 0.10383593 0.08965842
000110 26 26 4d 3e 9d 80 a4 3d 78 e9 86 3c f8 a6 67 3d
       0.20034084 0.080323435 0.016468748 0.05655572
000120 6a 0e c4 3d f8 34 04 bc 8b f5 64 3c 10 0d cb 3d
       0.09573062 -0.008069269 0.013974558 0.09914601
000130 88 5f e7 3c 00 26 72 3d df b9 e1 bc 26 96 4c bd
       0.028243795 0.05911827 -0.02755445 -0.04994788
000140 4f 67 4d 3e f9 fa 0a 3e 37 fb 08 3e 52 ac 1e bd
       0.2005894 0.13572301 0.13377081 -0.038738556
000150 de e2 b1 bc 28 ff 45 bd 64 03 9b 3c be 61 92 3d
       -0.021714624 -0.04833904 0.018922515 0.07147549
000160 14 92 13 3c 8b 37 0b be ed 2d 32 3d 6f 5c 01 bc
       0.009006996 -0.13595407 0.04350083 -0.007895573
000170 3c 2e 39 3d f0 86 da 3c db e9 a2 bc c8 0f 2b 3c
       0.04521011 0.026675671 -0.019886902 0.010440774
000180 ee 03 ce 3c b3 ff 80 3d 35 7f 0f bc 18 e5 11 3c
       0.025148358 0.06298771 -0.008758356 0.008904718
000190 ea 4a 82 be f5 2b 67 be 5c 8a d9 bc b8 a0 9d 3c
       -0.2544778 -0.22575362 -0.026555233 0.019241676
0001a0 36 52 cc 3d 04 0b 85 be a3 93 64 be 00 b9 c4 3d
       0.09976618 -0.25984967 -0.22321944 0.096055984
0001b0 7c 49 f0 3d 66 1f 86 3d 0a 79 eb be 38 bd d5 be
       0.11732766 0.065489575 -0.45990783 -0.41745925
0001c0 d1 c4 85 3d 48 b5 46 3e f4 b4 d8 3d d4 9b 0e bf
       0.065316804 0.19405091 0.10581389 -0.55706525
0001d0 70 58 9c be 0f b3 e4 3d 16 1c 83 3e 21 97 a2 3d
       -0.30536222 0.11166965 0.25607365 0.07938982
0001e0 86 b3 ca be a2 d7 99 bd 9c 36 1d 3e 84 28 f0 3d
       -0.3959009 -0.07511832 0.15352863 0.11726478
0001f0 ab dd 85 3d ce e5 29 3e 2a 2b 75 bd 13 85 83 be
       0.065364204 0.1659157 -0.059855618 -0.25687465
000200 b6 54 88 bd 47 d7 1f 3e 3c 8a 49 3e 98 a9 8c 3d
       -0.06656782 0.15609466 0.19681638 0.06868285
000210 88 ff 6f be a3 a2 8a be 45 4f b9 3d 3e 5f 04 3e
       -0.23437321 -0.27077207 0.090483226 0.12926957
000220 d9 ba 7f be cb 9c c8 be 21 26 9c be 98 f9 34 be
       -0.2497362 -0.39182124 -0.3049784 -0.17673337
000230 0c b5 aa bd 38 fc 71 be 24 96 7b be 02 b5 42 be
       -0.08335313 -0.2363137 -0.24568993 -0.19014362
000240 8c 1f bb 3d cd 48 79 3d 38 8e d1 3c e9 82 9f bd
       0.091368765 0.060860444 0.02558051 -0.07788641
000250 62 a0 94 3d c0 8b 50 3e 1d ee a3 3d 32 29 f5 3d
       0.07257153 0.2036581 0.08004401 0.11970748
000260 6e 65 79 3c ce 82 c8 bc c2 e0 c0 bd 14 72 f3 3d
       0.015221937 -0.024476435 -0.09417869 0.11886993
000270 13 09 1b 3e 84 96 96 3d 11 d8 33 bd b2 13 ee bb
       0.1514018 0.07352927 -0.04390723 -0.0072655315
000280 71 fa 1e 3e 8f ae c2 3d 8a a8 46 bd 29 63 2a 3d
       0.15525223 0.09505951 -0.048500575 0.041598473
000290 42 8b b2 bb 0b a6 15 bd 99 1e ee 3d 7f 51 13 bc
       -0.0054487297 -0.036535304 0.1162693 -0.008991598
0002a0 2a da 1c 3d a2 15 74 bc 99 a5 59 be 35 75 06 be
       0.038293995 -0.014897736 -0.21254577 -0.13130648
0002b0 56 1f 42 be a0 b3 36 be 3b 38 33 be 63 54 e9 3d
       -0.18957266 -0.17841959 -0.17501919 0.113930486
0002c0 b9 0a 84 3e d1 d0 6c 3e 1f 54 ed 3d a8 61 1e 3e
       0.2578943 0.23126532 0.115883105 0.1546694
0002d0 52 dd e4 3c e2 d6 8e 3d 5e 6f bd bd 5e ae 00 bd
       0.027937565 0.069745794 -0.09249757 -0.03141629
0002e0 32 3d 17 3c b1 9b 2d be 1e b1 34 3d 92 33 93 3c
       0.009230899 -0.16953923 0.044114225 0.017968927
0002f0 2f 42 82 bd cd 8a 25 be 41 a4 84 be 6c 95 46 3e
       -0.0636028 -0.1616623 -0.25906566 0.19392937
000300 f2 1d b4 3e 22 59 21 3e 4f 0a 84 3d 6e 5e bb be
       0.35179096 0.15756658 0.06447279 -0.36595482
000310 47 9d 53 3d b4 52 60 3d 56 e8 8c bc 5a 17 16 bd
       0.051663663 0.05476637 -0.01720063 -0.036643364
000320 6c 06 74 3d fa 4e af 3d d8 61 ec 3d da 76 9c 3d
       0.059576437 0.085599855 0.115421 0.07639857
000330 49 4d bf bd ef 33 58 bc 42 48 26 3e 30 31 3b 3e
       -0.09340913 -0.013195976 0.16238502 0.18280482
000340 96 90 17 3d 27 9c 1e bd 25 1b 29 bd 67 b2 23 3d
       0.037003122 -0.038723137 -0.041285653 0.03996506
000350 d8 f6 c9 3d 79 cf 68 bc ae ba a3 3d 3a eb 50 3d
       0.09861535 -0.014209622 0.07994591 0.05100558
000360 3a 19 16 3d 86 38 22 3e 44 0b 16 3d 77 e5 13 bd
       0.03664515 0.15841874 0.036631837 -0.036107507
000370 82 0a c9 bb 19 15 88 bd e2 0d c6 3d 04 f0 20 bd
       -0.006135286 -0.06644649 0.09670617 -0.039291397
000380 23 84 9d bd 09 51 79 bd 45 6d 83 3d 03 87 91 bd
       -0.07691219 -0.060868297 0.06417326 -0.071058296
000390 24 a6 d8 bd f0 49 e6 bd 18 28 3c bd 01 d8 36 3e
       -0.10578564 -0.11244571 -0.045936674 0.17855836
0003a0 b4 61 84 3c b2 f7 2c bb 8c 4c 1e 3d 0d d6 a3 3d
       0.01615987 -0.0026392755 0.03864722 0.07999811
0003b0 ba d9 14 3e 02 83 03 3d f5 40 02 3d c6 ec de bb
       0.14536181 0.03210736 0.03180023 -0.006803128
0003c0 54 34 1e 3c bd 71 cb 3c ed e7 cc bd 21 2e a0 bc
       0.009656031 0.024834508 -0.10005174 -0.019553246
0003d0 fa 65 96 bd cd 68 6a 3d 26 af 30 3d 5b d8 7e 3c
       -0.07343669 0.057228852 0.043135785 0.015554513
0003e0 ca ae 86 3d 9f a8 91 3c dd 61 b6 3d a6 ca 83 3d
       0.06576307 0.0177806 0.08905385 0.064351365
0003f0 da 6a c5 bd 3b 26 5b 3c af 69 ab 3d 50 2a 98 3d
       -0.09639521 0.013375814 0.08369767 0.074299455

convnet.c3.bias f4 [16]
000000 48 5b b5 bd 5e 41 23 be 8c 85 29 3d 85 1d 30 3d
       -0.08855301 -0.15942904 0.041387126 0.042996902
000010 c9 74 90 bd aa 3f 47 3c 36 a8 60 3d 16 ab 08 3b
       -0.07053525 0.012161175 0.05484792 0.0020853928
000020 64 1d a0 bd 21 b6 d7 bb 7a 1d bf bc bc a2 82 3d
       -0.07818106 -0.0065829908 -0.023329485 0.06378695
000030 e8 82 30 3c 0a 28 af 3d fc 05 d7 bb b3 80 56 bc
       0.010773398 0.08552559 -0.0065619927 -0.013092208

convnet.c5.weight f4 [120, 16, 5, 5]
000000 26 99 03 bd 3b b3 0d 3c cc 15 d2 b9 c8 f6 f4 3c
       -0.032128476 0.008648689 -0.0004007056 0.02990283
000010 a0 3f 8f 3c bc 28 1c bd a8 55 0a be e2 59 84 bd
       0.017486393 -0.038124785 -0.13509238 -0.06462456
000020 04 73 99 3c e5 17 9d 3d 43 56 3e bd a8 32 b4 3c
       0.018731602 0.07670573 -0.046468984 0.021996811
000030 98 4f ba 3c ab 45 a5 bd 27 e1 41 be 3b c5 fc bc
       0.022743031 -0.08069929 -0.18933545 -0.030855766
000040 4c 94 23 3d 6f f7 7b bb 9f b3 ba bd 80 ae d9 bc
       0.03993635 -0.0038447042 -0.09116291 -0.026572466
000050 50 97 66 3e c7 0a 4f 3d 26 2b fd bd 76 95 5b be
       0.22518659 0.050547387 -0.123617455 -0.21443734
000060 c8 a0 44 ba 5d 0a c1 bd 05 e3 3d bd 9c d6 16 bc
       -0.0007500765 -0.09425805 -0.04635908 -0.00920644
000070 dc 42 11 bc 81 02 9e 3d 59 8b 54 bd 7d f8 19 3b
       -0.008866038 0.07715321 -0.051890705 0.0023494058
000080 02 c8 85 bd 8c d0 a2 bd 28 6d a7 3c 8d 7e 3b 3c
       -0.06532289 -0.079499334 0.020437792 0.011443746
000090 52 f5 8d bd 02 08 05 be d1 88 8c 3c a1 e5 59 bd
       -0.06931557 -0.12991336 0.017155083 -0.053197507
0000a0 4d 2a 25 be be 2e 8a bd db be 00 bb 63 1f bf 3c
       -0.16129418 -0.067471966 -0.0019645009 0.023330396
0000b0 03 60 8b 3b 91 45 aa 3d e4 0d 20 3e 02 e0 d4 3d
       0.004253389 0.0831405 0.15630299 0.103942886
0000c0 2c 85 13 3e 46 1e 95 3b 6c 25 06 bd e8 df 55 bd
       0.1440627 0.004550728 -0.032750532 -0.052215487
0000d0 93 ba 1d 3d 55 23 4b 3d dd 4e cd bb 92 c0 29 bd
       0.03850801 0.049594242 -0.0062655048 -0.041443415
0000e0 08 ff aa 3c 7d dc b9 3c 87 dc a4 bd 9f 39 08 be
       0.020873562 0.022688145 -0.08049875 -0.1330323
0000f0 1e 40 98 3c fb ed 9d 3c d8 0e eb bc 2f 8c d4 bb
       0.018585261 0.019278517 -0.028693601 -0.0064864377
000100 59 ae db bd 24 7a d8 3d a9 ea 05 3e 98 58 e3 3c
       -0.107266136 0.105701715 0.13077797 0.027752206
000110 dc 32 1a be df 47 29 3d e3 38 17 3d 94 97 8b 3d
       -0.15058464 0.041328307 0.036919486 0.068160206
000120 04 1a ef bd e2 bb e6 bd 4c 33 20 bd 64 5f 34 3d
       -0.11674884 -0.112663046 -0.03911142 0.044036284
000130 74 fa d7 39 fa 35 27 3c 8f b2 82 bd 1e f5 86 bd
       0.00041194598 0.01020574 -0.063817136 -0.06589721
000140 e0 d0 b4 bc 73 48 35 3d bb 4e dc bd 49 82 01 be
       -0.022072256 0.044258546 -0.10757204 -0.12647356
000150 f0 95 d1 bd ad a8 1d 3e 7c 2a 3a 3d a1 ec e9 bc
       -0.102336764 0.15396376 0.045450673 -0.028555216
000160 81 5e 6d bd a4 91 8d bb fb a0 79 bd 5e d3 49 bd
       -0.057951454 -0.00432034 -0.06094454 -0.04927384
000170 1d 2a e3 bd df 02 e6 bc 07 28 67 3d 31 53 50 3c
       -0.11092017 -0.02807754 0.056434657 0.012715147
000180 9f af 3b 3b 8b 69 f8 3d e6 11 1d 3e e4 03 96 3d
       0.0028638614 0.12129506 0.15338859 0.07324961
000190 2e 37 ae 3c 8b 5f 32 3d 21 33 1e bc 9c 73 5e bc
       0.021266546 0.043548148 -0.009655745 -0.013577368
0001a0 4f 7e 3c bd e6 43 17 bd f9 d2 dc 3c a7 60 56 bd
       -0.046018895 -0.036929987 0.026956068 -0.05233827
0001b0 b4 db 41 bc 34 91 d5 3c 32 96 ac 3c 73 e7 b6 bc
       -0.011832166 0.026070215 0.021067712 -0.02232716
0001c0 96 f2 30 bd 47 01 a4 bc be e1 50 bd 8a 5f a6 bc
       -0.043200098 -0.02002014 -0.050996535 -0.020309228
0001d0 e0 4f 74 3c f6 59 65 3d 33 a7 17 3d d8 4e 08 3d
       0.014911622 0.055993997 0.037024688 0.033278316
0001e0 06 a7 82 bc 91 0c 38 3d b0 c1 85 bb a8 ba 2e 3c
       -0.015948784 0.04493386 -0.0040819272 0.0106646195
0001f0 20 ae 49 bb f7 ca 1f 3e 20 a7 f7 bc f4 09 ba 3d
       -0.0030773953 0.15604769 -0.030231059 0.0908393
000200 26 18 e0 3d 43 8c 0e 3d fd 1d 13 3e fc ee a7 3d
       0.10942106 0.034801733 0.14366908 0.081998795
000210 df 8f 29 3d 05 85 f0 bb 1d 57 22 bd 58 e4 cd 3d
       0.04139697 -0.007340076 -0.03963386 0.10053319
000220 2b 9b 87 3d 24 f6 24 bd fb 42 73 3d 5f ae 1f 3e
       0.06621393 -0.0402738 0.05939005 0.15593861
000230 96 92 98 3d e2 70 4c bb 8c de 90 bc a1 9b 7c 3c
       0.07449834 -0.0031195213 -0.017684244 0.015417964
000240 cf 30 a7 bd d6 5e 9e bd 57 05 03 bc e9 07 98 3d
       -0.081636064 -0.07732932 -0.007996879 0.07423384
000250 94 ae 98 3c a8 b7 16 3d 8e ec 9e bd 31 7d 23 bd
       0.018637933 0.036796242 -0.07759963 -0.039914314
000260 55 73 06 be 8e 8a 21 bd fa 53 de 3d e4 d8 8f 3d
       -0.13129933 -0.039438777 0.10855861 0.070237905
000270 f8 9a 0a 3c f6 e9 2c be df 02 46 3d 5c 06 02 3b
       0.008459799 -0.16886124 0.04834258 0.0019840216
000280 86 9c 83 3d 03 30 d4 3d 91 d8 0a 3b a6 b5 9f 3c
       0.06426339 0.1036072 0.0021186213 0.019495796
000290 e2 58 d1 bd ea f5 23 be 91 c9 46 bd 3d ec 0b 3d
       -0.10222031 -0.16011778 -0.048532072 0.03416084
0002a0 b9 49 10 3e a8 93 ca 3c cc 50 0e be 6c 67 05 3e
       0.14090623 0.024728611 -0.13898009 0.13027734
0002b0 65 8b 0f 3c c7 85 9b 3d 64 28 fe bc 28 16 21 be
       0.008761262 0.075938754 -0.03102512 -0.15731108
0002c0 f5 40 88 3d cc d3 0e 3e 15 5e c2 3d 3b 9e 9d 3d
       0.066530146 0.13947982 0.09490601 0.07696196
0002d0 82 c0 28 3c dd 0b f3 bd 6e 8c f0 bd b4 51 74 bd
       0.010299804 -0.11867497 -0.11745535 -0.05964823
0002e0 a2 55 ad bc a5 0d c7 bd a4 b2 81 bd 9f bf 47 bd
       -0.021158997 -0.09719399 -0.06332901 -0.04876673
0002f0 66 51 32 bd 86 dd c9 bd df 86 9b bd 33 29 83 bc
       -0.04353466 -0.09856705 -0.07594084 -0.016010856
000300 77 5a 85 3c 15 bb 03 bb a4 52 7b bd bf e5 8e 3d
       0.016278489 -0.0020100523 -0.06135811 0.06977414
000310 44 8d 25 bd 9b 46 2f bc f6 27 a0 3c 7c c6 7e 3c
       -0.040417925 -0.010697986 0.019550305 0.015550252
000320 33 68 b2 bd 2f 0a 5f b9 a6 d4 db 3d 55 24 31 3d
       -0.08711281 -0.00021270731 0.10733919 0.04324754
000330 dd 2e ba 3c d7 28 5b 3c 5f 0c 2a bd 5e ff 60 bd
       0.022727424 0.013376436 -0.041515704 -0.054931037
000340 c2 36 2f 3d 1f 23 ce 3c 17 96 0e bd bf 48 80 3a
       0.04277683 0.025163231 -0.034811106 0.0009787305
000350 07 12 09 3d f6 26 ce bd 41 d8 6b bd 36 c3 1c be
       0.033464458 -0.10066025 -0.057579283 -0.15308842
000360 28 b1 32 bd 8f 9c 22 3d 15 c9 e4 3c 3e 0a 19 3d
       -0.04362598 0.039700087 0.027927915 0.037363283
000370 05 2b a7 3b 19 c6 20 3d 0f 20 8d bd 97 0b 08 bb
       0.005101564 0.03925142 -0.0689088 -0.0020758861
000380 c6 73 b1 3d 50 5e d6 bc 37 42 56 3d e8 fe ad 3d
       0.0866466 -0.026168019 0.05230924 0.08495885
000390 0b 68 3e 3d e9 2f 3b 3e 01 9d e5 3d cd 11 16 bd
       0.04648594 0.18279995 0.11211587 -0.03663807
0003a0 93 12 51 be c1 ab 05 be 78 48 28 b9 e6 60 1a 3c
       -0.20417242 -0.130538 -0.00016048725 0.009422516
0003b0 fc 26 f0 bd 14 88 e6 bc 27 4c 16 be 70 45 b0 3c
       -0.11726186 -0.028141059 -0.14677487 0.021517485
0003c0 d2 3e 2f be b7 44 80 3c a7 59 f0 bd 0f 91 cc bd
       -0.17113808 0.015657766 -0.1173585 -0.09988605
0003d0 f4 1c aa bc 7a 3e 53 3d 58 d1 9d 3d df e9 27 ba
       -0.020765759 0.051573254 0.07705945 -0.0006405394
0003e0 2a f9 7d 3d c7 63 11 3e a0 bd 10 3e 1a e2 40 3e
       0.0620052 0.14198218 0.14134836 0.18836251
0003f0 14 f4 63 3d 0f ae c7 bd 94 61 31 bd f1 33 01 3e
       0.055652693 -0.09749996 -0.04330595 0.1261747

convnet.c5.bias f4 [120]
000000 73 60 06 3d cb 12 dd bd 2e e3 4b 3d fe c0 31 bd
       0.032806825 -0.107946 0.049777202 -0.043396942
000010 8b 71 5c 3d 31 1e 58 3c ee d1 a8 bd 60 10 82 bd
       0.05381922 0.013190792 -0.08243166 -0.063507795
000020 78 e7 d8 bc 89 ca 9e 3c 8d c3 f5 3b 4f 95 28 3b
       -0.02647756 0.019383686 0.007500118 0.002572376
000030 dd 04 08 bd 16 9e 4a bd 72 8e 03 bd 03 c6 68 3d
       -0.033207763 -0.04946717 -0.03211827 0.056829464
000040 82 7f 93 3d 67 d1 88 3d 64 29 3c 3c c5 fb 01 3d
       0.072020546 0.06680565 0.011484478 0.031734247
000050 85 99 ce bc bf 81 07 3d 2b d9 86 3c be 86 60 bd
       -0.025219688 0.03308272 0.016460976 -0.054816
000060 12 32 b7 3d d4 ea e0 ba e8 be 21 bb f9 9b f6 bc
       0.08945097 -0.0017159828 -0.002468044 -0.03010367
000070 01 b7 3a bd 30 3e 04 bd 4f 05 92 3c 5c c8 c7 3d
       -0.045584682 -0.03228587 0.017824797 0.097550124
000080 85 26 bf bc 42 34 99 bd f1 8c 6e 3d b3 dc 5c 3d
       -0.023333797 -0.074806705 0.05823988 0.053921413
000090 2a 9d d7 bc b7 ab 30 be 7a 26 29 bd a3 1b 5f 3d
       -0.026320059 -0.17253004 -0.04129646 0.054469716
0000a0 a2 ca ce bc 2f 24 04 bd 60 ce 0f 3d 8c ac e1 3d
       -0.025243107 -0.03226107 0.035108924 0.11019239
0000b0 b9 1a 3a bd a7 db 5b 3c 42 1e ae 3d 71 c7 a1 3d
       -0.04543564 0.013419068 0.08501865 0.078993686
0000c0 aa f3 fa bc 2e ef 44 3c 41 25 13 3d a0 e6 f4 3d
       -0.030633766 0.0120199155 0.0359242 0.11958051
0000d0 83 2b 5e bd 1c ef 7c bd 74 ef de bc 9a 72 2b 3d
       -0.054240715 -0.06175147 -0.02721379 0.04185734
0000e0 f4 2c e7 bd 2c 33 27 3c a7 0a 0d 3b 60 bb 29 3d
       -0.11287871 0.010205071 0.0021521242 0.04143846
0000f0 cb 20 be bd ab f8 50 3e 83 7b 1e 3c be d2 ce 3d
       -0.092835985 0.2040736 0.009673002 0.1009879
000100 cf a3 66 3d 91 9f 03 3d 25 bd 69 bd 90 a2 97 bd
       0.056308564 0.032134596 -0.057065148 -0.07404053
000110 06 03 f0 bd 4a 50 78 bc 93 59 00 3b bc 72 6b bc
       -0.11719327 -0.015155861 0.001958464 -0.0143706165
000120 3f ca 90 3c 1f 94 51 3c 4e ad 1d bc e2 a0 10 bd
       0.017674563 0.0127916625 -0.009623839 -0.03530968
000130 9e ab 15 3e e0 cb 8c bd 20 55 dd bc 5d 9b 58 bb
       0.14616248 -0.068748236 -0.02701813 -0.0033051588
000140 be f2 6a bc 6d 02 ec bc d1 74 e4 3b 68 09 ef bc
       -0.014340101 -0.02880975 0.0069719334 -0.02917929
000150 f0 93 e8 3d 2f e7 b5 3d 9f 2f e1 bc 30 4e d0 3d
       0.11356342 0.088819854 -0.027488528 0.10171163
000160 79 0b a7 bb 4b e7 37 3d df 4a 3b bb 1d 75 89 bd
       -0.005097803 0.044898313 -0.0028578562 -0.06711791
000170 82 32 7d 3c a0 c7 e7 b9 fc 6d 28 bd e6 b4 5d bd
       0.0154539365 -0.00044208486 -0.041120514 -0.054127596
000180 ef 39 66 3c f8 58 13 3d 1a 13 28 bc 2b b8 e9 3d
       0.014051898 0.03597352 -0.01025846 0.114120804
000190 20 ab 27 bd 34 0a 6b bd cd 4b 51 3b 5a aa 0c 3e
       -0.040934682 -0.057382777 0.003193605 0.13736859
0001a0 4d c8 15 bd ab f0 c2 3d 84 ae 72 bd 41 67 3e 3d
       -0.036567975 0.0951856 -0.059248462 0.04648519
0001b0 44 f9 80 bb b4 cb 03 3e 0e bb 26 3c 17 37 11 bc
       -0.003935965 0.12870675 0.010176433 -0.008863232
0001c0 9d 06 f2 3b 04 98 ac bc 4f ea 6a bc 69 df b0 bb
       0.0073860423 -0.02106858 -0.01433809 -0.0053977263
0001d0 5b 1a 78 3c 44 e8 cc 3b fe bc 70 3c 48 52 8f 3d
       0.015143002 0.006253274 0.014693497 0.06998116

fc.f6.weight f4 [84, 120]
000000 80 1c 89 bc a7 ce 1c bd 00 c7 83 3b be a5 1b 3e
       -0.016737223 -0.038283017 0.0040215254 0.15199944
000010 2a 3f 0e 3e d2 fe 41 bd e4 02 a3 bd 52 fb 92 3d
       0.13891283 -0.047362156 -0.07959536 0.07176842
000020 ec 37 2c bb 12 93 43 bd 7c b3 13 3d 73 80 c8 bd
       -0.002627845 -0.04774768 0.03605984 -0.09790125
000030 5b c7 8b bc 02 00 02 3d 48 20 50 3d 61 b4 df 3d
       -0.017062834 0.03173829 0.050812036 0.109230764
000040 3e af 02 3e 1f c2 bf 3d 10 01 56 bb 2b dd 4c bb
       0.12762162 0.093631975 -0.0032654442 -0.0031259756
000050 3b 41 a9 bd dc bc 80 3e 17 be f9 3d fd 57 f1 bd
       -0.08264395 0.25144088 0.1219446 -0.117843606
000060 27 49 d3 bd 40 55 7d 3d a5 b3 30 be 59 2a 19 3e
       -0.10316687 0.06184888 -0.17256029 0.1495756
000070 01 06 2d 3e 27 6b 57 bd 8a 56 cc 3d 19 84 0c 3e
       0.16896822 -0.052592423 0.099774435 0.13722266
000080 b6 42 cd 3d 8f 89 9b bd 48 61 e6 bd 0c 1e 4f be
       0.1002249 -0.075945966 -0.11249024 -0.20226306
000090 f8 f2 40 3b 4c f6 8d bd c0 c2 6b 3c 8c ff 32 3e
       0.0029441696 -0.06931743 0.014389694 0.17480296
0000a0 d5 b0 33 3d c2 96 a6 bd 7b dc bf 3d d2 4f 18 3e
       0.043869812 -0.081342235 0.09368225 0.14874199
0000b0 01 4e cf 3d ca e9 a5 3c ff 07 d8 3d 40 2f 6a bd
       0.101223 0.02025308 0.105484 -0.057173967
0000c0 08 11 65 3d 09 c7 5f 3e d5 19 0e 3d 0f fc ed bd
       0.055924445 0.2185327 0.034692604 -0.11620342
0000d0 ca 91 24 bd 06 51 cd bd 23 dd 82 3b d2 f5 7a 3d
       -0.040178098 -0.100252196 0.0039936467 0.06126959
0000e0 19 68 02 3e 1d b2 97 bd 88 b4 55 3d 23 38 9c 3d
       0.12735023 -0.07407019 0.05217412 0.07627895
0000f0 76 8f ed bc 30 80 6d 3d 5b c5 00 be f1 b1 86 3c
       -0.028999072 0.057983577 -0.12575285 0.016442271
000100 f2 3c 23 3e ad 16 9f 3c 3a 06 ae 3d 61 82 bb bb
       0.15941218 0.019419992 0.084972814 -0.0057223295
000110 e3 7d 5d bd 0d 18 1c 3e 6e 1a 38 3d 24 6a 42 3e
       -0.054075133 0.1524355 0.04494708 0.18985802
000120 7f 2a 48 bb d7 79 48 bd 22 75 b8 bd 6c 8b 99 bd
       -0.0030542908 -0.04894432 -0.09006716 -0.07497296
000130 b5 92 f0 3c 1e 02 a7 be c1 cd 40 bb bb 7d 57 bd
       0.02936683 -0.32618803 -0.0029419514 -0.05261014
000140 f9 52 b7 3d 40 5e 27 bd e6 5c 10 be 54 f9 b5 bd
       0.08951373 -0.04086137 -0.14097938 -0.08885446
000150 e4 2e eb 3d dd 36 a4 3d 26 dc 50 3e ae c6 8c 3d
       0.11483553 0.08018277 0.2039648 0.06873833
000160 f9 90 75 bd 5b da d3 3d 3e 72 f8 3c 21 0c 5c bd
       -0.05995271 0.103443824 0.030327912 -0.053722505
000170 0a 1f 8d 3d 59 ac 3f 3c f5 80 36 bd 79 c6 c8 3d
       0.06890686 0.011698806 -0.044556577 0.09803481
000180 3b 7a fa 3c 39 2b 66 3d e8 ef 07 be 75 00 26 3e
       0.030575862 0.056193564 -0.1327511 0.16211112
000190 7d 84 6f bd ae 07 8c bb 14 03 99 bc 11 33 f8 3c
       -0.05847596 -0.0042733764 -0.018678226 0.030297788
0001a0 ef 4e 8a 3d 0b 53 02 3e de d2 9b bd 44 85 46 bc
       0.06753337 0.12726991 -0.07608579 -0.012116734
0001b0 7e b0 a9 bc d9 d2 15 3d 17 f2 bb 3c 08 4d 55 3d
       -0.02071404 0.036578033 0.022942586 0.052075416
0001c0 1b d7 c1 3d 9e b8 5b 3e b0 17 82 3c c3 fb c6 3d
       0.09464856 0.21457145 0.015880436 0.097159885
0001d0 2d bb e7 3c 19 d2 93 be f8 66 50 3d d0 08 7e 3e
       0.028287495 -0.2887123 0.05087945 0.24808049
0001e0 06 9a 21 bd 0f 38 c9 bc 36 a6 2e bd 95 6e c3 bd
       -0.03945353 -0.024562864 -0.04263898 -0.09542576
0001f0 fb 96 8e 3b c0 cb c7 3d e6 ff 1a 3e 20 18 ff bb
       0.0043514944 0.09755659 0.1513668 -0.0077848583
000200 40 04 60 3d 83 dc 0f bd d2 98 32 bd fa 93 54 3b
       0.054691553 -0.035122406 -0.043602772 0.0032436834
000210 57 03 42 be 31 8f 30 bd 0d 8d 62 be 30 c2 d3 3c
       -0.18946587 -0.043105308 -0.22124119 0.025849432
000220 50 d3 cb bd e7 a1 a3 bd 1e 41 d2 bc 85 25 d8 3d
       -0.09952414 -0.07989865 -0.025665816 0.10554031
000230 3a 90 0f 3c d0 7d b1 bd 19 e0 f7 3c 4b 6d 27 3c
       0.008762414 -0.08666575 0.030258225 0.010218929
000240 34 b7 d1 3d 79 34 05 3e 7a 4c 33 bb bd bf 01 3c
       0.10240021 0.13008298 -0.0027358816 0.007919249
000250 57 f2 25 3e dd 9c 33 bd 6a a8 ab 3a 48 a4 1b bd
       0.16205727 -0.04385077 0.0013096456 -0.037998468
000260 4f b2 0a 3e 88 2d dd 3d 3c 44 05 3d f8 8e eb 3c
       0.13544582 0.107997 0.032535776 0.028754696
000270 14 36 be bb 79 7a 0b be 46 bb b2 bb f8 d3 e8 bc
       -0.0058047865 -0.13620938 -0.0054544536 -0.028421387
000280 12 e9 09 3d f2 6c 9c 3d fd 17 ab 3b ee 7e 50 3d
       0.03366954 0.07637967 0.0052213655 0.0509023
000290 da 9a 24 3d fa cd a6 3d 68 d7 3a 3d 26 00 3b 3e
       0.04018674 0.08144756 0.045615584 0.18261775
0002a0 c1 cd 55 3c d9 4f 6b 3d 46 cb c0 3d 13 59 46 3c
       0.013049544 0.057449196 0.09413771 0.012106198
0002b0 5e ff b5 bd 53 7c 79 bd 5b 8d d7 bd a5 98 fa 3d
       -0.08886598 -0.06090958 -0.10525008 0.12236146
0002c0 b8 e1 95 bd ed ab 0e be b0 66 31 3d 01 2b ef bd
       -0.07318443 -0.13932772 0.04331082 -0.11678124
0002d0 6e 18 bc bc 3a b3 84 3e 23 66 65 bd b4 c2 40 3e
       -0.022960868 0.2591799 -0.05600561 0.18824273
0002e0 7a 02 a1 3d 6e 9c 2a bd bf 54 c4 bd 6a 4d 8c be
       0.078618005 -0.04165309 -0.095864765 -0.27402812
0002f0 c4 ac cf 3c 62 c4 a2 3d 68 e2 1a 3e ae 56 f0 bd
       0.025350936 0.07947613 0.1512543 -0.11735283
000300 49 fc 9d 3c f5 b5 5b 3e 35 bf 2b bd b0 7a f9 3c
       0.019285338 0.2145613 -0.041930396 0.03045401
000310 1a e7 34 3c 10 bf 55 3e f5 e6 c3 3d 96 ae 38 3d
       0.011041427 0.20873666 0.09565536 0.045088373
000320 44 4c d1 3d 94 67 d3 bc cd ac a5 bd 5e f0 86 3d
       0.10219625 -0.025806226 -0.080896 0.06588815
000330 59 4b 0b 3e fe d3 75 3d bd c3 d8 bc 3d 6a af 3d
       0.13602962 0.060016625 -0.026460523 0.08565185
000340 38 87 65 bd 1a 81 07 3e 79 ac 1d 3e 09 ea 2f 3d
       -0.056037158 0.13232842 0.15397824 0.042947803
000350 55 f1 c6 ba c8 4b 8c 3d dc fb e1 bd cb 72 85 3d
       -0.0015178124 0.068503916 -0.110343665 0.06516036
000360 c6 13 71 3e 37 8f 0a 3e 9d 90 b6 bd cf b2 fc bd
       0.23542699 0.13531195 -0.089143015 -0.123387925
000370 49 5e 14 bd de 0c 83 3d 62 01 07 3d 56 af d4 3b
       -0.03622273 0.063989386 0.032960303 0.0064906282
000380 9c 24 9b 3c 88 e9 1a 3e 5d d0 70 3d 3e b3 f7 3d
       0.018938355 0.15128148 0.05879246 0.120947346
000390 54 7f 82 bd 4d 0f 39 bc ad 0a 07 3d 7b 62 b5 bc
       -0.06371942 -0.011295152 0.032969166 -0.022141686
0003a0 d5 08 40 3d 00 2c 54 be 4c cf 17 bd ea 5f 09 3e
       0.046883423 -0.2071991 -0.037062928 0.13415495
0003b0 ab c5 e1 b9 90 9b 6e 3e a7 0b 41 bd 7b 6e 9b bc
       -0.00043062618 0.2330153 -0.047130253 -0.01897358
0003c0 1b 37 09 bd e8 b8 b5 3d f9 eb 4a bd 26 c3 c7 3c
       -0.03349982 0.08873159 -0.049541447 0.024385046
0003d0 08 8b 3f 3c 38 0e c4 3d 09 a9 fc 3d 31 1d e6 bc
       0.0116908625 0.095730245 0.123369284 -0.028090091
0003e0 63 9d c9 bd ad f4 7d 3d 6e 68 ef bd c3 40 d8 3c
       -0.09844472 0.06200092 -0.1168984 0.026398068
0003f0 65 ba b2 bb 41 7e bc 3c eb 80 eb 3c ea 1b b1 bd
       -0.005454349 0.023009421 0.028747996 -0.08647902

fc.f6.bias f4 [84]
000000 4c fc 06 3e 80 9a 2d 3e f2 42 02 3d 2b 0d b0 3b
       0.13182181 0.16953468 0.031802125 0.0053726635
000010 9c f3 d2 3a e5 81 1b 3e 0f a2 94 3a cb b8 59 bd
       0.001609433 0.1518627 0.0011339801 -0.053154748
000020 c1 db 49 3e f0 e8 52 3e 24 e2 ab bd c9 3d a7 bd
       0.19712736 0.20596671 -0.08392742 -0.081660815
000030 07 73 c9 3b 2f 0c 05 bc 5d fe 5c bd c2 af ca 3d
       0.0061477455 -0.008120581 -0.053953517 0.098968044
000040 fc 48 4b 3d a4 2b 84 3c de 01 4a 3d 12 16 f5 bd
       0.04963015 0.01613409 0.049318187 -0.119671
000050 87 df ed bc 80 16 e1 3c bc 5e 9c ba 23 a6 a8 3d
       -0.02903725 0.02747655 -0.0011930089 0.08234813
000060 ef fb 2a 3b 19 5f 8b 3d 46 5a 29 3e 61 f0 46 3d
       0.0026090106 0.06805248 0.16538343 0.048569087
000070 44 5d bb 3b 84 85 26 3e 0b 11 18 3e a7 50 11 be
       0.0057179052 0.1626187 0.14850251 -0.14190923
000080 42 ef a7 bd e2 c4 16 3e 92 b0 a2 bc 23 44 7a 3d
       -0.08199932 0.14723542 -0.019859586 0.061100136
000090 a2 75 05 be 20 a2 12 3d 1d 29 ca 3d 60 1b d8 3d
       -0.13033155 0.035799146 0.09871123 0.10552096
0000a0 48 4a 14 bb 26 0d dc bd a5 f0 12 3c 2a 8e c7 bb
       -0.0022627283 -0.10744695 0.008968507 -0.0060899453
0000b0 4b 3a 04 be 5f f8 b9 bd a1 00 70 bd 11 1c 4d bd
       -0.12912862 -0.09080576 -0.05859435 -0.050075594
0000c0 b5 b1 40 bd ff 4f a0 bd cf ec c4 3b 20 88 2e 3d
       -0.047044475 -0.07827758 0.006009675 0.042610288
0000d0 2e 54 26 3d e8 5f 95 3c 41 a6 06 3d f7 e3 8a bd
       0.040607624 0.018234208 0.032873396 -0.06781762
0000e0 e0 3f f0 bc 73 8e 21 3e e0 b9 ce bc 87 50 e4 3d
       -0.029327333 0.15776996 -0.025235116 0.11148172
0000f0 ad 27 a7 3d 8a 21 9b bc 17 af ab bd 55 9d 0e 3e
       0.081618644 -0.018936891 -0.08383005 0.13927205
000100 81 fa ae 3d 43 43 ae 3d 67 01 f0 bd 09 cf bc 3c
       0.085438736 0.08508923 -0.117190175 0.02304794
000110 e6 50 ca bd 19 86 b2 3d 22 a1 d7 bc a1 b9 90 bc
       -0.098787114 0.08716983 -0.026321951 -0.01766664
000120 85 67 95 bd 15 20 02 3e 7f 80 b2 3c 68 c2 f2 3c
       -0.072951354 0.12707551 0.021789787 0.029633716
000130 5d a3 ba 3d 2a 3f 8f 3d 8a 49 07 3d 0f bb 3c 3d
       0.0911319 0.069944695 0.033029117 0.04607683
000140 47 4e f6 3d 7d 6f 91 3d d2 e0 9f bd 8b c7 8b bc
       0.12026649 0.07101343 -0.07806553 -0.017062923

fc.f7.weight f4 [10, 84]
000000 d0 57 81 3d d2 2b 37 be d9 98 28 be 2a 1a da bd
       0.06315577 -0.1788781 -0.16464557 -0.10649522
000010 63 4d 38 3e 0c 96 f3 bd 99 3e 81 3d 14 f7 fe bc
       0.1799827 -0.118938535 0.06310768 -0.031123675
000020 ab df 4c be 83 18 1f be 45 2c b0 bc 5f 34 a4 bd
       -0.20007198 -0.15536694 -0.021505484 -0.080178015
000030 30 a3 25 3d c3 1b 1f be e4 be 92 3d 85 a0 31 3d
       0.04043883 -0.15537934 0.07165316 0.043365974
000040 d3 87 f9 3d d6 00 78 3d c0 3a 8c bd 91 11 83 be
       0.121841095 0.060547672 -0.06847143 -0.2559934
000050 a0 10 3c 3e 40 a8 8f bd 55 c5 c7 bd d0 6a af bd
       0.18365717 -0.07014513 -0.09754435 -0.08565295
000060 f2 6e aa bc 7f e9 39 bc 97 ac 60 bb b4 e3 57 bc
       -0.020804856 -0.011347174 -0.003428256 -0.013176847
000070 eb f5 3e be 4e bb 1d bd 6f 41 03 be 54 70 2e bd
       -0.18648498 -0.038508706 -0.1281793 -0.042587593
000080 0c 67 14 3e 5b 15 3d 3e ee 47 03 be ee c6 72 be
       0.14492434 0.18465178 -0.12820408 -0.23708698
000090 19 ca 9d 3b 21 e5 ed 3d 6e c9 1d 3e cb 35 bf bd
       0.0048153517 0.116159685 0.1540887 -0.09336432
0000a0 db 81 fa 3d 4a 6d 1b 3e 15 36 4e bd 25 4c 2b 3e
       0.12231799 0.15178409 -0.050344545 0.16728266
0000b0 d2 a9 b9 bd 98 62 29 be ed 6f a9 bd b6 16 62 bc
       -0.09065594 -0.16541517 -0.08273301 -0.01379936
0000c0 5b 93 7c bc 40 72 51 be d4 43 b8 3c 94 77 68 3b
       -0.015415992 -0.20453739 0.02249328 0.0035471665
0000d0 2c 5f 80 3d 18 5e 67 be 98 3d 08 be 33 bc 1f 3d
       0.062681526 -0.22594488 -0.13304746 0.03899784
0000e0 59 3a d0 bd fc cc d5 3c d1 8f 62 3d d0 93 57 3d
       -0.10167379 0.02609872 0.055312935 0.0526312
0000f0 a0 ae c8 bd 6a 9a 68 be 1b fd 19 bc fc 04 60 3e
       -0.09798932 -0.22715154 -0.009398724 0.21876901
000100 08 d3 a3 bd 5b a9 89 3d d8 88 2b 3d ba c0 1b be
       -0.079992354 0.06721755 0.04187855 -0.15210238
000110 cc e7 1a 3d e8 b7 98 3b fc 7f 28 be c8 8f 61 bd
       0.037818715 0.004660595 -0.16455072 -0.05506876
000120 e4 d3 d6 bd 57 dc 78 3d 2f 27 89 3a 8c c3 f6 3c
       -0.10489634 0.060757007 0.0010463948 0.03012254
000130 bc ef 0c be 44 22 52 be b8 9b bb bd 21 f2 6a 3d
       -0.13763326 -0.20520884 -0.0916056 0.05735982
000140 55 25 67 be be 9e ec 3c 0f 83 0b 3e ec dc 22 3d
       -0.22572835 0.028884288 0.13624214 0.03976147
000150 c5 51 8b be 58 c7 a9 3d 11 ec 32 3e 51 ed e5 bc
       -0.27210823 0.08289975 0.17472865 -0.028067263
000160 4b 69 82 3d 4d 7b bd bd b6 23 61 3d 02 26 8e be
       0.06367739 -0.092520334 0.054965697 -0.27763373
000170 b4 75 da 3d d8 74 a0 3d 17 30 80 bd b8 e4 6b bd
       0.10666981 0.07834786 -0.062591724 -0.05759117
000180 d8 0c c0 3d 38 cc 58 3e db fc 5d be 9d c5 71 3e
       0.0937745 0.21171653 -0.21678488 0.2361054
000190 d6 2d 65 3d a2 21 dd 3d 4d c0 06 bd 88 a9 42 3e
       0.055951916 0.107974306 -0.032898236 0.19009984
0001a0 74 92 2a 3e 03 f9 43 be 33 f0 fe bd 22 6e 13 be
       0.1665743 -0.19137959 -0.12448158 -0.14397481
0001b0 b3 3c 76 bc c9 7e 4c 3c e4 c7 e3 3c 2b 38 50 be
       -0.01502912 0.0124814 0.027805276 -0.20333926
0001c0 2d 1e cc bd 4a 2c e2 3d de 2d c1 3c 1f 69 e7 bd
       -0.09966693 0.11043604 0.023581441 -0.11299347
0001d0 c2 b5 43 bd e3 bc 2a 3d 90 e7 94 be b1 5e 87 3d
       -0.04778076 0.041684043 -0.29082918 0.06609858
0001e0 71 1b 48 bc 49 a6 66 3d e4 30 82 bd be 33 14 3e
       -0.012213574 0.056310926 -0.063569814 0.14472863
0001f0 2d 9f 9d bd 2e d2 00 3e c4 e2 ed bd f0 9c 7d be
       -0.07696376 0.12580177 -0.11615518 -0.24766898
000200 7c 44 8f bd d6 9b 3d 3d ec 3e a3 bd 74 01 0f be
       -0.06995484 0.046291195 -0.07970986 -0.13965398
000210 6e 51 fa bd 66 d8 88 be 63 96 fa 3d b6 06 da bc
       -0.12222563 -0.267276 0.12235715 -0.026614528
000220 3b ca a7 bd 31 4f a8 bd 54 bf d8 3d 0e 02 2a 3d
       -0.08192869 -0.082182296 0.10583368 0.041505866
000230 47 19 fc bc cd 09 dd 3d 6b 0c 8b 3d d9 4e 1f 3e
       -0.030773772 0.10792885 0.06789478 0.15557422
000240 ab e6 21 3e d7 54 f2 bd 41 dd 64 bd 48 2a bc bd
       0.15810649 -0.11832588 -0.055875067 -0.09187752
000250 4f 72 7f be 42 93 75 be fb 66 12 3e ad e2 32 be
       -0.24945949 -0.23981956 0.14297096 -0.17469282
000260 7f cc cd 3b 9c 25 26 be b4 7e 52 3d fd da 98 be
       0.0062804813 -0.16225284 0.051390365 -0.29854575
000270 9c 40 7a bd 9d f9 4f 3e 66 8f 70 be ad 8b 93 bd
       -0.061096773 0.20310064 -0.23492202 -0.072043754
000280 7d 5c bd 3d 1b 66 6f bd b3 93 5f 3c 5a 73 c3 bd
       0.09246156 -0.058446985 0.013646054 -0.09543486
000290 d5 15 0b bd d2 7d 50 be 42 97 0c be ff fd 3a be
       -0.033956368 -0.20360497 -0.13729575 -0.18260954
0002a0 de 27 5e 3c d7 fa 3a be f7 c7 a6 3d 92 52 33 3e
       0.01355931 -0.1825975 0.08143609 0.17511967
0002b0 d0 ba 85 bd de 20 23 be 76 00 69 3d b7 55 27 be
       -0.06529772 -0.15930507 0.056885205 -0.16341291
0002c0 13 5e 43 bd 18 4e e9 bb 4f 2b 34 bd 76 96 1b bb
       -0.047697138 -0.007119905 -0.043986615 -0.0023740805
0002d0 f9 76 c1 be 32 87 09 3e 66 d9 e8 bd 23 50 73 bc
       -0.3778608 0.13430479 -0.113695905 -0.014850649
0002e0 e0 95 12 be 4c 8a 44 bd 38 70 f0 3d cf 46 b6 3d
       -0.14314985 -0.047983453 0.11740154 0.089002244
0002f0 b9 9c 48 3d b0 01 50 be df 46 3a 3e 5a a4 19 bd
       0.048977587 -0.20313144 0.18191098 -0.037510253
000300 90 73 e4 bd 71 1b 82 3d 0d 99 68 be 9c ce f4 3d
       -0.11154854 0.0635289 -0.22714634 0.1195347
000310 ac b0 a0 3d 5e 20 4a be 6d 40 42 bb b9 2c 64 bd
       0.078461975 -0.1973891 -0.0029640452 -0.055706713
000320 3b d5 d3 bd e0 e4 f6 3d ca c0 ae bc f9 55 2b 3e
       -0.10343405 0.12055373 -0.021332163 0.16732015
000330 d1 00 46 bd bd 54 17 be 7b 7a be 3d 57 bb 0e be
       -0.048340622 -0.14778419 0.09300705 -0.13938652
000340 8d b0 16 be e3 e0 fb 3c 05 c1 2d 3e f9 cd fc bd
       -0.14715786 0.030746883 0.16968162 -0.12343974
000350 8b bf 0b bd 88 85 54 be 91 e0 19 3d e2 3e 32 3e
       -0.034118216 -0.20754063 0.03756768 0.174068
000360 44 75 7b 3d 71 c8 27 bd 53 36 0e 3d 49 72 19 3e
       0.06139113 -0.04096264 0.034719776 0.14985003
000370 d6 65 ad 3d 47 35 b3 bd 0d 97 3f 3d c8 20 0c be
       0.08466689 -0.08750396 0.046774913 -0.1368438
000380 86 2f ef bd eb c7 cb 3c bd 56 17 3d e6 c4 28 be
       -0.11678986 0.024875602 0.036947954 -0.16481361
000390 b4 d2 33 ba 7d 0f 53 3d 52 e1 9c bd ce 6a 22 3e
       -0.00068597053 0.051528443 -0.07660164 0.15861055
0003a0 d5 16 2c 3e ee a2 19 3d 09 4b 34 be 20 34 3f bd
       0.16805585 0.037508897 -0.17606749 -0.04668057
0003b0 db 2a 85 bd ab da 87 bd 88 41 06 bd 65 46 88 bd
       -0.06502315 -0.066335045 -0.03277734 -0.06654052
0003c0 e8 54 4d bd a0 5f 20 be 37 06 33 3e f8 d6 1a 3e
       -0.0501298 -0.15661478 0.1748284 0.15121067
0003d0 1e 75 a9 bd 62 1d f4 3d ff da 7f 3d 82 45 5b 3d
       -0.082742915 0.11919667 0.06246471 0.053533085
0003e0 78 cf 4a be 39 8a 02 be fb 23 6b bd 59 03 ca 3d
       -0.19805706 -0.1274804 -0.05740736 0.0986392
0003f0 c4 91 9a 3d 4f 7c 16 be b5 4b 26 be 59 81 99 3c
       0.07547334 -0.14695857 -0.16239817 0.018738436

fc.f7.bias f4 [10]
000000 83 44 74 3c 30 c4 21 3e da df 70 bd d3 8d f5 3a
       0.014908913 0.15797496 -0.05880723 0.0018734284
000010 ca aa 9a bd 87 e3 7e bb 72 e5 eb bd e2 c7 03 3d
       -0.07552107 -0.003889294 -0.115183726 0.032173045
000020 bd d0 6f 3c f2 b7 06 bc
       0.014637169 -0.008222567
