Lenet-5_mnist/model/1_model.pkl (torch, 250431 bytes, 10 tensors)

convnet.c1.weight f4 [6, 1, 5, 5]
000000 e8 f0 53 bd 7c be 3b be ba d0 94 bd ec 04 9e 3d
       -0.051743418 -0.18334383 -0.07266374 0.077157825
000010 de 32 45 3e e7 15 24 bd 71 fa 78 3e 4b da ac bd
       0.19257686 -0.04005995 0.24314286 -0.084400736
000020 5c 56 eb bd 17 c2 c2 3d 0f ed 1b bd c6 9e 89 3e
       -0.11491081 0.09509676 -0.038067874 0.26878947
000030 04 f6 59 bb e3 e7 56 3e 8c 3a af bd eb 55 2d 3e
       -0.003325821 0.20986895 -0.08556089 0.16927306
000040 4f 92 94 3e 97 3a 1a 3e e7 58 7b 3e f2 f9 02 3e
       0.29017875 0.15061413 0.24545632 0.12790659
000050 cd 91 b3 3d 33 59 56 3d ba d2 82 3e e3 85 3f 3e
       0.08768044 0.05233116 0.25551397 0.18703417
000060 f3 8a 94 3d 24 4c a8 bd 88 f8 42 be f2 f7 98 be
       0.07253065 -0.08217648 -0.1904012 -0.29876667
000070 e9 c3 84 be 66 24 5a be 9e 34 c5 3d f9 20 14 be
       -0.25930718 -0.21302947 0.096291766 -0.14465703
000080 ad 4e 1f 3e b3 2d 3c be f5 75 f0 bd 28 30 94 3c
       0.15557356 -0.18376808 -0.117412485 0.018089369
000090 7e 98 8d 3e 7d 63 c8 bc 03 6d 2c 3d f8 23 bd 3a
       0.27655405 -0.024461502 0.04209615 0.0014430275
0000a0 83 cf 22 bc 36 73 37 3e d6 e7 55 3e d0 e6 1d 3e
       -0.00993717 0.17915043 0.2088922 0.15420079
0000b0 2c f2 28 3e b6 f5 29 3e 75 19 3a 3d b8 ae 2e 3e
       0.16498631 0.16597638 0.045434434 0.17058837
0000c0 36 17 41 bc 3b 9e 61 3e c5 53 58 3e 6c 9a 23 be
       -0.011785319 0.22033016 0.21125706 -0.15976876
0000d0 4f c0 01 3e ad 86 21 3e 91 f1 27 3d f9 81 89 3e
       0.12671016 0.15774031 0.04100186 0.26856974
0000e0 09 46 0f be 7a f6 03 3e 76 b5 aa bd 13 f9 4a 3e
       -0.1399156 0.12886992 -0.08335392 0.19821577
0000f0 0e de 76 3d 39 56 57 38 c0 c1 36 3e a2 f7 4e 3e
       0.06027036 5.1340296e-05 0.17847347 0.20211652
000100 4d c2 39 3e c6 d6 0d 3e 2c d8 f8 3d 9d 7d e6 bd
       0.18140526 0.13851461 0.121506065 -0.112544276
000110 ab f0 82 3e 2f 3d 0c 3e 55 5c 62 3e 31 8b 29 3e
       0.2557424 0.13695215 0.22105534 0.16557004
000120 ff 6e 4a be b1 5b 39 be 25 28 77 3c e2 d8 01 3e
       -0.19768904 -0.18101384 0.015085255 0.1268039
000130 ba c7 6c 3e 9a bc e7 3d eb fb 7b 3e a7 00 8c 3e
       0.23123065 0.1131527 0.24607818 0.27344248
000140 bd 9a d6 bc 37 21 82 3e ce b7 57 3e 16 13 e5 3d
       -0.026196832 0.25415966 0.2106621 0.11185281
000150 dc 35 1e 3e b4 81 7a bd d4 3d 64 3e d7 d9 b8 bc
       0.15450233 -0.06115885 0.2228921 -0.022564812
000160 cb f2 76 bd ee 58 c7 3d 0a 45 87 bc b3 a8 5b bd
       -0.06029014 0.09733759 -0.016512413 -0.05362768
000170 e6 13 1a 3d d8 f3 e0 bd 01 e9 0e 3b 27 e8 42 bc
       0.037616633 -0.109840095 0.0021806362 -0.01189617
000180 44 d5 0a 3e 40 e0 11 be cc ae d7 3d c2 36 1a 3d
       0.13557917 -0.14245701 0.10531387 0.037649877
000190 0c 49 8b 3e 35 ce 8f 3e a5 6b 16 bd 50 da 00 3e
       0.27204168 0.2808701 -0.03672375 0.1258328
0001a0 c4 a1 63 be e5 05 09 3d 32 78 93 3d a9 6e cb 3d
       -0.22229677 0.033452887 0.0720066 0.09933216
0001b0 4b 58 48 bd 0a 27 35 be a9 18 6c 3d 02 7e 8a 3e
       -0.048912328 -0.17690673 0.057640705 0.2704926
0001c0 26 b4 9a 3d 1d db 6d be b9 a9 ed bd 52 39 3a 3d
       0.07553892 -0.23228116 -0.11604638 0.04546482
0001d0 9f 49 a7 3d 74 47 00 3e 58 55 a3 bd 51 f1 a0 bd
       0.08168339 0.12527257 -0.079752624 -0.078585275
0001e0 f4 f8 53 3e 33 6b 70 3e e2 e8 d3 bc ac 0c 77 be
       0.20700437 0.23478393 -0.025867883 -0.24125928
0001f0 7e 3b 88 bd 11 25 a5 3d 35 8e 71 3e 61 6e f3 3d
       -0.06651972 0.080637105 0.23589404 0.118862875
000200 d2 0e 28 3e 82 38 bc 3e 1a 42 65 3d 21 b2 ac 3e
       0.16411904 0.36761862 0.055971242 0.33729652
000210 08 58 7c 3e 6a 6f 84 3c c5 ba d5 bc 0b ab 33 3d
       0.24642956 0.016166408 -0.026090035 0.04386429
000220 97 da 0d be 08 1f 9b bd ed fb e5 3d 3c dd b5 3c
       -0.13852917 -0.07574278 0.11229692 0.02220022
000230 84 f9 00 3c fb ed 82 be aa 3c c8 bd d8 75 02 be
       0.007871989 -0.2557219 -0.09777196 -0.12740266
000240 ea 61 84 be 24 71 b8 be a5 b0 30 be 79 78 64 be
       -0.25855953 -0.3602382 -0.17254885 -0.22311582
000250 79 8f 93 be 5c 9f f2 3d
       -0.28820398 0.11846802

convnet.c1.bias f4 [6]
000000 70 39 23 bd d8 59 59 3b 67 54 94 bd 78 22 94 3d
       -0.0398497 0.0033165123 -0.07242661 0.07233137
000010 c6 d8 cd 3d cf 53 f2 3d
       0.10051112 0.118323915

convnet.c3.weight f4 [16, 6, 5, 5]
000000 ce ed bd bc 56 51 98 3d 61 1e 9e 3d c4 59 e3 3d
       -0.023184683 0.074373886 0.07720638 0.11101106
000010 2b fe 9e bd e2 01 4d bc 43 85 d8 3b 9c d5 e5 3d
       -0.077633224 -0.012512656 0.006607683 0.112223834
000020 30 e9 69 3d b0 63 1a bd db 6a 0c bd 4d 5e 23 3d
       0.05710715 -0.037692726 -0.034281593 0.039884854
000030 84 d7 bb 3d 19 c1 34 3d c9 1e 0a bd e6 78 52 3d
       0.09171966 0.044129465 -0.033720765 0.05138483
000040 36 2d f5 3d 29 2e b8 3d cf f3 98 bc e5 dc 9b 3d
       0.11971514 0.08993179 -0.018670944 0.07610492
000050 5e 14 8c 3d 28 cb 79 3d cb aa 60 3d 31 81 f4 bd
       0.06839822 0.06098476 0.05485038 -0.11938704
000060 a7 40 fe bd cd ba 3f 3d 7b 12 1b 3b c4 65 d4 bc
       -0.12414675 0.046809006 0.0023662138 -0.025927432
000070 49 e6 14 bc 10 57 30 be 2e 8b 3c bd 52 a7 a2 bd
       -0.009088107 -0.17220712 -0.04603117 -0.0794207
000080 c3 dd 09 be 38 91 f6 bd c8 88 37 be 93 e9 09 bd
       -0.13463502 -0.12039417 -0.17923272 -0.03367002
000090 11 f8 93 bd a7 5f 95 bd c0 25 30 be d6 f7 0b bd
       -0.07225049 -0.07293635 -0.172019 -0.0341719
0000a0 af 70 0e bd bd d6 3a be 48 fe 7c bd f1 ab 59 bd
       -0.034775432 -0.18245979 -0.06176594 -0.05314249
0000b0 b1 2a 1a 3d 51 1a d7 bd f6 4a 38 be 96 07 4a be
       0.03763837 -0.10503066 -0.17997345 -0.19729456
0000c0 77 11 10 be 54 33 ed bd 5c f7 23 bc ec 36 0c 3c
       -0.14069162 -0.11582056 -0.010007706 0.008558016
0000d0 08 24 b3 bc eb 2b b6 3d 24 73 8c 3d 3e ae 9c 3d
       -0.021867767 0.088950954 0.06857899 0.076504216
0000e0 ca 63 94 bd d7 ff 5b bd fa c8 86 3d 9c b7 51 bd
       -0.07245596 -0.053710785 0.06581302 -0.051200494
0000f0 c2 d5 07 be a9 5b 6b 3d df 78 0e 3b f7 ae d1 3d
       -0.13265136 0.05746046 0.0021739525 0.1023845
000100 c6 57 3f 3d 80 38 f1 bd 20 d2 d9 3d 38 99 d8 3d
       0.046714567 -0.11778355 0.10635781 0.10576099
000110 d8 28 19 3e 26 46 d5 3d 8d 05 8e 3c cb 88 13 3d
       0.14956987 0.104137704 0.017336631 0.036019128
000120 67 4d d3 3d 4e f7 46 3c 5c 53 b5 3d 13 6b 64 3d
       0.10317498 0.012143923 0.0885379 0.055766176
000130 96 9e 6e bb 00 46 2c 3d 7e df 07 bd 1b 7b 9d bd
       -0.0036410443 0.042058945 -0.033172123 -0.07689496
000140 60 60 d0 3d 8b 45 79 3d b5 10 f5 3d d5 8b 10 bc
       0.10174632 0.060857337 0.11966077 -0.008822401
000150 3d ea 3b bc ed 96 5e bd dd 3e 69 3d 50 1b ef 3d
       -0.011469421 -0.054343153 0.056944717 0.11675131
000160 e7 1d 6e 3d 3a e8 ec bc 31 8f 17 3d 9a 86 78 3b
       0.058133986 -0.028919328 0.037001792 0.0037922026
000170 55 56 3a 3d d1 11 fa 3c fe 94 16 3d 9e 25 32 bc
       0.04549249 0.030526074 0.036763184 -0.010873226
000180 41 05 1b 3d 9d 3f 3c 3d 43 64 71 bb 60 74 89 3d
       0.037846807 0.045959104 -0.0036833442 0.0671165
000190 f8 49 2c bd 85 e7 cc bc 7b 44 1a 3d 79 83 ea 3c
       -0.04206273 -0.02501274 0.037662964 0.028627144
0001a0 48 ef e8 3d a1 2c d1 3c 29 c3 ca bc e7 e3 d3 3d
       0.11373764 0.025533976 -0.024751263 0.10346203
0001b0 a8 c8 10 3d 28 89 4f 3c 91 9e f0 bd 74 4d 16 be
       0.03534761 0.012666978 -0.11748994 -0.14677984
0001c0 7b 17 8f 3d fe 3c a3 3d 1f 7d 4f 3d aa 0c 1a be
       0.069869004 0.07970618 0.050656434 -0.15043893
0001d0 98 38 09 be ac 84 bf 3d ca 47 18 3e 5a a0 4d 3d
       -0.13400495 0.09351477 0.14871135 0.05020175
0001e0 76 b4 dd bd 95 32 e6 bc 01 46 0f 3e 29 4d 72 3c
       -0.10825436 -0.028100291 0.13991548 0.014788904
0001f0 15 ce fd 3c cc 43 92 3d 86 df fa bb 38 e5 22 be
       0.030982057 0.071418375 -0.0076560406 -0.15907753
000200 0a e7 fb bd 92 40 96 bc 50 0a e5 3d aa fa 07 3c
       -0.122999266 -0.018341336 0.111836076 0.008299509
000210 4c 66 43 be 28 0f 7c be b9 73 8d bd 67 94 d5 3d
       -0.19081992 -0.24615157 -0.06906838 0.10428696
000220 53 d6 08 be 5b 52 e2 bd 6c 97 c1 bd 9b 9d 99 bd
       -0.13363008 -0.11050864 -0.094527096 -0.07500764
000230 9c d2 9e bd 3d 50 b6 bd b6 a0 41 be 6e f8 2e be
       -0.07755014 -0.08902023 -0.18908963 -0.17086956
000240 9a 71 ff 3b c3 89 e7 bd ee 59 3c bd 56 ef aa bd
       0.007795525 -0.11305573 -0.0459842 -0.08346431
000250 6c 54 7f 3d 96 2e 2f 3e 1f a7 81 3d 3b 48 c9 3c
       0.06233637 0.17107615 0.06330704 0.024570575
000260 82 f2 5b bd d4 53 8d bd 86 fd ac bd 80 4d 04 3d
       -0.05369807 -0.069007546 -0.08446793 0.032300472
000270 65 92 5d 3d bf e9 14 3d 2f 3a aa bc ef f0 bd 3c
       0.05409469 0.03635573 -0.020779697 0.023186175
000280 02 6b ac 3d 8f 8d ad 3d 7c 71 8f 3a d3 89 df 3d
       0.084188476 0.08474266 0.0010943855 0.1091496
000290 ee 0b a4 3d 3e 20 d6 3b 05 7a fa 3d e2 9a c2 3c
       0.08010088 0.0065346053 0.12230305 0.023755495
0002a0 22 b4 89 3d f7 1d 85 3c 22 5e 8b bd 4d 0c 57 bd
       0.06723811 0.01624964 -0.06805064 -0.052501965
0002b0 75 dd f6 bd d5 d6 f8 bd 5b 10 20 bd 8b 99 6a 3d
       -0.12053958 -0.12150351 -0.039078098 0.057275336
0002c0 fd 31 7e 3d e4 8c 46 3d 27 cf c0 bc 78 d9 c2 3c
       0.06205939 0.048474208 -0.023536278 0.023785338
0002d0 83 5b 2e 3a ad b1 14 bd 8e b5 f9 bd 10 9f 0d bd
       0.00066512096 -0.036302257 -0.12192832 -0.034575522
0002e0 78 ed f8 bc bb a1 85 3c f0 82 ee 3d 0f b0 09 3e
       -0.030386671 0.01631247 0.11646068 0.13446067
0002f0 6a 18 ef 3d f4 82 8a 3d 45 24 54 bd f3 bb 9b 3d
       0.116745785 0.067632586 -0.0517924 0.07604208
000300 d6 73 37 3e 8f b5 ba 3d 7c 0d 79 3d d4 65 cd bd
       0.17915282 0.09116661 0.060803875 -0.10029188
000310 a4 58 10 bd bf af a8 bd ac b9 2e bd 7b e7 c8 3c
       -0.035240784 -0.08236646 -0.04265754 0.024524441
000320 d5 df cf 3d 8a 56 f4 3d 16 f0 dc 3c 11 d6 55 3d
       0.101501144 0.119305685 0.02696995 0.052206103
000330 c2 0c 87 bd af 76 19 bd 68 51 ab 3d 85 83 a7 3d
       -0.0659423 -0.0374667 0.083651364 0.08179382
000340 7d 36 17 3d 18 e6 4a bc b4 0d 3c bd 3c c7 2f 3d
       0.0369172 -0.01238396 -0.045911506 0.042914614
000350 1b 0b 87 3d e4 c1 d7 bb 4d cc e6 3d 52 15 5a 3d
       0.06593915 -0.006584393 0.11269436 0.05324299
000360 cf 34 07 3d a3 57 eb 3d 5e 19 49 3d 12 df a2 3c
       0.033009347 0.11491325 0.049096458 0.019881759
000370 c5 20 66 3d 1b 80 12 3c f6 d7 cf 3d 08 fb c0 bc
       0.056183595 0.008941676 0.10148613 -0.023557201
000380 32 6a e8 39 08 85 b9 3b 97 13 a6 3d bc 79 ae bd
       0.0004432961 0.0056616105 0.08109205 -0.08519313
000390 c6 ea dc bd 58 66 92 bd 8a b2 b6 3a 52 17 f2 3d
       -0.10786967 -0.07148427 0.0013938707 0.11820854
0003a0 98 76 52 bd ae 7e 48 bd 82 a4 6e 3d e9 c7 38 3d
       -0.05138263 -0.048948936 0.058262356 0.045112524
0003b0 05 5a 3b 3d f0 03 64 ba 1d ae c5 3c bd 53 9d bc
       0.045740146 -0.00086980965 0.024130875 -0.019204969
0003c0 14 3e b9 3c c5 0e 8a 3d 11 c8 18 bd d7 0e b1 3c
       0.022612609 0.06741098 -0.037300173 0.021613522
0003d0 76 0d e0 bc 16 a9 a1 3d bb 17 e6 3c 46 10 68 3c
       -0.027350169 0.07893579 0.028087487 0.014164036
0003e0 06 98 b7 3d 2c 65 70 3d 58 2f 15 3e 7e ee 48 3d
       0.08964543 0.058690235 0.14568841 0.04905557
0003f0 e7 d7 93 bd a7 ad fb bc e7 2d 67 bd 87 1f 04 3e
       -0.072189145 -0.030722452 -0.05644026 0.12902652

convnet.c3.bias f4 [16]
000000 69 42 de bc 3e 9a b5 bd 5d 2a 14 3d 8c 65 8c 3d
       -0.027131276 -0.0886731 0.036173213 0.06855306
000010 0d f7 6c bd 46 93 02 3d 54 1e 91 3d c6 38 d1 b9
       -0.057852793 0.031878732 0.07085863 -0.00039905886
000020 4f a4 43 bd 15 dd 24 3c f6 73 cd ba 57 eb 45 3d
       -0.04776412 0.010062476 -0.0015674818 0.04832014
000030 75 1f 1b 3d f8 68 e6 3d c4 0e 29 3c 48 c2 3c bc
       0.037871797 0.1125049 0.010318462 -0.01152093

convnet.c5.weight f4 [120, 16, 5, 5]
000000 1e 27 9f 3c 4a de f3 3c 28 f1 b5 bc f6 cc 76 3d
       0.019427832 0.029769082 -0.022209719 0.06025406
000010 6e ee 2e 3d 94 ad 63 bd 33 c9 93 bd da 30 e6 bc
       0.042707853 -0.05558546 -0.0721611 -0.028099466
000020 99 0b 7c bb 09 71 59 3d 71 75 95 bd 59 3d 76 bc
       -0.0038459061 0.053086314 -0.07297791 -0.015029275
000030 36 77 1c 3d fd 45 18 3c ff 7d 88 bd 85 ca 28 bd
       0.038199626 0.00929403 -0.06664657 -0.041208763
000040 65 10 b1 3c c5 7f 1f 3d a3 50 0b 3c 4d 52 33 bd
       0.021614263 0.03894021 0.008503112 -0.04377966
000050 bf ad ac 3d 5e 3b 61 3c b5 01 5a bd 52 94 6f bd
       0.08431577 0.013747064 -0.053224284 -0.05849106
000060 b0 a6 03 bd f5 22 56 3c 46 a7 5b 3d e3 ef e1 3c
       -0.032141387 0.013069858 0.05362632 0.027580207
000070 a1 14 d6 bc 14 9b 69 3d cc 6b 2f bd 98 69 af 3c
       -0.026132884 0.05703266 -0.042827412 0.021412656
000080 3b b6 6c bb 0b df a9 3a 36 6f 1d 3d e7 3d 37 bd
       -0.003611936 0.0012960149 0.038436137 -0.04473677
000090 74 61 d6 b9 47 37 42 bd d4 24 5c 3d 9f ba 11 bc
       -0.0004088987 -0.047415998 0.05374606 -0.008894592
0000a0 cc a3 98 bc 4d e7 d9 bc ca 9c c2 3b 29 26 46 3d
       -0.018632792 -0.02659955 0.005939101 0.048376236
0000b0 82 6b 38 3c 4a 0d b7 3c 1f d9 b3 3d 48 ef b2 3c
       0.011256101 0.022345204 0.08781647 0.021842614
0000c0 e6 e2 95 3d 5f c5 0d bd 1c de 3b 3c 80 63 d3 3c
       0.07318668 -0.034612056 0.011466529 0.025804281
0000d0 69 87 86 3d 5c 09 74 3d 2c 46 1e bd 85 98 46 bc
       0.06568796 0.05957924 -0.03864114 -0.012121324
0000e0 40 6d 46 3c 04 6b 13 3d 50 d2 64 bc 37 1c 60 bd
       0.012111008 0.03599073 -0.013966158 -0.054714408
0000f0 6a e8 1a bc 49 bb 87 3c 58 d6 67 bc fc 6a 51 3c
       -0.009454826 0.016568797 -0.014150225 0.012781855
000100 71 4f 2a bd b6 52 14 3c 9b ed 34 3d ed 90 cb 3c
       -0.041579667 0.009052923 0.04417191 0.02484938
000110 54 40 2f bd ec 0f 53 bc ff 37 28 3c 2f 83 4d 3d
       -0.042785957 -0.012882214 0.010267257 0.050173935
000120 75 61 0c bd a6 c3 82 3b 3b 40 e8 bb 9a 1d 37 3d
       -0.03427263 0.0039906083 -0.007087735 0.044705965
000130 75 4a 2a 3d cf af 14 3d b9 4d 7b bd 12 4d 31 bd
       0.041574914 0.036300477 -0.06135342 -0.04328639
000140 49 23 95 3c bb 55 fb 3c ca 5b f4 bc 0d 8e 74 bd
       0.018205302 0.030680528 -0.029828925 -0.059705783
000150 95 35 a1 bd b9 64 90 3d 62 4c 02 3d c4 25 8d 3c
       -0.07871548 0.07050461 0.031811126 0.017229922
000160 4a 34 9e 3c 11 bd 80 3c ce 31 2c 3c e2 dc e2 bb
       0.019312043 0.015715154 0.010509921 -0.006923304
000170 f0 68 e4 bd be 29 be 3b 84 85 46 3d 1d be a4 3c
       -0.11152828 0.005803316 0.048467174 0.020110184
000180 6a 07 9d bd de 6f 15 3d ed 57 0f 3e 38 fe 08 3d
       -0.0766743 0.036483638 0.13998385 0.033445567
000190 16 33 af 3c f0 e2 f6 3b 3b 44 fd 3c 49 dd 01 3d
       0.021386664 0.0075343773 0.030916324 0.031705175
0001a0 b6 e7 8c bc e6 43 17 bd f9 d2 dc 3c df 10 56 bd
       -0.017200332 -0.036929987 0.026956068 -0.052262183
0001b0 b4 db 41 bc 62 bc c5 3c 32 96 ac 3c 20 2d 48 bd
       -0.011832166 0.02413768 0.021067712 -0.04887116
0001c0 82 7b 48 bd 47 01 a4 bc 78 6f 1c bd c0 ec 11 ba
       -0.04894591 -0.02002014 -0.038192242 -0.00055665895
0001d0 df fe 9d 3c f6 59 65 3d 33 a7 17 3d 68 fa 9a 3b
       0.019286571 0.055993997 0.037024688 0.004729558
0001e0 06 a7 82 bc 91 0c 38 3d b0 c1 85 bb a8 ba 2e 3c
       -0.015948784 0.04493386 -0.0040819272 0.0106646195
0001f0 20 ae 49 bb b5 ce b3 3d da 9c d5 3c ce 71 e9 3c
       -0.0030773953 0.087796606 0.02607577 0.02849665
000200 af 9b 41 3d 80 fd 68 bd 93 01 87 3d bd 39 14 3d
       0.047267612 -0.05688238 0.06592097 0.036187876
000210 37 0a 07 bc 4c d0 24 bd 4c 89 93 bd 13 8a 3a 3d
       -0.0082421815 -0.04023771 -0.07203922 0.045541834
000220 e2 0a f9 3c 74 9b 54 bd c5 ad 27 bd 34 da 60 3d
       0.030400697 -0.051906064 -0.040937204 0.054895595
000230 ae df 15 3d 4d 87 43 bd b1 47 57 bc ed 7e b9 3d
       0.03659027 -0.047736455 -0.013139651 0.09057412
000240 22 27 ca bc e0 40 08 bd aa 37 6a 3d 17 34 d0 bc
       -0.024676863 -0.033264995 0.05718199 -0.025415463
000250 cf 77 78 bb f2 24 2a 3d 80 39 c8 bb bb 5b 8b 3c
       -0.0037913208 0.04153914 -0.00611037 0.017011514
000260 4b df 82 bd 32 49 ed bc 2a 8b 84 3d 70 8c 6b 3d
       -0.06390246 -0.028965566 0.06471856 0.05750698
000270 55 82 42 bd d5 20 8c bd 68 14 c4 3c 49 49 25 bd
       -0.047487576 -0.068422 0.023935512 -0.040353093
000280 91 45 68 3d e5 32 49 3d 68 51 6b bd f3 10 db 3b
       0.05670697 0.049120802 -0.057450682 0.00668537
000290 6a a1 5b bd a0 0b 87 bd cb 3c 08 bd 88 f2 8b bd
       -0.053620733 -0.06594014 -0.0332611 -0.068333685
0002a0 1e 93 86 3d f7 5e 58 3d 6f 93 aa bd ac 38 cf bb
       0.06571029 0.05282494 -0.08328902 -0.0063238945
0002b0 7b 5c 0e 3d 42 ca d2 3d 2f 42 19 3d 91 3b 20 bc
       0.034756165 0.10292484 0.037416633 -0.009779827
0002c0 b8 a0 1c 3d ff a4 bd 3d 12 23 6c 3c ab 30 28 bd
       0.03823921 0.09259986 0.014412658 -0.04106204
0002d0 e8 02 ed 3c a0 58 06 bd 35 78 82 bd 0f 3f 4b bc
       0.02893205 -0.032799363 -0.06370584 -0.012405171
0002e0 34 16 0b bd 1d e9 c2 bc f5 7d 91 bd 16 66 bf 3c
       -0.03395672 -0.023792798 -0.071041025 0.023364108
0002f0 6b 46 b9 3c f6 9e 23 3c 85 dd 46 bc 0b 7e c2 bb
       0.022616586 0.00998663 -0.012137775 -0.0059354356
000300 c7 d7 08 3d c2 7b e0 3b 56 44 8b bc c7 9a 80 3d
       0.033408906 0.0068506906 -0.017000359 0.062795214
000310 b0 a2 f3 bb 6f 9b 58 3d c1 6e 6f 3d d2 22 b8 bc
       -0.0074351653 0.052882608 0.058455233 -0.022477541
000320 1f 9f ad bb f5 02 2d 3d e8 37 63 3d 83 3b bb 3c
       -0.0052985097 0.04223915 0.05547324 0.022855526
000330 89 9b 60 3d 08 14 9b 3b 00 51 f7 3b e2 c5 1c 3c
       0.05483583 0.0047326125 0.0075474977 0.009568663
000340 6c 16 2a 3c f4 7f 34 3d af 79 cd bc 0b fc 95 3c
       0.010381322 0.044067338 -0.025082437 0.01830866
000350 92 52 55 3d 53 77 2d 3c dc e3 d9 3a 5a bd 1c bd
       0.0520807 0.010587531 0.0016623694 -0.038266517
000360 92 25 8a 3c 92 ae 90 bc 8d 4a 1c 3d d0 1e a9 3c
       0.016863618 -0.017661367 0.038157035 0.020644575
000370 7c 12 4f bc 7a 72 75 3d f7 56 90 bb da e3 e5 3b
       -0.012638684 0.059923626 -0.0044048983 0.0070156874
000380 ef 4b 76 bc 8a 48 ab 3d 02 92 85 3d e7 65 9c 3d
       -0.015032752 0.08363445 0.065219894 0.07636624
000390 37 b9 03 bd 31 2c a1 bc 58 45 3f 3d b0 e9 3a 3d
       -0.032159057 -0.019674392 0.04669699 0.045633018
0003a0 02 14 80 bd eb ac 90 bd 33 55 b8 bc cc bf d3 bc
       -0.06253816 -0.070642315 -0.022501564 -0.025848292
0003b0 81 07 f8 bb 66 5e 5b 3c a8 dc 8c bb bb d6 4b 3d
       -0.007569254 0.013389206 -0.004298765 0.04976533
0003c0 15 1d 76 bd 60 6c 41 3c a1 1a 74 bd e0 06 55 bd
       -0.06008633 0.011805624 -0.059595708 -0.05200851
0003d0 7c ef b9 3a 38 a3 65 3c eb ee 9a bc 83 c0 f7 bc
       0.0014185752 0.014015965 -0.018912753 -0.030243164
0003e0 ff 3a 11 3c 27 65 85 3d 23 2c 86 3d 0b 5f 9c 3d
       0.008864163 0.06513434 0.06551387 0.076353155
0003f0 bc 82 a8 3b 74 97 af bd d8 b9 9a bc 6b e2 33 3d
       0.005142538 -0.08573809 -0.018887445 0.0439171

convnet.c5.bias f4 [120]
000000 c8 0c 20 bd 3c e1 31 bc 3d 03 a2 bc 3d dc 16 bd
       -0.03907469 -0.010856923 -0.019776935 -0.03683113
000010 1e da f2 3c a3 27 13 3d 00 6c e4 bc eb d2 5e 3b
       0.029645022 0.035926472 -0.02788353 0.0034000229
000020 78 e7 d8 bc 05 fb 0a 3c ec a9 1b bd d2 de 97 3c
       -0.02647756 0.008482699 -0.038003847 0.018538866
000030 b3 1c 16 3d 16 9e 4a bd 42 6e 5b 3c b4 a0 94 3d
       0.036648463 -0.04946717 0.013392987 0.07257214
000040 be 18 ac 3c 9f a7 05 3d 74 9e 04 3d f3 bf a6 bc
       0.021007892 0.03263056 0.032377675 -0.0203552
000050 85 99 ce bc f1 e8 24 bc 6c 2b 1d bd 86 28 db ba
       -0.025219688 -0.010065303 -0.03837149 -0.0016720451
000060 c6 35 b3 3d 5c ea cd 3c d6 4c e5 3c cc a7 84 bc
       0.08750491 0.025136165 0.02799074 -0.016193293
000070 6d f0 ca bc 99 c5 69 3c 8c a0 6f bd e9 79 b6 3b
       -0.024772847 0.014268302 -0.05850272 0.005568732
000080 4e e5 29 bc 03 07 a1 3c 75 e7 89 3d 99 fb 44 3d
       -0.010369612 0.019656664 0.067336 0.048091505
000090 2a 9d d7 bc 25 62 66 bd 7a 26 29 bd 5d a6 28 3d
       -0.026320059 -0.05624594 -0.04129646 0.04117428
0000a0 a2 ca ce bc 2f 24 04 bd f3 01 97 3c e6 f7 32 3d
       -0.025243107 -0.03226107 0.018433547 0.043693446
0000b0 b9 1a 3a bd 1d 66 29 bd 0a a8 36 3d e0 4f a4 3d
       -0.04543564 -0.04135715 0.04459385 0.080230474
0000c0 a5 8c 9c 3c b7 11 f1 bc 62 09 c5 bc 9f 5b b5 3d
       0.019110033 -0.029427392 -0.024052326 0.08855366
0000d0 67 a1 ac ba 47 5b e6 bc ac 17 2a 3c ab d2 04 bd
       -0.001317066 -0.028119696 0.01038162 -0.03242747
0000e0 64 44 6b bd 13 0b 44 3c a7 0a 0d 3b 89 1e 4a 3d
       -0.05743827 0.011965531 0.0021521242 0.049345527
0000f0 6e 8f 29 bd a3 e5 8c 3d 51 d6 fc 3c b0 7b 7c 3d
       -0.04139655 0.06879737 0.030863913 0.061641395
000100 61 3a ab 3c 91 9f 03 3d 18 36 ce bc 28 ea 21 bd
       0.02090186 0.032134596 -0.025172278 -0.03952995
000110 3d 65 1f bd 88 4d ad ba 9b 72 96 bc 5d 86 01 bc
       -0.038914908 -0.0013221959 -0.018365195 -0.00790557
000120 de 3e 50 3c b3 4c 13 3d 76 b6 92 bc 45 13 1c 3d
       0.012710301 0.035961818 -0.01790927 0.038104314
000130 26 bf a7 3d 04 97 34 bd 20 55 dd bc cb 7d 58 bb
       0.081907555 -0.044089332 -0.02701813 -0.0033033963
000140 e3 a1 76 bb 6d 02 ec bc 96 a9 92 3c 79 09 35 bb
       -0.0037633113 -0.02880975 0.01790313 -0.0027624054
000150 18 3c 8c 3d 11 68 fc 3c ae 80 86 bd f3 26 64 3d
       0.068473995 0.030811341 -0.065675125 0.055701207
000160 fd ee 23 3d 82 7e c9 3c 79 90 18 3d 9e cb 76 bc
       0.04002284 0.024596456 0.037247155 -0.015063195
000170 82 32 7d 3c 9f c7 e7 b9 1d b9 3f 3d e6 b4 5d bd
       0.0154539365 -0.00044208483 0.046807397 -0.054127596
000180 1d 4e 24 3d ca 88 b1 bc 67 f7 b9 3b e5 7b 5b bb
       0.040113557 -0.021671671 0.0056752446 -0.0033490595
000190 86 ea 47 bc 34 0a 6b bd 5f 02 08 3c ca 88 4b 3d
       -0.012201911 -0.057382777 0.008301347 0.049691
0001a0 4d c8 15 bd 83 fe 6f 3d 84 ae 72 bd 65 36 76 3a
       -0.036567975 0.05859233 -0.059248462 0.00093922607
0001b0 44 f9 80 bb 83 42 92 3d 0e bb 26 3c 17 37 11 bc
       -0.003935965 0.07141592 0.010176433 -0.008863232
0001c0 62 e9 8c bc b7 fb 05 3b 3c 41 22 b8 c7 96 2f bc
       -0.01720113 0.0020444223 -3.8684564e-05 -0.0107171
0001d0 10 e1 bf bb a2 17 b8 3a fe bc 70 3c 26 d2 ae bb
       -0.005855687 0.0014045129 0.014693497 -0.0053351102

fc.f6.weight f4 [84, 120]
000000 b6 78 49 bd d5 15 a7 bc ff 0b 60 bb 39 32 c3 3d
       -0.049187385 -0.020396153 -0.0034186838 0.095310636
000010 fb 6e fd 3d fc 8d 21 3c f2 93 72 bd d1 70 dc 3c
       0.123746835 0.009860512 -0.059223123 0.026909264
000020 ec 37 2c bb 42 e2 98 bd 6a 15 d5 ba c6 66 13 be
       -0.002627845 -0.0746503 -0.0016256992 -0.14394674
000030 5e f2 17 bd 02 00 02 3d b8 68 02 3d 32 85 b9 3d
       -0.037096374 0.03173829 0.03183815 0.09058608
000040 8a 21 de 3d 51 6a cb ba ae 54 f6 bc 65 4c 38 3c
       0.10846241 -0.0015519356 -0.030069675 0.011248683
000050 3b 41 a9 bd 39 9e 10 3e 5f a1 cf 3d 81 e3 bf bd
       -0.08264395 0.14122857 0.10138201 -0.09369565
000060 d1 eb f5 bd 7b 94 8f 3d 51 53 3e bd 0e 9c e9 3d
       -0.12007869 0.07010742 -0.046466175 0.11406718
000070 d7 a4 03 3e d6 43 a5 bd b5 7c 7c 3d b3 27 c5 3d
       0.1285585 -0.08069579 0.061642367 0.09626713
000080 25 1d ce 3d c2 e9 00 be bb d3 09 bd df c2 e8 bd
       0.10064153 -0.12589172 -0.033649188 -0.11365294
000090 f8 f2 40 3b 92 5a a2 bd c0 c2 6b 3c 93 7c e7 3d
       0.0029441696 -0.07927431 0.014389694 0.113030575
0000a0 d5 b0 33 3d c2 96 a6 bd 84 bd 7b 3d 44 6e ee 3d
       0.043869812 -0.081342235 0.061460033 0.11642125
0000b0 01 4e cf 3d 4e 37 60 3c f2 99 95 3d ce 11 a0 bc
       0.101223 0.013685061 0.07304753 -0.01953974
0000c0 47 33 f6 3c ef 7d 52 3d 57 5a e5 bb 32 6c b2 bd
       0.030053748 0.05138963 -0.0069992947 -0.08712043
0000d0 2e c0 a6 bd 2e e2 5a bd 92 4c 3e 3c a4 3d 90 3d
       -0.08142124 -0.053438358 0.0116149355 0.07043007
0000e0 c3 9e bd 3d 0d b0 28 3c 88 b4 55 3d 17 b3 a9 3d
       0.09258797 0.01029588 0.05217412 0.08286112
0000f0 79 e0 8a bd 0d fe 8b 3d 4c 4f f6 bd c2 ca 90 bb
       -0.06781096 0.06835566 -0.120268434 -0.004418702
000100 ab 55 eb 3d ad 16 9f 3c d7 81 18 3c 2d 60 57 3d
       0.11490949 0.019419992 0.0093083 0.052581955
000110 45 d9 c9 3b 4a 7d e7 3d 6e c2 d1 bb e5 f6 d2 3d
       0.0061599337 0.11303194 -0.0064013517 0.10300998
000120 68 17 e2 3b c1 28 19 bc 55 e2 49 bd f8 0e 69 3c
       0.006899763 -0.009348095 -0.049288113 0.01422476
000130 dd 4a 04 3d f0 df d1 bd c1 cd 40 bb e4 7c 57 bd
       0.032297958 -0.10247791 -0.0029419514 -0.05260934
000140 c4 d1 ab 3d 40 5e 27 bd 2a 39 2f 3d 55 fc 1e 3d
       0.08389619 -0.04086137 0.042779125 0.03881486
000150 4c 67 84 3d 24 65 89 3d 6c bf 1b 3d b8 20 8a 3d
       0.06465015 0.06708744 0.03802435 0.06744522
000160 5c e4 8d bd a2 e1 27 3d af 01 fa bc 38 f9 7d bd
       -0.06928322 0.040986665 -0.03051838 -0.06200525
000170 0a 1f 8d 3d 59 ac 3f 3c d6 af a3 bd 79 c6 c8 3d
       0.06890686 0.011698806 -0.079925224 0.09803481
000180 4d 02 44 bd e6 f3 c2 3b 1e d7 a5 bd c5 f6 2f 3d
       -0.047853757 0.005949485 -0.08097671 0.042959947
000190 28 31 d1 bc ae 07 8c bb 48 82 97 bc 3f 30 cb 3b
       -0.025536135 -0.0042733764 -0.01849474 0.0062008197
0001a0 ef 4e 8a 3d 66 0c 50 3d de d2 9b bd b7 ef 17 bc
       0.06753337 0.050793074 -0.07608579 -0.009273461
0001b0 7e b0 a9 bc 06 8a 9d 3c 17 f2 bb 3c 08 4d 55 3d
       -0.02071404 0.019230854 0.022942586 0.052075416
0001c0 9b 7a 00 3d a4 64 9c 3d 79 4d 65 bd f7 74 97 3d
       0.031366926 0.07636383 -0.055982087 0.07395356
0001d0 54 eb db 3d 88 e1 06 be f8 66 50 3d fa be 04 3e
       0.10738245 -0.13171971 0.05087945 0.12963477
0001e0 78 42 1f bd c9 3e 03 bd 5c ae 8c bd fe 47 dd bd
       -0.03888175 -0.0320423 -0.06869194 -0.10804747
0001f0 7c 09 8d bc 97 61 dd 3d 2a 87 ef 3d d3 99 de bc
       -0.017216437 0.108096294 0.116957024 -0.027172958
000200 40 04 60 3d 48 52 a2 bb 4e 58 89 3c 80 16 1e bd
       0.054691553 -0.0049536563 0.01676574 -0.038595676
000210 56 ea 9f bd 31 8f 30 bd 8f 42 05 be 98 83 5c 3d
       -0.07808368 -0.043105308 -0.13013671 0.053836435
000220 8a e1 c5 bd 7d 2f 96 3d a0 78 ae bc c3 bf a7 3d
       -0.09662159 0.073332764 -0.021297753 0.081908725
000230 3a 90 0f 3c b7 7c a5 bd 02 01 65 bc 08 0e ff 3c
       0.008762414 -0.08080428 -0.013977291 0.03113462
000240 89 09 9a 3d a1 f3 da 3d aa e5 63 3b 7b 03 83 bc
       0.0752135 0.10691 0.0034774342 -0.01599287
000250 31 ca f6 3d 17 98 84 bc ea 78 13 3a 9c cd a0 bc
       0.12050284 -0.016185803 0.00056256226 -0.019629292
000260 3b ad d2 3d 82 0d b8 3d 24 cf 1a 3d 11 31 b2 bc
       0.10286947 0.089869514 0.0377952 -0.021751912
000270 14 36 be bb d6 00 66 bd 46 bb b2 bb 4b 9a 59 3d
       -0.0058047865 -0.05615314 -0.0054544536 0.05312566
000280 12 e9 09 3d f2 6c 9c 3d 9e 55 58 3d 05 4d 89 3c
       0.03366954 0.07637967 0.052816026 0.016760359
000290 da 9a 24 3d d1 43 ac 3d 94 ae 84 bb fe f1 06 3e
       0.04018674 0.084113725 -0.0040491316 0.1317825
0002a0 72 03 cc 3c 80 22 1c 3d 12 e8 98 3d ae 11 ba bc
       0.024903987 0.03811884 0.07466139 -0.022713508
0002b0 ba 40 64 3d 68 9d 4b bd cd e5 1d bd 9a 40 91 3d
       0.05572579 -0.04971066 -0.038549233 0.070924
0002c0 19 07 7b bc 88 15 c1 bb b0 66 31 3d 1b d6 ab bd
       -0.015321516 -0.0058924593 0.04331082 -0.08390447
0002d0 22 32 b3 3d 4d 34 ff 3d 7a 92 d5 bc 3c 72 03 3e
       0.087497965 0.124611475 -0.026070822 0.12836546
0002e0 78 e7 a1 3d 6e 9c 2a bd 72 76 7e bd 6b bd e5 bd
       0.07905477 -0.04165309 -0.062124677 -0.11217769
0002f0 08 1b 81 bd 1f a9 a8 3d de e0 b1 3d 6d 66 9a bd
       -0.06303984 0.08235382 0.08685468 -0.075390674
000300 58 84 bb ba b2 09 f2 3d 00 28 ac bd b8 06 01 bd
       -0.0014306409 0.118182555 -0.08406067 -0.031500548
000310 63 ab 0d bc 08 6e a4 3d f5 e6 c3 3d 96 ae 38 3d
       -0.008646819 0.08028799 0.09565536 0.045088373
000320 81 3c ef 3d 94 67 d3 bc 4b aa 9e bd 79 58 ad 3c
       0.11681462 -0.025806226 -0.077473246 0.021160351
000330 26 5e 54 3d 76 d9 15 3d 16 a6 f5 bb 44 09 c1 3c
       0.0518476 0.03658434 -0.0074966056 0.023563989
000340 b7 39 7c 3c 6f 29 68 3d 91 05 b8 3d a0 f4 ed 3c
       0.01539462 0.05668014 0.08985437 0.02904731
000350 55 f1 c6 ba c8 4b 8c 3d c7 11 1e bd cb 72 85 3d
       -0.0015178124 0.068503916 -0.038591173 0.06516036
000360 34 f0 f3 3d 8d 29 f1 3d 57 2f 81 bd 6d 8a 93 bd
       0.119110495 0.11775503 -0.063078575 -0.07204137
000370 c9 c2 9d bd de 0c 83 3d 02 c5 06 3d 10 1d 22 bd
       -0.07703168 0.063989386 0.032902725 -0.039578497
000380 9c 24 9b 3c bf 24 b0 3d 5d d0 70 3d e3 28 b2 3d
       0.018938355 0.08600759 0.05879246 0.08699205
000390 54 7f 82 bd 09 42 69 3c ad 0a 07 3d 7b 62 b5 bc
       -0.06371942 0.014236935 0.032969166 -0.022141686
0003a0 f9 12 23 bb 26 f7 b0 bd db 18 cd 3a 06 6d e3 3d
       -0.0024883135 -0.0864089 0.0015647666 0.11104779
0003b0 42 6d 67 3d 0e a2 9e 3d a7 0b 41 bd 56 b7 aa bc
       0.05650068 0.07745753 -0.047130253 -0.020839375
0003c0 22 50 3e 3b 3f 8f a7 3d 89 ad 49 bd e9 3d 65 3d
       0.0029039462 0.08181619 -0.04923776 0.055967245
0003d0 36 e9 90 3c 2c 5f b6 3d a2 3a e7 3c b1 3e dc bc
       0.017689329 0.08904871 0.0282262 -0.026885362
0003e0 63 9d c9 bd fb 36 58 3d 73 40 c8 bd 27 97 4b 3d
       -0.09844472 0.05278681 -0.09777918 0.049704697
0003f0 de 4f db bd 41 7e bc 3c 47 1a b0 bc 50 3a 51 bd
       -0.10708593 0.023009421 -0.021496905 -0.051081

fc.f6.bias f4 [84]
000000 59 82 1a 3d b7 97 d3 3d 6d 58 51 3d f3 10 25 bd
       0.037721965 0.10331672 0.05110972 -0.040299367
000010 30 48 03 3b 1d 7f b7 3d 14 12 0b 3b 0f a8 99 bc
       0.002003204 0.08959792 0.0021220492 -0.018756894
000020 d9 d0 05 3e 05 16 7e 3d 60 38 63 bd 4c 9a a6 bd
       0.1306795 0.06203272 -0.055473685 -0.081348985
000030 69 07 d5 bc 57 6f f5 3c 02 7d 83 bd 4a e8 04 3e
       -0.02600451 0.029960318 -0.06420328 0.12979236
000040 b9 23 49 bd d1 14 83 3c f6 0f a3 3d 0e 8a 76 bd
       -0.049106333 0.016001137 0.07962029 -0.060190253
000050 54 bb 7c 3a 78 9a 80 3c 0e 86 a5 3c 73 98 b8 3d
       0.0009640951 0.015698656 0.020205524 0.090134524
000060 8e 23 72 3b df 72 b9 3c ad b6 b9 3d 56 03 de 3c
       0.0036947462 0.022637783 0.09068046 0.0271012
000070 7c c8 2a 3d 99 8d 90 3d ac d3 a9 3d 6e 11 c9 bd
       0.041695103 0.070582576 0.08292326 -0.098177776
000080 d6 4f ab bd 11 5a 7b 3d 4b 05 0e bd 00 42 63 3d
       -0.08364837 0.06136519 -0.034673017 0.055482864
000090 c6 83 2e bd ec 54 76 3d 52 a6 63 3c c8 8b f6 3d
       -0.042606138 0.06013958 0.013894634 0.1203838
0000a0 e1 3c 52 3d a5 d5 0d bd 88 48 90 bc a4 e4 e8 3c
       0.05132759 -0.034627575 -0.01761271 0.028429337
0000b0 78 77 b9 bd db 91 6f bd 77 fd 5d bd b7 06 eb 3c
       -0.0905599 -0.058488708 -0.0541968 0.028689725
0000c0 48 05 2e 3c 35 c9 d6 bd f8 8e 22 3d 4b 25 d6 3c
       0.010621376 -0.10487596 0.039687127 0.02614083
0000d0 8f 28 09 3d a3 1c 8c 3c bf 5c bb 3d 09 9a 65 3c
       0.033485945 0.017103499 0.09148549 0.014013776
0000e0 e9 68 fb 39 a4 41 ce 3d f2 60 b3 3c c2 89 2a 3d
       0.00047952615 0.10071114 0.021896813 0.041635282
0000f0 dc ee d7 3d ce 34 a7 3c b8 e8 95 bd 22 ff 84 3d
       0.10543606 0.020410921 -0.07319778 0.06493975
000100 f1 63 1a 3d 89 96 ba 3d c4 2a 08 bd e2 9a 40 3d
       0.037692968 0.091107436 -0.03324391 0.047022708
000110 dc e9 24 bd d5 e7 f9 3c b5 29 55 bd 2e d0 8a bd
       -0.04026209 0.030506054 -0.052041728 -0.067779884
000120 e0 4e 38 bd cc 25 f8 3d aa 68 ee 3c f4 fe ce bc
       -0.044997096 0.12116584 0.029102642 -0.025268055
000130 45 a8 34 3d e0 86 37 3d f8 ed 3f 3c c4 92 37 bc
       0.044105787 0.04480636 0.011714451 -0.011204425
000140 94 2b 07 3e b6 f4 24 3d bf 2a 51 bd 42 b9 91 bd
       0.13200217 0.040272437 -0.051066156 -0.07115413

fc.f7.weight f4 [10, 84]
000000 df 8c e0 3c 0d 04 fc bd 3e 42 97 bd 93 df 46 bd
       0.027410923 -0.1230546 -0.073856816 -0.04855306
000010 e9 66 f3 3d e3 8b 61 bd 06 b6 80 3d 7f 64 6d bc
       0.11884863 -0.055065047 0.06284718 -0.014489292
000020 29 c8 bd bd 43 8f 72 bd 68 c9 af bc 43 90 a2 bd
       -0.09266693 -0.059218656 -0.021458343 -0.07937672
000030 2a 9d aa 3c ed e0 f1 bd 2e e8 9f 3d 32 da 1b 3d
       0.020826895 -0.11810479 0.07807957 0.038049884
000040 03 fc 96 3d 94 64 9c 3d 48 f9 41 bd 4d 17 06 be
       0.07372286 0.07636371 -0.047356874 -0.13094826
000050 e8 6b e3 3d 4e 51 e5 bc fd 72 30 bc 34 c8 8e bd
       0.11104566 -0.02799287 -0.010769603 -0.069717795
000060 22 6d aa bc 7b ad 53 bc f8 e7 94 3a a2 33 4b 3a
       -0.020803992 -0.012919779 0.0011360636 0.00077515293
000070 d2 90 db bd b9 07 e5 bc 6e ff 0b be d3 71 5c bd
       -0.10720982 -0.027957784 -0.13671657 -0.05381949
000080 07 27 4b 3d b9 69 11 3e 1b 59 8f bd 69 9d e4 bd
       0.049597766 0.14200486 -0.069994174 -0.11162836
000090 b2 fc 60 bd 9d 92 28 3d 92 f2 c1 3d be 1d 45 bd
       -0.05492849 0.041155446 0.09470095 -0.048124067
0000a0 87 0c d8 3d a3 93 91 3d 24 3e c2 bc d8 c1 06 3e
       0.105492644 0.071082376 -0.023711272 0.13159883
0000b0 ab b8 0e bd 70 ce b0 bd 75 62 a9 bd 49 42 f4 bc
       -0.03484408 -0.08633125 -0.08270732 -0.029816763
0000c0 43 0f f7 3c 65 a2 76 bd 3f b6 af 3c 7c 9b 15 bd
       0.030158645 -0.060213465 0.021449206 -0.036525235
0000d0 69 8a 19 3d 75 a8 da bd 48 76 da bd aa 4b 02 3d
       0.037485514 -0.10676662 -0.106670916 0.03181044
0000e0 71 cd 4b bd f2 bf 68 3c e7 8c cf 3d 22 6b 32 3d
       -0.04975647 0.01420592 0.10134297 0.0435592
0000f0 ec ba e0 bd e1 e2 2c be 1b fd 19 bc 2c 58 1a 3e
       -0.109731525 -0.16883422 -0.009398724 0.15072697
000100 b2 e1 df bc c7 f6 51 3d ae 12 bd 3d 5c cf d4 bd
       -0.0273293 0.051260736 0.092320785 -0.10391113
000110 02 f6 57 bc 1d 06 94 bb af 25 06 be 18 c7 30 bc
       -0.013181211 -0.0045173303 -0.13100313 -0.010789655
000120 5f 0c 71 bd 90 68 81 3d 31 7c 9b 3c f0 8e 64 3d
       -0.05884969 0.06318772 0.018980118 0.05580038
000130 2e 21 ba bd 87 9a f5 bd 21 94 1b bd a1 56 29 3d
       -0.0908836 -0.119923644 -0.037983064 0.04134238
000140 02 0d b9 bd 1c fd 2c 3b f1 ae 4e 3d 0e 36 3a 3d
       -0.09035684 0.0026395982 0.050459806 0.045461707
000150 1a 1b 35 be 52 1d 8e 3d 59 38 fe 3d c1 0b 35 bc
       -0.1768612 0.06939186 0.12413091 -0.011050166
000160 3e e9 f2 bc 72 d2 6a bc c2 23 61 3d 81 6a 26 be
       -0.029652234 -0.014332401 0.054965742 -0.16251566
000170 85 a7 d4 3d fd be 93 3d 0c ef 0e bd fb 1d 5c bc
       0.10383514 0.072141625 -0.03489594 -0.013434882
000180 b6 6e da 3d a1 b0 23 3e 40 1b f3 bd 19 35 22 3e
       0.10665648 0.15985347 -0.11870432 0.15840568
000190 07 03 8b 3d 0c 17 9b 3c 73 e6 b2 bd 8d e9 1b 3e
       0.06787687 0.018931888 -0.08735361 0.15225811
0001a0 a2 43 b0 3d 98 67 d6 bd 45 f6 4b bd ae ef c1 bd
       0.0860665 -0.10468978 -0.049795408 -0.094695434
0001b0 fa 3b 76 bc ce 0f 2e 3d 97 94 56 bb 07 4f 15 be
       -0.015028948 0.04249554 -0.0032742375 -0.14580928
0001c0 7f c0 02 be 4a dc cb 3d 7e d3 c4 3c 80 f6 a8 bd
       -0.12768744 0.09954126 0.024026629 -0.08250141
0001d0 e8 a5 1a bd 0b af 1c 3d a7 25 eb bd 4b 4e 27 3d
       -0.037755877 0.03825287 -0.11481791 0.04084615
0001e0 9b 7a 8c bd dc 8d 8a bd 01 f2 a1 bd a3 96 1d 3e
       -0.06859323 -0.06765339 -0.07907487 0.15389495
0001f0 cf fe 0f be 35 4a 2c 3d 15 b2 c2 bd 1a 7e 0f be
       -0.14062046 0.042062957 -0.09506623 -0.14012948
000200 19 8a 14 bd e0 80 85 3d 4b d3 a0 bd 10 66 0e be
       -0.036264513 0.065187216 -0.07852801 -0.13906121
000210 b0 52 fc bc 2a 09 20 be 58 f2 ad 3d 37 74 f4 bc
       -0.030801147 -0.15628496 0.08493489 -0.029840572
000220 6e d7 9b bd 0b 26 81 bd c0 ba 22 3d 14 b8 26 3c
       -0.07609449 -0.06306084 0.03972888 0.010175724
000230 b9 a7 f0 bc c4 ff c1 3d 89 ac 77 3c b7 f1 0e 3e
       -0.029376851 0.094726115 0.015116819 0.13959394
000240 29 c7 05 3e a7 3a ae bd c9 db 64 bd 79 79 45 bd
       0.13064255 -0.08507281 -0.055873666 -0.04821155
000250 9a fd d0 bd 0d 6c 11 be 26 53 cc 3d 69 33 97 bd
       -0.10204621 -0.14201374 0.09976797 -0.073828526
000260 bc 06 c4 bd bb 5a ed bd 14 6d 88 3d 15 ef 2e be
       -0.09571597 -0.11589571 0.0666143 -0.1708339
000270 4e fd 57 bd fc 0b be 3d bb 2b 00 be d6 7a 41 bc
       -0.052731805 0.092796296 -0.12516682 -0.0118090715
000280 38 02 c6 3d df fa c3 bd dd 3c 43 3d e7 de ce bd
       0.09668392 -0.09569334 0.047665466 -0.10101109
000290 15 ad 2a bd 4a 87 07 be 01 97 77 bd 09 a3 0c be
       -0.04166897 -0.13235202 -0.060446743 -0.13734068
0002a0 3a b4 09 3d 1c c5 d2 bd c0 46 44 3d b2 93 04 3e
       0.033619143 -0.10291502 0.047919035 0.12946966
0002b0 93 83 87 3d ef 73 cf bd c8 3c 69 3d 26 80 e5 bd
       0.06616893 -0.101295345 0.05694273 -0.11206083
0002c0 92 53 1a bd f7 8c 7c bc bd f5 95 bd e6 97 4f bd
       -0.037677355 -0.015414468 -0.073222615 -0.05068197
0002d0 da 46 20 be fb 51 d0 3d ab 71 7e bd 43 1d e3 bc
       -0.15652028 0.101718865 -0.06212012 -0.027723914
0002e0 76 07 f7 bd d2 fa b6 bd 8e fd a6 3d 09 5a 6b 3d
       -0.1206197 -0.08934559 0.081538305 0.05745891
0002f0 53 ce b7 3c 62 c8 0d be 4b 8c c7 3b 8f 29 b7 3c
       0.02243725 -0.13845971 0.0060897223 0.022358684
000300 62 72 e4 bd 91 4c 86 3d 9a 4a 17 be 7c d3 95 3d
       -0.11154629 0.06557573 -0.14774552 0.07315728
000310 62 51 a9 3d 4c 88 0e be c2 ad 14 3c 17 e3 36 bd
       0.08267476 -0.1391918 0.00907463 -0.044650164
000320 a2 20 a9 bd ed 7c dd 3d 5c 11 07 3d 0b 2e f5 3d
       -0.08258177 0.10814843 0.03297554 0.119716726
000330 03 9a a1 bd 66 5f 05 bb 77 ca 7f 3d 01 4e 82 bd
       -0.078907035 -0.0020351051 0.062448945 -0.06362534
000340 bf bc e1 bd c1 20 61 3c a6 12 ef 3d 3e a5 e9 bd
       -0.110223286 0.013740719 0.11673479 -0.114084706
000350 fb 06 b8 bd 10 66 ff bd ac e9 1f 3d 06 6c fb 3d
       -0.089857064 -0.12470639 0.039041206 0.12276463
000360 31 cc 85 3d c5 f7 e1 bc 21 91 57 3d ed 6d 0c 3e
       0.06533087 -0.027583966 0.05262864 0.13713808
000370 12 a2 93 3d f5 db ab 3c fc 7a 84 3c 91 2f 06 be
       0.07208647 0.020978907 0.016171925 -0.13104083
000380 e4 c2 3f bd 0e 76 82 3c ae 5b 64 3d 35 b1 ad bd
       -0.04681672 0.015925433 0.055751495 -0.08481065
000390 3f 82 f0 bb d7 43 4c 3d fd fa a6 bd 13 f6 a3 3d
       -0.0073397453 0.049869385 -0.08153341 0.08005919
0003a0 57 05 c8 3d 9c 01 05 3d ae 1f 9e bd 64 6f e6 bd
       0.097666435 0.032472238 -0.07720886 -0.11251715
0003b0 0e 9c 45 3d 08 8b 72 bb 0d 1b 05 bc 9b e4 89 bc
       0.04824453 -0.0037009139 -0.008124125 -0.01683264
0003c0 19 5f 38 3d 86 99 ed bd 61 50 cf 3d 84 1d de 3d
       0.045012567 -0.11601548 0.10122753 0.108454734
0003d0 2c 52 c4 bd d9 5f c5 3d f7 8a 78 3d 9b fe 63 3d
       -0.095859855 0.09637422 0.060679402 0.055662733
0003e0 d2 d2 e9 bd d0 98 c5 bd 04 01 11 bd 56 cd a9 3d
       -0.11417164 -0.09648287 -0.03540136 0.08291118
0003f0 04 0b 91 3d cb a3 e3 bd a4 9d cc bd 08 6f a5 3c
       0.07082179 -0.111152254 -0.09991005 0.020194545

fc.f7.bias f4 [10]
000000 bb 84 5f bb 72 22 0e 3e a0 cc 2e bd 35 8d f9 3c
       -0.0034106213 0.13880327 -0.042675614 0.03046284
000010 b9 7b 87 bd 5e 6d a8 3c e4 87 cd bd 7a 23 bd 3d
       -0.06615395 0.020559963 -0.10035685 0.09235282
000020 a7 5f b3 bd 5c 60 c7 bb
       -0.087584786 -0.006084485
