Lenet-5_mnist/model/2_model.pkl (torch, 250431 bytes, 10 tensors)

convnet.c1.weight f4 [6, 1, 5, 5]
00000000: 688f 3ebd de8e 3fbe 5109 a2bd 7396 9b3d
00000010: 40a8 473e fe4d 62bd 34cf 6e3e 1c7a a9bd
00000020: b71d d6bd 728e d13d c81b 5cbd 3f7d 8a3e
00000030: 0b73 313c 9abd 643e 7ebd a9bd 85ab 283e
00000040: 2d4b 9c3e 3409 313e f3f9 853e 5528 053e
00000050: bfcd a23d 9b12 613d e39a 863e 191b 493e
00000060: e985 a23d 0fc3 1abd 92bd 45be 29ba acbe
00000070: 83cd 96be fb37 72be ecd7 113e 5766 10be
00000080: 08fb 003e 6fbc 5cbe fd39 13be 6060 753d
00000090: df28 973e 1755 a8bc 0107 413d 7f98 d93b
000000a0: dcf1 883c b19e 4d3e 77c2 6e3e 5367 3c3e
000000b0: 2c1b 403e 29de 2b3e 70d8 4f3d 525b 413e
000000c0: e53f 8b3c 6280 793e 1a2f 4e3e 77ea 34be
000000d0: 42e9 d53d eafb 093e 3e48 b83c 2b82 833e
000000e0: 12a8 1cbe bc6e f83d 2994 acbd 2dae 483e
000000f0: bd46 383d 6fe0 b0bb 4fab 3a3e caed 573e
00000100: 7592 3f3e c827 073e 5a29 fd3d 8b04 ebbd
00000110: 0678 833e f7e9 103e ff5d 5f3e 58f2 273e
00000120: 688a 58be 1bf9 47be cd92 3d3c 6f6f cf3d
00000130: 71f2 623e 1d00 e13d cff2 7b3e b39b 8c3e
00000140: 7215 14bd 8cb3 863e 4f6b 633e 26ae f23d
00000150: e40a 223e 1f90 84bd b823 6c3e c4b8 a5bc
00000160: 7624 86bd cac5 c43d 946e a4bc c549 65bd
00000170: c377 e53c 38ff 01be ffec 26bc f357 76bc
00000180: 33ff 053e 09b7 19be d101 b93d 522b b63c
00000190: a51c 953e e346 9b3e 02f5 debc 94f2 e33d
000001a0: 7427 89be 4f6f 8d3d c257 d13d 108a db3d
000001b0: 819e a0bd b09b 77be 632d c63d 299b 993e
000001c0: 3380 9f3d 5882 8bbe 3c48 41be dd94 963d
000001d0: 55dc cd3d f31d f53d 91a9 f5bd 8037 14be
000001e0: c035 603e cfe5 7b3e 6685 efbc a8df 8abe
000001f0: df16 efbd 8940 e63d 2a7d 883e b96d 0f3e
00000200: eb1a 333e fd0f c13e 6d3f 9f3d 1663 b73e
00000210: bcae 863e 2e5b ec3c f905 24bc 7736 283d
00000220: e4ab 12be 9af8 a0bd 66fc e33d 8459 c43c
00000230: 63a4 3ebc 6ae4 93be 0bfd 07be 7f08 20be
00000240: a286 90be 8057 bebe fd46 4ebe 892b 7cbe
00000250: 6c2e 9abe 750e cb3d
-0.04652348 -0.18706843 -0.07911933 0.07597055 0.19497776 -0.05525016 0.23321229 -0.08275244
-0.104548864 0.102322474 -0.05373743 0.2704868 0.010830651 0.22337952 -0.08288096 0.1647168
0.30526105 0.17288667 0.2616726 0.13003667 0.07949399 0.054949384 0.26290044 0.19639243
0.079356976 -0.03778368 -0.19310597 -0.3373578 -0.29453668 -0.23654167 0.14242524 -0.1410154
0.12595761 -0.21556257 -0.1437759 0.059906363 0.2952337 -0.020548386 0.04712582 0.0066404934
0.01671689 0.20080067 0.2331637 0.1839879 0.18760365 0.16783966 0.05074352 0.18882492
0.01699824 0.2436538 0.20135155 -0.17667566 0.10444881 0.13475004 0.022495385 0.25685248
-0.15298489 0.12130496 -0.08426697 0.19597693 0.044989336 -0.0053978483 0.18229412 0.21086803
0.18708213 0.13198769 0.12361403 -0.11475476 0.25677508 0.1415175 0.218132 0.1640104
-0.21146548 -0.1952862 0.011570645 0.10128676 0.22162797 0.1098635 0.24604343 0.2746254
-0.036153264 0.26308858 0.22208904 0.118496224 0.15824467 -0.064728014 0.230605 -0.020229705
-0.06549923 0.09608038 -0.020072259 -0.055978555 0.028011208 -0.12695014 -0.01018834 -0.015035617
0.13085632 -0.15011229 0.090335496 0.022237454 0.29123417 0.3032752 -0.027216438 0.111302525
-0.26787913 0.06905996 0.102218166 0.10719693 -0.07842732 -0.24180484 0.096766256 0.3000119
0.07788124 -0.27247882 -0.18875211 0.07352612 0.100517906 0.11968603 -0.11995233 -0.14474297
0.21895504 0.24599384 -0.029238414 -0.2712376 -0.11674284 0.11242778 0.26657993 0.140067
0.17490737 0.3770751 0.077757694 0.35817784 0.26305187 0.028852072 -0.01001119 0.041067567
-0.14323384 -0.07859917 0.111321256 0.023968466 -0.011635873 -0.28885204 -0.13280122 -0.15628241
-0.28227717 -0.37176132 -0.20144267 -0.24625982 -0.30113542 0.09914867

convnet.c1.bias f4 [6]
00000000: 9744 19bc 0100 963b 058d 6cbd 05a1 643d
00000010: 0b9b a83d 0941 fb3d
-0.009354732 0.004577637 -0.057751674 0.055817623 0.08232697 0.12268264

convnet.c3.weight f4 [16, 6, 5, 5]
00000000: 60e1 1bbd 40c4 8d3d ddfd a93d 4325 f33d
00000010: a299 9fbd be71 e6bc 267a 69bb 0907 ef3d
00000020: 68d9 833d 089f 39bd 080c 48bd 70ab 0f3d
00000030: c5e0 bc3d a4c4 323d 27ff 3fbd 7e40 233d
00000040: 242b f53d 0dde be3d ebfe afbc aa3a 7e3d
00000050: 4da3 613d fb48 7b3d b1f0 7e3d d1f9 f6bd
00000060: ed1c 1cbe f24b 303d b5f7 9b3b 697d e1bb
00000070: e92e ad3c 6a01 18be 698a 72bd c912 e1bd
00000080: 94e3 0abe 4f43 d6bd 330a 3abe a521 4bbd
00000090: 6129 e6bd 6cea c6bd 013f 2dbe 1887 9ebc
000000a0: 0ad9 49bd 90a8 5abe 3d0e b0bd 6e1f 30bd
000000b0: 5f4d 5c3d bcef 0dbe 4d82 61be de28 62be
000000c0: c68a 0bbe 2f19 01be b550 8abc 74a4 083b
000000d0: 1506 dcbc f530 bc3d 79e5 9f3d 3bd9 883d
000000e0: b799 a4bd 5ae4 71bd a00a 903d f79a 3dbd
000000f0: c8e5 14be 9aa4 5b3d cc95 3c3b 8931 e13d
00000100: 7ad4 1a3d e9e0 04be b475 ce3d 3ca0 d03d
00000110: 1472 1d3e c266 c73d 84ff 203c be48 0b3d
00000120: 9282 d23d ac1f 893c 9006 a23d 9c43 383d
00000130: 222a 3ebc 517a 213d 1e29 0dbd 2177 9abd
00000140: c86a c13d 3065 6f3d a093 013e 263f 9dbb
00000150: 86cc 2ebc 3bb3 8bbd cfbf 3f3d a4dd f03d
00000160: 08c2 783d 7c41 11bd 9b3e cd3c 8e9d 0bba
00000170: 58b9 4f3d d996 053d d2f5 b73c ebbf a4bc
00000180: cf23 0d3d 084a 3c3d 2f32 80bb 7bb8 683d
00000190: 0772 8bbd 9aac 81bd fc5b 063d 82db 3d3d
000001a0: 40c2 fa3d 8ed2 e3ba 46c0 78bd e521 df3d
000001b0: 8106 853d 0466 173d c3f0 11be 27b7 30be
000001c0: 2624 a13d 3cf7 db3d 8dd2 9a3d 72b8 3abe
000001d0: e72a 17be c633 d43d 468b 333e 36a0 8b3d
000001e0: 7850 0dbe f768 0dbd 70f6 193e 5631 1f3d
000001f0: ca47 323d 4736 a13d cc7d 3cbc 769b 42be
00000200: 3e1c 0fbe d0a5 9138 3337 dd3d 92f5 023b
00000210: e8df 5fbe 3a8a 88be 5ca3 35bd f8b6 b93d
00000220: e7b8 30be 5eb1 21be f31a 0dbe 5d5c bebd
00000230: 775e a9bd 20d7 02be 7f42 66be 3086 45be
00000240: 69d8 2b3b bbfc cebd 997e 83bd 78f1 e1bd
00000250: 20d6 373d 79bf 2d3e c444 363d 1e77 a63c
00000260: 6165 40bd 7356 84bd b4e5 c1bd 352b 103d
00000270: f601 8a3d 6d0c 293d b587 05bd 96f1 4dba
00000280: 1a31 b03d 67a1 b73d 9cb9 30bb c916 bf3d
00000290: c4bb 5e3d bb50 34bc e9be f93d 22b8 9a3c
000002a0: e42c 623d 153b 493a 2616 e5bd 102c 9bbd
000002b0: 3c2c 0bbe 58cd 08be c8c8 81bd a3cb 643d
000002c0: 0a1b b93d 7144 ad3d 1425 883c 3ade 813d
000002d0: 94ae e43c 364c 2bbb c736 fcbd 507b 3bbd
000002e0: b4e2 1abd 0d00 623c 041d 083e a2ff 063e
000002f0: c6ef d13d 66c4 463d cc6b 92bd fbb5 ea3d
00000300: f839 5f3e c26e 083e 1430 c53d 9dbb 16be
00000310: d0bc dbbc 16a9 82bd 0214 d8bc afe6 183d
00000320: c154 923d 42be db3d eb32 153d b82e 513d
00000330: 3c32 94bd 699f 5bbd 1b70 b13d 5f89 bf3d
00000340: 4e9f 003d eeca a2bc 79ac 47bd 91b6 413d
00000350: 7a30 8e3d 07ea a7bc 4066 c53d 28ae 343d
00000360: 06b8 093d 7662 ef3d 8789 213d 2e04 693b
00000370: 1a76 043d 3c59 803a 6392 c23d bd27 07bd
00000380: aaa1 95bc cc78 aabc 0d82 883d ad9b b5bd
00000390: 1ae1 ddbd 4912 aebd e581 aebc 4153 e83d
000003a0: 6f75 3bbd e47d 37bd 6701 4f3d 0e84 2d3d
000003b0: 6375 5d3d c3d1 b33a 51c5 8e3c cdca 0abd
000003c0: 7d64 c33c 926c 913d cc78 3ebd bf14 de3b
000003d0: 0e39 4fbd 1239 903d f1da ff3c eee8 553c
000003e0: a68c a73d 0bc4 333d 37b8 093e 635b 173d
000003f0: ba57 bbbd cbcd 91bc bdd5 30bd c3c5 f83d
-0.03805673 0.06922197 0.08300374 0.118723415 -0.07792975 -0.028130408 -0.0035625785 0.11671264
0.06437951 -0.04531768 -0.0488396 0.035075605 0.09222559 0.043644562 -0.04687419 0.039856426
0.11971119 0.093196966 -0.021483859 0.062067665 0.055087376 0.061348896 0.06224126 -0.120593674
-0.1524541 0.043041177 0.0047597536 -0.006881405 0.021140533 -0.1484429 -0.05921403 -0.10989911
-0.13563377 -0.10462057 -0.18167953 -0.049592633 -0.11238361 -0.09712681 -0.16918565 -0.019351527
-0.04927925 -0.21353364 -0.08596466 -0.042998724 0.053784724 -0.13860983 -0.22022362 -0.22085902
-0.13627157 -0.12607263 -0.016884187 0.0020849975 -0.026858369 0.09189025 0.0780744 0.066820584
-0.08037131 -0.059055664 0.070332766 -0.046290364 -0.1454078 0.053623773 0.002877581 0.10995776
0.03780029 -0.12976421 0.10081044 0.10186812 0.15375549 0.09736396 0.009826545 0.03400492
0.102788106 0.016738735 0.07911408 0.044986352 -0.011606725 0.03942329 -0.03446304 -0.07542253
0.09444195 0.05844611 0.1265397 -0.0047987876 -0.010668879 -0.06821295 0.046813782 0.117610246
0.060731918 -0.03546284 0.025054267 -0.00053259067 0.050713867 0.032614563 0.022456083 -0.020111045
0.034457978 0.04596904 -0.0039122324 0.05681656 -0.06808858 -0.06331749 0.032802567 0.046351917
0.122440815 -0.0017381476 -0.06073024 0.10895137 0.06495381 0.036962524 -0.14252 -0.17257367
0.07868223 0.107405156 0.075596906 -0.18234423 -0.1476246 0.103614375 0.17533597 0.06817667
-0.13800228 -0.03452393 0.15035415 0.03886541 0.043525495 0.07871681 -0.011504602 -0.19004616
-0.13975617 6.945024e-05 0.10801544 0.0019982797 -0.21862757 -0.26667958 -0.044345245 0.09068102
-0.17258035 -0.15790316 -0.13779812 -0.09294961 -0.08269971 -0.12777376 -0.22486304 -0.1928947
0.002622152 -0.10106798 -0.06420631 -0.11032385 0.04488194 0.16967572 0.044499174 0.020320471
-0.046971682 -0.064618014 -0.094676405 0.035197455 0.06738655 0.041271616 -0.032600123 -0.00078561285
0.086031154 0.08966332 -0.00269661 0.09330518 0.054378286 -0.011005576 0.12194616 0.01888663
0.055218592 0.00076763454 -0.11185865 -0.07576764 -0.13591093 -0.13359582 -0.06337124 0.055858266
0.090383604 0.0846032 0.016619243 0.063412145 0.027915277 -0.0026137955 -0.123151354 -0.045771897
-0.037813857 0.013793957 0.13292319 0.13183454 0.10250811 0.048527144 -0.07149467 0.11460491
0.21799457 0.13323501 0.09628311 -0.14720006 -0.026823431 -0.06379907 -0.026376728 0.037329372
0.07145072 0.10729648 0.036425512 0.051069945 -0.07236144 -0.053618822 0.086639605 0.09352373
0.031401925 -0.019872155 -0.048748467 0.04729325 0.0694284 -0.020497335 0.09638643 0.0441114
0.033622764 0.11688702 0.039437797 0.003555547 0.032339193 0.0009792219 0.09500577 -0.03299688
-0.018265564 -0.020809554 0.0666543 -0.088675834 -0.1083395 -0.08499581 -0.021302173 0.113440044
-0.04576629 -0.044797793 0.050538447 0.042362265 0.054067027 0.001371913 0.017428072 -0.033884812
0.023851627 0.07100786 -0.04650192 0.0067773755 -0.05059152 0.07042135 0.03123233 0.013056023
0.081811234 0.043888133 0.13449179 0.036952388 -0.09147592 -0.017798325 -0.043172587 0.12147095

convnet.c3.bias f4 [16]
00000000: 6c70 f4bc b78e c7bd c60b 4b3d cf5c 433d
00000010: d15c 90bd 07b1 1e3d b1ee 883d d9f4 4bbb
00000020: 2ab2 52bd 90af 863a abb1 2abb 52f5 7b3d
00000030: 5b84 f33c 5e93 f33d 7511 c83c 6048 8fbc
-0.029838763 -0.097440176 0.049571775 0.04769593 -0.07048953 0.038743045 0.06686152 -0.0031121282
-0.05143944 0.001027571 -0.002604584 0.061513253 0.029726198 0.118933424 0.024422387 -0.017490566

convnet.c5.weight f4 [120, 16, 5, 5]
00000000: d254 613c e24a d73c 9db3 dbbc 4a2e 763d
00000010: 02c2 343d 4da0 43bd a863 9cbd 45c2 c5bc
00000020: 8a07 9f3b 613e 7f3d 4dc0 86bd 2bd5 49bc
00000030: 3e03 1f3d 5f84 993b 923b 97bd 1cd0 51bd
00000040: 6358 753c b9bf 113d 543a 36bb a6c5 5abd
00000050: b71b c23d de4d 313c ea41 5bbd eec2 87bd
00000060: 4055 17bd 95c0 683b 0aff 503d a238 dc3c
00000070: 9e35 c2bc 0889 5a3d f975 2fbd bdd4 b83c
00000080: fbf3 13bc 532b 073c 8402 3e3d 6544 1dbd
00000090: 4a73 583a 3417 41bd 1f44 6f3d 5821 a6b9
000000a0: 28e3 3dbd 9b4f 1fbd dbd0 fc3b f035 543d
000000b0: bfae 2d3c 285e 0d3d f38c c83d afcc f63c
000000c0: 7f0a ab3d 9409 fbbc b768 293c 0588 b63c
000000d0: 0881 8d3d c5d0 813d dab8 fabc 9512 c8bb
000000e0: 9219 403c 606e 1c3d 4144 1dbc 5a3e 52bd
000000f0: a76d 3ebc 2c06 6c3c e6e4 42bc 9ddf 2d3c
00000100: e9c8 47bd 06d0 993c 38d9 503d f86f 053d
00000110: a1f9 33bd 3881 76bc 58da 9b3c d7c1 3e3d
00000120: cf23 16bd 1d50 09bb 5453 30bc 126d 353d
00000130: 137b 303d 44b3 303d 4534 4dbd 29d2 1fbd
00000140: 4ea0 243c cc70 063d 881b 06bd 3279 7dbd
00000150: 6bea abbd 979c a33d f022 293d cb19 a63c
00000160: 0d1b 9f3c f8b1 c43c befe cb3b ae3e 89bc
00000170: ae46 dcbd a0da 763c dd97 613d 48a4 1b3d
00000180: ac4e 77bd a14e 5d3d 1762 1f3e 654b 563d
00000190: c937 ae3c 22fb 313d 1f93 1cbc 67c8 5cbc
000001a0: 482f 3cbd e643 17bd f9d2 dc3c 7460 56bd
000001b0: b4db 41bc 1286 d53c 3296 ac3c ef7e b7bc
000001c0: 8102 31bd 4701 a4bc 05bc 50bd 77e9 a5bc
000001d0: 5d85 743c f659 653d 33a7 173d 8b00 083d
000001e0: 06a7 82bc 910c 383d b0c1 85bb a8ba 2e3c
000001f0: 20ae 49bb 3459 a43d 99f2 9f3c a1ef 053d
00000200: 9e9a 763d 4197 35bd 72a7 a03d bcff 393d
00000210: 2002 09bc 7365 13bd 03ca 93bd 725e 453d
00000220: 9a83 d83c 5ba3 4bbd ed79 0ebd ce62 7b3d
00000230: ac10 783d 12b6 fabc c1f5 863b 5974 cc3d
00000240: 8b57 a8bc 64ca bfbc 8fd7 903d d752 22bc
00000250: 1ab5 e63b f3ac 2f3d 9efc 06bc 9e4f ab3c
00000260: 393c 7cbd b69a aabc 6414 953d a674 7a3d
00000270: a582 31bd bb96 87bd 128c 483d 5abf ccbc
00000280: 124e 9a3d 7dc7 6f3d 9611 53bd e11e fe3b
00000290: a323 42bd 6eb8 9bbd 0dc6 07bd 6330 6ebd
000002a0: 948e 8a3d 7c81 5a3d eebd d6bd 6cf0 fd3b
000002b0: 1421 253d bd7c d33d 322c 4d3d 4ee3 64bc
000002c0: 2981 3f3d 620c d13d e46c bd3c e8a4 05bd
000002d0: 8e4f d03c d3bd 28bd 0e22 73bd 554d 6cbc
000002e0: 57fa 22bd b2ac b0bc de9e 8bbd 0fbf bc3c
000002f0: 3b4c af3c 7f76 0a3c 93b7 29bd 1815 19bc
00000300: a43e 1a3d 99e8 213c 74ef 57bc 40b1 573d
00000310: 0ca0 6bbc a20d 5d3d cefe 7f3d 6a4b 84bc
00000320: 8074 f6bb 75de 3c3d b92c 883d 103c f03c
00000330: a22f 663d f304 073c 917e ef3b 5a77 793c
00000340: 8715 993c ef44 333d 127c b8bc bfd2 ae3c
00000350: e6d3 5b3d 0637 1b3c 0668 613a ad00 6cbd
00000360: 94c5 8f3c c7a3 22bc 175d 2b3d 9032 a33c
00000370: 85a8 4cbc cce7 563d c28e 413a 57ce 843c
00000380: 6f24 11bc 5927 993d 375b 923d 8aca aa3d
00000390: a5ec bbbc 6749 f7bb a8ed 223d 48a5 d63c
000003a0: 9a0d 9cbd 5449 96bd f42d 03bd 253a 2fbc
000003b0: 1a56 6b3a 9de1 a13c a083 dfb9 c9f4 9c3d
000003c0: af36 b8bd 99d6 113c 7167 45bd c858 29bd
000003d0: 78c2 d23c 3293 9a3c e0a1 feba b25d 7dbc
000003e0: cc45 943c fbbe 8f3d b221 9d3d 140f a23d
000003f0: c7bc a53b d495 aebd 9a1d edbc 7274 5f3d
0.013753133 0.026280824 -0.026819045 0.06010274 0.044130333 -0.047760297 -0.076361954 -0.024140486
0.0048531936 0.06231535 -0.06579647 -0.01231889 0.03882145 0.0046849693 -0.07384409 -0.05122386
0.014974686 0.03558323 -0.0027805762 -0.05341115 0.094779424 0.010821788 -0.053529657 -0.06628977
-0.036946535 0.0035515178 0.051024474 0.026882473 -0.023707207 0.05335334 -0.042837117 0.022562379
-0.009030337 0.008250075 0.046389118 -0.038395304 0.00082569255 -0.04714127 0.058414575 -0.0003168683
-0.04635921 -0.038894277 0.007715327 0.05180925 0.010600745 0.034513623 0.09792509 0.030126898
0.08351611 -0.030644216 0.010339907 0.022281656 0.069093764 0.06338648 -0.030605722 -0.006105731
0.011724846 0.0381912 -0.0095987925 -0.051328994 -0.011622823 0.014405768 -0.011895394 0.010612396
-0.048775587 0.018775951 0.050988406 0.032577485 -0.043939237 -0.015045457 0.019025013 0.04657158
-0.036655243 -0.0020952292 -0.0107620545 0.04429347 0.043086123 0.04313971 -0.050098676 -0.039018784
0.010047985 0.032822415 -0.0327411 -0.06188316 -0.08394321 0.079888515 0.041293085 0.02027597
0.019422079 0.024010643 0.006225436 -0.01675352 -0.107556686 0.015066773 0.05507647 0.037998468
-0.06037776 0.054030064 0.15564762 0.052317996 0.021266835 0.04345239 -0.009556561 -0.013475514
-0.04594353 -0.036929987 0.026956068 -0.05233808 -0.011832166 0.026064906 0.021067712 -0.022399394
-0.04321528 -0.02002014 -0.05096056 -0.020252926 0.014924374 0.055993997 0.037024688 0.033203643
-0.015948784 0.04493386 -0.0040819272 0.0106646195 -0.0030773953 0.08024827 0.01952486 0.03269923
0.06020605 -0.0443337 0.07844438 0.045409903 -0.008362323 -0.03598542 -0.07216265 0.048185773
0.02642994 -0.049716335 -0.034784246 0.061373524 0.060562775 -0.030604396 0.0041186516 0.09983129
-0.020549556 -0.023411937 0.070723645 -0.009907446 0.007040632 0.042889547 -0.00823894 0.020911988
-0.06158087 -0.020825725 0.0727928 0.0611464 -0.043337483 -0.066205464 0.048961706 -0.024993587
0.07534422 0.058539856 -0.051530443 0.007755146 -0.047397267 -0.076035365 -0.03314786 -0.058151614
0.06765476 0.053346142 -0.10485445 0.007749608 0.04031475 0.10326526 0.050090976 -0.013970209
0.046754036 0.1020744 0.023123212 -0.03262797 0.02542856 -0.041196655 -0.05935865 -0.014422734
-0.039789524 -0.021566723 -0.06817411 0.023040323 0.021398654 0.008451103 -0.041434836 -0.009343408
0.037657395 0.009882116 -0.013179649 0.052659273 -0.01438142 0.05396808 0.06249886 -0.016149241
-0.007521212 0.04611059 0.06649155 0.029325515 0.05619777 0.008240926 0.007308789 0.01522621
0.018687023 0.043766912 -0.022520099 0.021340726 0.05366888 0.009473568 0.00085985695 -0.057617832
0.017550267 -0.009926743 0.041836824 0.019921571 -0.01249135 0.052467152 0.00073836383 0.016211672
-0.008858784 0.07478208 0.07146304 0.083394125 -0.02293999 -0.007546592 0.039777428 0.02620186
-0.07619782 -0.07338205 -0.032026246 -0.010695015 0.00089773687 0.019760901 -0.00042631943 0.076638766
-0.08994805 0.008901262 -0.048194353 -0.041344434 0.025727496 0.018869016 -0.0019426905 -0.015464233
0.018099688 0.070188485 0.076724425 0.07913032 0.0050579044 -0.08524671 -0.02894478 0.05455441

convnet.c5.bias f4 [120]
00000000: 08d4 bcbc 3ce1 31bc c6d9 66bc 1033 09bd
00000010: 56e9 023d c92e 033d 9ca2 e1bc ebd2 5e3b
00000020: 78e7 d8bc e298 923c e9a1 fabc d712 9e3c
00000030: 0d25 ed3c 169e 4abd f3c5 903c 6e05 a03d
00000040: 591c 063d fa31 223d 0887 063d 2ea5 93bb
00000050: 8599 cebc 06c8 1abc 69a9 cbbc 5606 abbb
00000060: 3a46 b73d 7c5e 923c 35a4 d33c f119 9abc
00000070: e6d4 c9bc 0a10 df3b fc32 45bd 4cc2 b13c
00000080: 5a16 63bc f237 273c 4630 893d ef16 683d
00000090: 2a9d d7bc d239 8cbd 7a26 29bd bb7b 3a3d
000000a0: a2ca cebc 2f24 04bd 147c 663c c241 5c3d
000000b0: b91a 3abd e6ea 02bd b683 403d afe4 9d3d
000000c0: c771 463c 5d23 c1bc 2016 75bc 3f4a b23d
000000d0: 020e a7bc fb46 13bd 51ae 513c dd31 71bc
000000e0: 6444 6bbd 4509 733c a70a 0d3b 6bdd 4b3d
000000f0: bf99 4bbd f2a0 b03d 81ce c93c 7ed6 653d
00000100: b280 023d 919f 033d 1836 cebc 899f 31bd
00000110: 3d65 1fbd e343 29bb a864 75bc b849 dabb
00000120: 5860 513c 0c63 153d 8ca4 a2bc 5060 1b3d
00000130: f694 c23d 9ccd 6fbd 2055 ddbc cb7d 58bb
00000140: 22d0 2bbc 6d02 ecbc 3444 9c3c 8d69 c43b
00000150: e625 9b3d d38f 303d b5f8 45bd 9d8a 8d3d
00000160: eb5f f23c 0243 053d a1e1 363d 9ecb 76bc
00000170: 8232 7d3c a0c7 e7b9 d0dd 153d e6b4 5dbd
00000180: 3fae 1d3d 607f 5fbc f89b f3b7 f933 c33b
00000190: db43 59bc 340a 6bbd 5f02 083c 5469 7a3d
000001a0: 4dc8 15bd 5d9f 803d 84ae 72bd b8e5 4a3c
000001b0: 44f9 80bb 67f9 8c3d 0ebb 263c 1737 11bc
000001c0: dc2e 97bc 0206 e9b9 dd6a 033c 1266 b1bb
000001d0: 45f6 0d3b e4ff 2b3b febc 703c c33f 233b
-0.023050323 -0.010856923 -0.014090007 -0.033495963 0.031960808 0.03202704 -0.027543359 0.0034000229
-0.02647756 0.017895166 -0.030594783 0.019296093 0.028948331 -0.04946717 0.017672515 0.07813536
0.03274188 0.039598443 0.03284362 -0.004505775 -0.025219688 -0.009447103 -0.024861054 -0.005219261
0.089489415 0.01786732 0.025835136 -0.018811198 -0.02463765 0.006807332 -0.048144326 0.021699093
-0.0138603095 0.0102062095 0.066986606 0.056662496 -0.026320059 -0.06846966 -0.04129646 0.045528155
-0.025243107 -0.03226107 0.0140676685 0.05377365 -0.04543564 -0.031962298 0.04700061 0.077096336
0.012112088 -0.023576433 -0.014958888 0.087055676 -0.020392422 -0.035956364 0.012797908 -0.014721361
-0.05743827 0.014833753 0.0021521242 0.049771708 -0.04970717 0.08624448 0.024634602 0.05611276
0.031861015 0.032134596 -0.025172278 -0.043365035 -0.038914908 -0.0025827817 -0.014977612 -0.00666162
0.012779318 0.03647141 -0.019853853 0.037933648 0.09501068 -0.058545694 -0.02701813 -0.0033033963
-0.010486634 -0.02880975 0.01907549 0.005994028 0.07575588 0.04310591 -0.04833289 0.06911204
0.029586753 0.032534607 0.04464877 -0.015063195 0.0154539365 -0.00044208486 0.03658849 -0.054127596
0.038496252 -0.013641208 -2.9040486e-05 0.0059571234 -0.013260807 -0.057382777 0.008301347 0.061135605
-0.036567975 0.06280396 -0.059248462 0.012383871 -0.003935965 0.06883507 0.010176433 -0.008863232
-0.018454961 -0.000444457 0.008021084 -0.005413779 0.002166168 0.0026245052 0.014693497 0.002490983

fc.f6.weight f4 [84, 120]
00000000: b541 2ebd d515 a7bc 029a 903b cb1b d63d
00000010: 5ccb 0c3e 8081 453c d67b 5dbd d170 dc3c
00000020: ec37 2cbb e97a 8dbd 97bc 963b b0ef 0abe
00000030: b45f 2fbd 0200 023d dd76 e53c 9295 ce3d
00000040: e97e ed3d cd32 d2bb d079 e5bc 1244 573c
00000050: 3b41 a9bd 68f5 283e fb5b e03d 89cf c1bd
00000060: 4955 02be 4001 a43d 3429 72bd 7eea 013e
00000070: f369 0b3e 8d7f 97bd edf1 9c3d 2dec db3d
00000080: 8a10 ce3d b7eb fcbd 551f 53bd 3b99 1abe
00000090: f8f2 403b 1329 93bd c0c2 6b3c c5b2 d43d
000000a0: d5b0 333d c296 a6bd bd53 8e3d de7a ff3d
000000b0: 014e cf3d 39a0 9b3c 3ce4 b13d f3a0 51bc
000000c0: 6eb6 0b3d f652 763d 1663 44b9 63fa aebd
000000d0: 8789 aebd ffee 40bd c5bd 033c 5d0a 9f3d
000000e0: c39e bd3d 87b7 afbc 88b4 553d df38 ab3d
000000f0: fff4 7cbd b370 8b3d f2ae e6bd 4621 77ba
00000100: df4f fe3d ad16 9f3c d781 183c 5117 533d
00000110: 45d9 c93b 9fc1 f73d 8187 af3b 7f70 ef3d
00000120: 9038 503c ee1c 44bc f165 32bd 1794 2d3c
00000130: 30b4 153d 5212 24be c1cd 40bb e47c 57bd
00000140: 88b7 bc3d 405e 27bd 95ce 153d 257a cf3c
00000150: 6658 923d 44ac 8c3d 0ade 383d c31c 8f3d
00000160: 7548 8fbd 2e4f 493d 28dc d3bc 38f9 7dbd
00000170: 0a1f 8d3d 59ac 3f3c d80d b1bd 79c6 c83d
00000180: 6e5b 1ebd 2260 803c ac78 adbd 9080 823d
00000190: 843e febc ae07 8cbb 4882 97bc 9af1 663c
000001a0: ef4e 8a3d e47b 813d ded2 9bbd ca4d 7dbb
000001b0: 7eb0 a9bc b0f0 a73c 17f2 bb3c 084d 553d
000001c0: 2707 2d3d 006f b83d 59a7 38bd 92c8 aa3d
000001d0: 88f8 bc3d d7c6 26be f866 503d b361 123e
000001e0: df9a 59bd c93e 03bd fa87 83bd b869 e4bd
000001f0: 47a2 a2bc 9ff2 e53d 8a33 f13d d399 debc
00000200: 4004 603d 96a4 81bc f316 193c 683f 5cbd
00000210: 9c9f bbbd 318f 30bd a1bc 15be add8 5c3d
00000220: a277 cbbd cdf3 883d 9ef6 a5bc e2e0 9c3d
00000230: 3a90 0f3c aa59 afbd a8eb 88bc b13f e53c
00000240: ca5d af3d 7949 db3d 2e04 c43b 62bd 8dbc
00000250: e986 fa3d 6488 a6bc 9fd7 31bb 5114 c1bc
00000260: f70f dd3d c50b be3d 2c1b 203d 0dd4 8f3b
00000270: 1436 bebb 7194 86bd 46bb b2bb d238 4a3d
00000280: 12e9 093d f26c 9c3d 1590 6d3d bf49 883c
00000290: da9a 243d 1b99 a03d 6160 5a3b 40f2 083e
000002a0: 7c0a b93c a587 173d 0181 9b3d dfc7 7bbc
000002b0: 95ed 973c 33dd 45bd 63b3 46bd e9bb 903d
000002c0: 1907 7bbc fe27 d5bc b066 313d 7adf afbd
000002d0: 87a3 9c3d fb19 083e 868b e8bc 2a32 093e
000002e0: 4c58 933d 6e9c 2abd 7276 7ebd 3054 00be
000002f0: 081b 81bd a4f8 a43d e248 cb3d fcb3 adbd
00000300: 5242 08bb 187b 003e 0ced aabd b959 cbbc
00000310: 20f7 36bc 97a9 d03d f5e6 c33d 96ae 383d
00000320: abde e93d 9467 d3bc 924f a4bd a5c5 093d
00000330: 336d 693d 4e04 053d 3fc4 b63c 61d3 bf3c
00000340: 452c 7c3c 7324 8e3d a332 c23d a0f4 ed3c
00000350: 55f1 c6ba c84b 8c3d d0ae 2fbd cb72 853d
00000360: 3920 073e 99f4 f33d 1942 83bd 6290 9abd
00000370: 498e b4bd de0c 833d 02c5 063d 2e91 33bd
00000380: 9c24 9b3c 4654 b43d 5dd0 703d 3365 af3d
00000390: 547f 82bd adf9 4a3c ad0a 073d 7b62 b5bc
000003a0: 2df5 8bbb 058f cdbd c7d4 4cbc 2900 e13d
000003b0: 2465 433d 195e d33d a70b 41bd a917 d2bc
000003c0: 8c27 95bb 3f8f a73d 3e38 58bd b034 493d
000003d0: d38a 7d3c 2dec ab3d c881 243d b13e dcbc
000003e0: 639d c9bd de09 573d 7152 c5bd c00d 0b3d
000003f0: 5c2c d8bd 417e bc3c 9578 97bc f4b5 82bd
-0.04254313 -0.020396153 0.0044128904 0.1045452 0.1374945 0.012054801 -0.054073177 0.026909264
-0.002627845 -0.06908209 0.0046001184 -0.13567996 -0.04281588 0.03173829 0.02801078 0.10087122
0.11596472 -0.0064147473 -0.028012186 0.013138788 -0.08264395 0.16499865 0.10955044 -0.09463412
-0.12727846 0.08008051 -0.059121326 0.12687108 0.13614635 -0.07397375 0.07663331 0.10738406
0.10061748 -0.123496465 -0.051543552 -0.15097515 0.0029441696 -0.07185569 0.014389694 0.1038566
0.043869812 -0.081342235 0.069495656 0.12474607 0.101223 0.018997299 0.086861104 -0.012794721
0.034109525 0.06013771 -0.00018728929 -0.08543851 -0.08522325 -0.047102924 0.00804085 0.077656485
0.09258797 -0.021449817 0.05217412 0.08360457 -0.061757084 0.06808605 -0.11263837 -0.00094272604
0.12417578 0.019419992 0.0093083 0.051535908 0.0061599337 0.12097477 0.0053567295 0.11691379
0.012708798 -0.011969788 -0.04355425 0.010594389 0.036548793 -0.16022614 -0.0029419514 -0.05260934
0.09214693 -0.04086137 0.036573965 0.025326798 0.07145767 0.068687946 0.045133628 0.06987908
-0.06996242 0.049147777 -0.025861815 -0.06200525 0.06890686 0.011698806 -0.086452186 0.09803481
-0.038661413 0.01567084 -0.08470282 0.063721776 -0.03103567 -0.0042733764 -0.01849474 0.014095688
0.06753337 0.063224584 -0.07608579 -0.0038651102 -0.02071404 0.02050051 0.022942586 0.052075416
0.04224315 0.090055466 -0.04508147 0.08339037 0.09227091 -0.16286789 0.05087945 0.14295082
-0.053126212 -0.0320423 -0.0642242 -0.11152977 -0.01985277 0.11227917 0.117774084 -0.027172958
0.054691553 -0.015825551 0.00934385 -0.053771406 -0.091613024 -0.043105308 -0.14622737 0.053917576
-0.099349275 0.06687126 -0.020259198 0.076600805 0.008762414 -0.08562024 -0.016713932 0.027984472
0.08562811 0.10707373 0.0059819436 -0.017302219 0.12232763 -0.020328708 -0.0027136577 -0.023569258
0.10794061 0.092795886 0.039088413 0.004389292 -0.0058047865 -0.06571282 -0.0054544536 0.049370594
0.03366954 0.07637967 0.057998735 0.016636727 0.04018674 0.078417026 0.0033321606 0.13373661
0.022588007 0.036994595 0.07592965 -0.015367477 0.018545905 -0.048306655 -0.04851092 0.07067091
-0.015321516 -0.026020046 0.04331082 -0.08587547 0.07648378 0.13291161 -0.028386842 0.13398042
0.07194576 -0.04165309 -0.062124677 -0.12532115 -0.06303984 0.08055237 0.09926011 -0.08481595
-0.0020791483 0.12546957 -0.08345994 -0.024823057 -0.011167318 0.10188597 0.09565536 0.045088373
0.11419424 -0.025806226 -0.08022989 0.033635754 0.056988906 0.03247481 0.022310374 0.023416223
0.015391414 0.06940546 0.094823144 0.02904731 -0.0015178124 0.068503916 -0.042891324 0.06516036
0.13195886 0.11911888 -0.064090915 -0.0754707 -0.08816201 0.063989386 0.032902725 -0.043839626
0.018938355 0.088051364 0.05879246 0.08564224 -0.06371942 0.012388629 0.032969166 -0.022141686
-0.0042711706 -0.100370444 -0.012501902 0.10986359 0.047703877 0.10320682 -0.047130253 -0.025646048
-0.0045518335 0.08181619 -0.05278801 0.049122512 0.015474993 0.08394656 0.04016283 -0.026885362
-0.09844472 0.052499644 -0.09634865 0.03394866 -0.10555336 0.023009421 -0.018490115 -0.06382361

fc.f6.bias f4 [84]
00000000: e994 473d 074a da3d 3d76 4c3d 9095 0bbd
00000010: 598c 013c a08b be3d 119e 0a3b 16a0 b0bc
00000020: 7363 0b3e 4231 a03d 24e2 abbd 4c9a a6bd
00000030: d94f dcbc e4f7 ed3c 0ff2 82bd 46f3 003e
00000040: 1848 10bd 9973 523c 449f 953d 7de4 81bd
00000050: f9f8 bd3b 0983 5d3c 0fbc 993c 9cf5 b43d
00000060: 8e23 723b 6fef d33c 7e3b c83d 64c6 0e3d
00000070: 7b44 053d ce07 a63d b354 bb3d 6e11 c9bd
00000080: d64f abbd e179 9b3d 7604 f2bc 976e 463d
00000090: c683 2ebd 23bc 8c3d bd6d e33c ae42 eb3d
000000a0: 5762 3a3d a5d5 0dbd f8b2 40bc 2b13 f33c
000000b0: 7877 b9bd 309e 8ebd a100 70bd eb97 e43c
000000c0: 4805 2e3c 44cd d5bd 6fbb 1d3d 39f0 e23c
000000d0: 5638 193d e5a1 963c 5942 b83d bc67 963b
000000e0: 11c8 e3bb 18cc d63d f260 b33c 3b50 353d
000000f0: a986 cb3d b748 a93c b8e8 95bd 0bf7 9d3d
00000100: a3b0 413d 0d5c c53d c42a 08bd 703b 423d
00000110: 7e2a 2dbd 15e7 ff3c c427 56bd ca91 81bd
00000120: e04e 38bd 2600 f43d 83ef 0c3d cd9c 27bc
00000130: e86b 363d edc8 4b3d 7006 443c 7edf 0abb
00000140: 0f2a 033e f591 253d cd10 43bd 8e0e 7cbd
0.048725996 0.10658651 0.04991745 -0.03407818 0.007906997 0.09303975 0.0021151344 -0.02156071
0.13612156 0.07821895 -0.08392742 -0.081348985 -0.026893543 0.029048868 -0.06393825 0.12592801
-0.035225004 0.012844943 0.07305768 -0.06342409 0.005797502 0.013520011 0.018766431 0.08835909
0.0036947462 0.025871007 0.09776972 0.03485717 0.03253601 0.081069574 0.091470145 -0.098177776
-0.08364837 0.07591606 -0.029543143 0.04844531 -0.042606138 0.06871822 0.027762288 0.114873275
0.04550394 -0.034627575 -0.0117614195 0.029672226 -0.0905599 -0.069637656 -0.05859435 0.027904471
0.010621376 -0.10439542 0.03850883 0.027702438 0.03740724 0.018387744 0.0899703 0.004590003
-0.00695134 0.104881465 0.021896813 0.044265967 0.09937794 0.020664556 -0.07319778 0.07713135
0.047287595 0.09636698 -0.03324391 0.047419965 -0.04227685 0.031238118 -0.052284017 -0.06326635
-0.044997096 0.11914091 0.034408104 -0.010230255 0.0445365 0.049752165 0.011964425 -0.002119034
0.12809013 0.0404224 -0.047623444 -0.061537318

fc.f7.weight f4 [10, 84]
00000000: 505e 993c e0e0 05be 1cf0 81bd c307 46bd
00000010: db3f e63d 93b2 96bd 06b6 803d 2976 86bc
00000020: 7d69 cfbd edc7 48bd 452c b0bc 4390 a2bd
00000030: 1c9a 8a3c 48b5 f3bd 3274 823d 226e 393d
00000040: dcb2 9e3d cb98 813d fbd2 5dbd 7ccd 06be
00000050: 75d9 043e e42d 34bd d95a 23bc cdad 7dbd
00000060: 226d aabc 6d0f 81bc e471 fabb 4c4f c6bb
00000070: 6257 d2bd 8754 f1bc dd5d 10be d371 5cbd
00000080: 0727 4b3d d187 163e 5684 90bd 6542 fcbd
00000090: b2fc 60bd 4165 333d e162 c53d 9164 57bd
000000a0: 8ece d93d a393 913d a59f ccbc f517 053e
000000b0: abb8 0ebd ffe5 c0bd ed6f a9bd e5d9 49bc
000000c0: 430f f73c 143f a5bd aabc ff3c e81f 19bd
000000d0: 1a65 203d 221e 05be 5fd3 c8bd 9602 0c3d
000000e0: 82df 6bbd 9123 b83c e78c cf3d d559 363d
000000f0: 412a cabd cf6b 38be 1bfd 19bc 2855 223e
00000100: 573c bfbc 037c 5c3d ae12 bd3d 5a05 f1bd
00000110: 3c2c 5ebc 964c 03bc 3a2f 10be 3d6b abbc
00000120: 5f0c 71bd a4f7 643d 7715 b43c 788f 793d
00000130: 49dd b1bd 119a 13be 1278 08bd 8132 113d
00000140: f8c9 cebd a1bf a6bb 1277 6d3d 745d 2a3d
00000150: 155b 4bbe a047 903d 10b8 083e bebf 3cbc
00000160: dec6 923c 9348 13bd be23 613d a1ca 2bbe
00000170: ff16 d43d 56ae 9d3d 1730 80bd fb1d 5cbc
00000180: bb59 ba3d 783f 323e 2d39 ffbd d308 3a3e
00000190: 0def 923d 934f 833d 7764 86bd 8020 243e
000001a0: 0f73 053e 4085 f9bd f7e9 50bd 9937 97bd
000001b0: fa3b 76bc d07c 133d 5927 203c 9128 1abe
000001c0: 37d3 04be 238f d73d 262b b73c 80f6 a8bd
000001d0: e8a5 1abd 019c 473d 55bd e6bd d1db 423d
000001e0: 9b7a 8cbd 337e 00bd 195f 96bd 325d 1e3e
000001f0: 02ce f9bd 354a 2c3d cdc6 b4bd 7dde 1abe
00000200: 198a 14bd 1ce9 923d ec3e a3bd 4a31 fabd
00000210: b052 fcbc 2484 35be 70bf c83d cea6 c0bc
00000220: 642e 90bd 68ec 86bd 8e95 5f3d af64 b63c
00000230: 2d3d ffbc 58da cf3d 89ac 773c f67d 123e
00000240: ad33 0f3e d5ea cabd c9db 64bd d719 2abd
00000250: 82ba f6bd 11d9 fbbd 2653 cc3d 9d95 a5bd
00000260: 950a 3ebd 088c 0abe 550e 763d 26be 5cbe
00000270: 4efd 57bd a91b 103e 8020 00be 88bf a2bc
00000280: 92ef cb3d 5181 b4bd 0210 323d 6393 d1bd
00000290: 3e95 0abd d6e7 19be 086d 05bd f0df 15be
000002a0: 9ae9 e63c 3b7b dbbd cdec 5d3d feb5 0b3e
000002b0: 4fdd ac3d d4c4 e8bd bf3c 693d d69f debd
000002c0: df4c 24bd 0f4f 07bc 4f2b 34bd e697 4fbd
000002d0: 99fd 38be 1d96 d63d 0bb1 87bd 3457 afbc
000002e0: 76de 00be c731 b0bd 0e7f a53d 62d2 663d
000002f0: 8335 fc3c 8b49 16be f852 673c eb95 953c
00000300: 6272 e4bd 7240 7e3d aa17 23be 0eb5 943d
00000310: 1aed a53d ad78 12be 6900 b83b 17e3 36bd
00000320: a220 a9bd f453 e43d 0f5e ee3c 80f6 f63d
00000330: 039a a1bd a39d b7bb a195 8b3d 86fc 9bbd
00000340: 8ee4 ecbd c120 613c 1977 fd3d ce6a e9bd
00000350: fb06 b8bd 4d02 13be 91e0 193d 41e2 073e
00000360: 31cc 853d 5c52 0abd 86a7 5f3d ddef 093e
00000370: 6f1d 9d3d 22a5 19bb 1014 a33c 384c 08be
00000380: f396 62bd 09ee 803c ae5b 643d 6d5f b8bd
00000390: b60b 20bc d9e9 453d fdfa a6bd 043a b83d
000003a0: 5a8d db3d 564d bf3c ae1f 9ebd 12c4 cfbd
000003b0: 9e51 433d b60d 54bc 8a41 16bc 8314 f3bc
000003c0: 195f 383d a523 07be 42ca e23d a971 ee3d
000003d0: e73b c2bd e06c bb3d ab19 6e3d ba2a 5c3d
000003e0: 7e8d eebd 55c4 d6bd 505f 31bd 204d ae3d
000003f0: 9372 983d b17f e5bd 2922 e6bd 12da 933c
0.01872173 -0.13074064 -0.06344625 -0.048347246 0.11242648 -0.07358279 0.06284718 -0.016413765
-0.10127542 -0.04901879 -0.021505484 -0.07937672 0.016919188 -0.11899811 0.06369819 0.045271046
0.077489585 0.06327971 -0.054156285 -0.13164324 0.12973578 -0.043989077 -0.00997039 -0.061933327
-0.020803992 -0.015754426 -0.0076429714 -0.0060519334 -0.10270573 -0.029459251 -0.14098306 -0.05381949
0.049597766 0.14700247 -0.07056491 -0.12317351 -0.05492849 0.043797735 0.09638 -0.052586142
0.106351 0.071082376 -0.024978468 0.1299742 -0.03484408 -0.09418868 -0.08273301 -0.0123200165
0.030158645 -0.08068672 0.031217892 -0.037383944 0.039158918 -0.12999776 -0.09805941 0.034182154
-0.0575862 0.022477897 0.10134297 0.044519264 -0.098713405 -0.18009876 -0.009398724 0.15852797
-0.023344202 0.053829204 0.092320785 -0.11768599 -0.013560351 -0.008013865 -0.14080516 -0.020925159
-0.05884969 0.05590023 0.021982891 0.060927838 -0.08684785 -0.1441424 -0.033317633 0.035448555
-0.10097116 -0.005088762 0.057974882 0.04159303 -0.19858964 0.070449114 0.13351464 -0.011520324
0.017917093 -0.035957884 0.054965727 -0.16776516 0.10355949 0.076992676 -0.062591724 -0.013434882
0.09099146 0.17407024 -0.12462077 0.18167429 0.071745016 0.06411662 -0.06562131 0.16028023
0.13032173 -0.121836185 -0.051004376 -0.07383651 -0.015028948 0.036007702 0.009775006 -0.15054537
-0.12971197 0.10525348 0.022359442 -0.08250141 -0.037755877 0.04873276 -0.11266581 0.047572915
-0.06859323 -0.031370353 -0.07342357 0.15465239 -0.12197496 0.042062957 -0.08826981 -0.15123935
-0.036264513 0.07173368 -0.07970986 -0.122164324 -0.030801147 -0.17726189 0.09802139 -0.023517039
-0.07040098 -0.0658806 0.054585986 0.022264807 -0.0311571 0.10149068 0.015116819 0.14305863
0.13984556 -0.09908072 -0.055873666 -0.04152855 -0.12047292 -0.122972615 0.09976797 -0.08085177
-0.04639681 -0.1352998 0.06007226 -0.21556911 -0.052731805 0.14073052 -0.12512398 -0.01986672
0.09957804 -0.08813728 0.043472297 -0.1023319 -0.033833735 -0.15029845 -0.032574683 -0.14636207
0.028187562 -0.10716864 0.05418091 0.13643643 0.08440649 -0.11365667 0.056942698 -0.1087033
-0.040112372 -0.008258595 -0.043986615 -0.05068197 -0.1806549 0.104778506 -0.06625565 -0.021403886
-0.12584862 -0.08603244 0.080808744 0.05635298 0.030787235 -0.14676492 0.014118902 0.018259963
-0.11154629 0.06207318 -0.15926996 0.07261096 0.08101864 -0.14303847 0.0056152833 -0.044650164
-0.08258177 0.11148825 0.029097585 0.12058735 -0.078907035 -0.0056035086 0.06815649 -0.076165244
-0.11567031 0.013740719 0.12376232 -0.113973245 -0.089857064 -0.14356346 0.03756768 0.13269903
0.06533087 -0.03376995 0.054603122 0.13470407 0.0767163 -0.0023444374 0.019907027 -0.13310325
-0.055319738 0.015738504 0.055751495 -0.09002576 -0.009768417 0.048318718 -0.08153341 0.089954406
0.1072032 0.023352306 -0.07720886 -0.10144819 0.047685258 -0.012942722 -0.009170899 -0.029672867
0.045012567 -0.13197191 0.11073734 0.11642773 -0.09484082 0.09151626 0.058129948 0.053751685
-0.11648081 -0.10486666 -0.043303788 0.08510804 0.07443728 -0.11205996 -0.11236984 0.01804832

fc.f7.bias f4 [10]
00000000: 29d4 493b d0b5 113e 1d35 2bbd 59ac a83c
00000010: 3736 8bbd ef73 a13c 4eea d4bd ed43 b33d
00000020: b0a6 9ebd 4a95 b0bb
0.0030796623 0.14229512 -0.0417987 0.020589994 -0.0679745 0.019708602 -0.103962526 0.0875319
-0.07746637 -0.0053888904
