Lenet-5_mnist/model/4_model.pkl (torch, 250431 bytes, 10 tensors)

convnet.c1.weight f4 [6, 1, 5, 5]
00000000: 6216 1dbd 02bf 4dbe a592 c2bd 3b1a 973d
00000010: 705b 4e3e fce3 c5bd b290 4a3e 9750 bbbd
00000020: 4368 bdbd f5bf e03d fb23 d1bd 8083 823e
00000030: d217 ae3c eeeb 703e 743c bfbd bd8e 0d3e
00000040: 5b4a a43e d5bf 4d3e d0ad 8b3e d260 db3d
00000050: 5e76 633d 8b12 683d 7779 893e a31f 443e
00000060: 6017 713d 5a5b c8bb c742 4ebe dc1f c2be
00000070: 84e9 abbe 26e0 81be 44e2 343e 79e3 12be
00000080: 875a b33d 7d81 84be 2962 2fbe 6f9b bc3d
00000090: 8353 9f3e 90e1 b3bc fca0 2d3d 35c3 e43b
000000a0: 9d49 d53c c61b 623e 6906 853e 286e 5a3e
000000b0: 3cd2 543e 27ad 153e c35d 4f3d 180a 563e
000000c0: d744 403d a292 873e 5c2d 3f3e 9242 4cbe
000000d0: ec5b 943d ca9f ca3d a6e6 27bc 3f1a 683e
000000e0: 039b 3bbe f381 ce3d 0461 c1bd aaf5 3a3e
000000f0: c2a6 873c 212e adbc b57e 363e 1e2d 5b3e
00000100: bc8c 3d3e 3003 f73d c024 013e ec21 febd
00000110: ee51 803e bbe6 103e ec75 5a3e dd49 253e
00000120: 6d2d 74be 2c34 60be 929a fb3b 3dfa 153d
00000130: 4d33 433e f607 c13d 6c1e 743e 9ce6 873e
00000140: 88fa 85bd 6f5a 8a3e a459 6f3e 1c36 fa3d
00000150: 4d14 1b3e a8c6 8abd 64c4 773e 6742 bdbc
00000160: 8689 acbd 705f a43d e84b c5bc 0754 87bd
00000170: 7d66 1a3b 9093 2dbe 25cd 1abd 057d cabc
00000180: 0352 e33d 7d1a 30be 15cc 623d ea6f d8bb
00000190: 7dcd 9a3e fe98 a33e 1b8f a9bc 5f8d c13d
000001a0: ad78 a1be 5631 cc3d 8a54 013e b4ba df3d
000001b0: 6bb4 dfbd b6ab 9ebe ea10 083e 5f3d a53e
000001c0: c58a 8f3d c27b a3be a4cb 88be ee62 c43d
000001d0: 33c4 e53d 358d e03d 4a1a 22be c7de 51be
000001e0: 5d93 633e 0cc6 803e d04d fcbc bcf1 94be
000001f0: a5ab 18be 797b 0c3e dcc7 973e d3ed 283e
00000200: 84d8 483e 4163 cc3e 1ee0 cd3d 84d0 c23e
00000210: eb5a 903e ef06 423d 29a0 813c a470 343d
00000220: 3c6f 16be 4251 afbd fc31 d33d 0540 c53c
00000230: 9c69 b6bc 39c9 a2be df83 31be c8e8 49be
00000240: b15f 9ebe 74ea bebe 39b1 6abe ad09 8dbe
00000250: 7611 a0be a34c c33d
-0.038351424 -0.20092395 -0.095006265 0.0737805 0.20152068 -0.09662625 0.1978176 -0.09146231
-0.09248402 0.10974113 -0.10211941 0.25490952 0.021251593 0.235275 -0.093377024 0.13823982
0.3208798 0.2009271 0.27281046 0.107118264 0.055532806 0.05665831 0.26850483 0.19152693
0.058860183 -0.0061144056 -0.20142661 -0.37914932 -0.33576596 -0.25366324 0.17664438 -0.14344586
0.08757501 -0.25880042 -0.17127289 0.09209334 0.31118402 -0.021958143 0.042389855 0.0069812783
0.026036078 0.22080907 0.25981453 0.21331084 0.20783323 0.14616834 0.050626528 0.20902288
0.04694065 0.2647906 0.18669647 -0.1994727 0.07244095 0.098937586 -0.010247862 0.22666262
-0.18320851 0.100833796 -0.094423324 0.18257776 0.016559009 -0.02114016 0.17821772 0.2140393
0.18510717 0.12061155 0.12611675 -0.12408814 0.25062507 0.14150517 0.21334046 0.16141458
-0.23845454 -0.21894902 0.0076783383 0.0366156 0.19062538 0.094253466 0.2383973 0.26543128
-0.06541926 0.2702212 0.23374039 0.12217352 0.15144463 -0.06776172 0.24196011 -0.023102952
-0.08424668 0.08026016 -0.024084046 -0.06607824 0.0023559623 -0.16950822 -0.037793297 -0.024717817
0.11099627 -0.17197604 0.05537041 -0.006605138 0.302349 0.3195266 -0.02069812 0.094507925
-0.3153738 0.099703476 0.12629905 0.10924283 -0.10923084 -0.3099038 0.13287702 0.32273385
0.0700889 -0.31930357 -0.26717865 0.09589182 0.11219063 0.10964433 -0.15830341 -0.20495139
0.22224183 0.25151098 -0.030798823 -0.2909068 -0.14909227 0.13718976 0.29644668 0.16496973
0.19613844 0.39919475 0.100525126 0.3804971 0.28194365 0.047369894 0.01582344 0.044052735
-0.1469087 -0.085604206 0.10312268 0.024078378 -0.022267155 -0.31794146 -0.17335461 -0.19717705
-0.30932382 -0.3728825 -0.22919168 -0.27546445 -0.31263322 0.09536102

convnet.c1.bias f4 [6]
00000000: 32be 81bb 07fd 8539 e95b 31bd 60b4 923c
00000010: 972d a33d 5da2 013e
-0.0039594406 0.00025556257 -0.043300543 0.017908275 0.0796768 0.12659593

convnet.c3.weight f4 [16, 6, 5, 5]
00000000: 1e4e 4abc 0a16 be3d aa08 cb3d a273 fd3d
00000010: a861 a5bd e811 aebc 8b4a 86ba 2964 fe3d
00000020: 9697 8d3d e721 6bbd 3085 4dbd 7958 1c3d
00000030: 4237 ca3d 2c7b 473d 8fed 7bbd e756 283d
00000040: 253d 073e 50e0 d33d 9f49 b7bc 981d 423d
00000050: 2bb8 433d abd1 863d 2495 923d 384e fabd
00000060: d8f7 3bbe acd0 c73d 2da9 603d 5497 0f3d
00000070: 5dfd 433d b382 03be b964 30bd 6bf8 f2bd
00000080: 296f f9bd 39e3 b5bd 9233 3fbe 4609 58bd
00000090: 71f1 0cbe a69d d1bd 4641 16be f22b 273c
000000a0: 71de 15bd e380 69be 23e3 c0bd d0b8 bcbc
000000b0: b52b a23d 9ff0 2abe d14c 8abe 8748 7cbe
000000c0: 691d f0bd 02cf bfbd 3b90 7a3b ad33 ab3c
000000d0: 1b4a 6cbc ccfd d33d 5156 bc3d ae56 b13d
000000e0: 08a2 9abd c2b3 74bd 895b 9a3d 6e18 32bd
000000f0: 2aa5 11be ad86 713d ca5e 313c 9de7 ff3d
00000100: 53c7 053d ce31 ffbd ee67 d23d a246 e33d
00000110: 8d49 2a3e ddea ba3d 8242 933c e010 2c3d
00000120: 25f3 e13d fe10 bd3c cef4 913d 38fe 1c3d
00000130: 5753 57bc 4027 253d 35a2 e8bc 14bf 85bd
00000140: 9ebc fa3d c787 a43d 8c9a 0f3e 6387 5d3a
00000150: 0aba e4bb 911e 70bd 6559 343d a405 f13d
00000160: 4853 653d e03b 44bd 6a1d b83c ae80 acba
00000170: 8e58 723d c946 183d 42fc 253c 609e 8bbc
00000180: 03c6 1a3d 7a63 613d 1cbd 1abb e64b 3b3d
00000190: 52f2 02be ca2b 01be f3cb 203c 85ea 433d
000001a0: f28c f43d 5fea 76bd 4f75 f0bd bcb5 db3d
000001b0: e177 b73d 419c 683d 948c 51be d5d7 5fbe
000001c0: c63a a63d e727 0a3e 387d d23d 6a95 88be
000001d0: 2ba5 2fbe a6b5 e13d ec87 4a3e f1e1 bb3d
000001e0: a642 51be 08dd 10bd 7842 223e 9912 713d
000001f0: 4532 7f3d 1e53 ab3d cd4e c1bc 039b 66be
00000200: fade 14be 576d 1d3d 8c04 163e bd35 173d
00000210: 734b 6abe c68e 92be 2fe6 98bb 75e2 ec3d
00000220: 3cc9 49be 106e 68be 2a2d 49be b3af 04be
00000230: 518d 7cbd ee50 39be 3f56 83be 1c61 54be
00000240: f15f d43b 536e 75bd dd07 4fbd 0b9a ddbd
00000250: 2e91 1c3d 6ced 233e 3a61 0b3d 1262 f03c
00000260: 4752 f8bc 413c 49bd bc05 cdbd b4a6 253d
00000270: 49d0 9e3d 5531 2f3d 68db 29bd 0156 a3bc
00000280: bcb1 ad3d f8dc b83d dc88 13bc ed30 983d
00000290: 231e d23c b0ed 25bd 41d8 f23d 37ba 7c3c
000002a0: 8d64 373d aea7 5fbc 9ef9 28be 2b5e e1bd
000002b0: 9d13 20be cffb 19be 3e6c c6bd 1fca 833d
000002c0: 6eeb 083e 74f6 0b3e b1a1 a23d 5714 e23d
000002d0: 13a0 123d a045 273c 2cd3 0fbe 477d 61bd
000002e0: f503 06bd 2688 d7bb 4318 0a3e 7ab2 dd3d
000002f0: 42b4 733d 92d9 263c 0e1b f3bd 0458 143e
00000300: 7b96 823e df81 213e 4076 de3d bcfe 62be
00000310: 7acf 38bd 738a 5cbd a9da 40bc c199 0b3d
00000320: a3a1 603d a38f d33d e4d5 653d d5ad 553d
00000330: 0e60 a0bd 0000 78bd 17a2 c03d 16bc e93d
00000340: 37b6 db3c 764a dabc 2d7f 6bbd 33b4 293d
00000350: 0da1 913d dee1 febc 0580 a83d 7fda 133d
00000360: b201 033d d67b f83d f3c5 063d 0807 29bc
00000370: 2a98 a03a 85b6 9cbc 38d6 b43d 25ae 2abd
00000380: 40a2 1dbd b629 33bd 9448 5f3d 5925 bdbd
00000390: 46ff e6bd f112 d5bd 4e57 15bd d580 f43d
000003a0: 09bb ebbc 3400 00bd f264 353d 1038 203d
000003b0: 78f9 813d e1fa 2b3c 1c01 8c3c 84ac 28bd
000003c0: 9902 7e3c 05e9 853d c4d7 7abd 7db9 38bc
000003d0: 4e57 96bd a518 6c3d 9c44 0f3d ada3 7e3c
000003e0: 5cff 9b3d 96b7 013d 2359 eb3d 7056 e03c
000003f0: 5651 ebbd e77c bc3b c1b5 50bc e547 f53d
-0.012347726 0.09281547 0.09913762 0.12375571 -0.08075267 -0.021248773 -0.0010245604 0.12421448
0.06913678 -0.05740538 -0.050175846 0.03817031 0.09873821 0.04870145 -0.06150585 0.0410985
0.13206919 0.103455186 -0.022373972 0.047391504 0.047783058 0.0658296 0.071573526 -0.1222195
-0.18356264 0.09756598 0.05484884 0.035056427 0.047849048 -0.12842827 -0.043064807 -0.11863788
-0.12179405 -0.0888123 -0.18672016 -0.05274322 -0.13763978 -0.10235147 -0.14673337 0.0102033485
-0.03658909 -0.22803073 -0.09418323 -0.023037344 0.07918493 -0.16693352 -0.2701173 -0.24637042
-0.117243595 -0.093656555 0.003823294 0.020898664 -0.014421965 0.10351142 0.09196151 0.08659111
-0.07550436 -0.059741743 0.0753699 -0.04348033 -0.14223161 0.058966327 0.010825822 0.124953486
0.032660794 -0.12460671 0.10273729 0.110974565 0.1662962 0.09126828 0.01797605 0.04200828
0.11032704 0.023079392 0.07126771 0.03832838 -0.013142428 0.040320635 -0.028397659 -0.06530586
0.12243007 0.0803371 0.14023799 0.0008450655 -0.0069801854 -0.0586229 0.044030566 0.11768654
0.055987626 -0.047908664 0.022474963 -0.0013160908 0.059166484 0.03717688 0.010130944 -0.017043293
0.037786495 0.05502651 -0.0023611253 0.04572668 -0.1278775 -0.1261436 0.00981425 0.047831077
0.11940946 -0.060282107 -0.11741125 0.107280225 0.08958412 0.05678964 -0.20463783 -0.21859677
0.08116679 0.13491784 0.1027779 -0.26676494 -0.1715285 0.11020975 0.19778413 0.09173954
-0.2043558 -0.03536704 0.15845668 0.058855627 0.0623038 0.08365463 -0.023597145 -0.2252007
-0.14538184 0.038434353 0.14650172 0.036916483 -0.22880344 -0.28624552 -0.004666112 0.11566631
-0.19705671 -0.22698236 -0.19646135 -0.12957649 -0.061658207 -0.18097278 -0.25651738 -0.2074017
0.0064811637 -0.059919666 -0.05054461 -0.10820397 0.03822439 0.16008538 0.03402827 0.029343639
-0.03031267 -0.04912973 -0.10010859 0.040442184 0.07754571 0.042771656 -0.041469008 -0.01993847
0.08481166 0.090265214 -0.009004798 0.07431207 0.025649136 -0.04050988 0.118576534 0.015425256
0.044773627 -0.013650818 -0.16501471 -0.11004289 -0.15632482 -0.15037464 -0.09688614 0.06435036
0.1337106 0.13668233 0.079409964 0.11039036 0.03579719 0.010209471 -0.140454 -0.055051114
-0.032718617 -0.0065775095 0.13485818 0.10825057 0.05949808 0.010183709 -0.11870395 0.144867
0.25505432 0.15772198 0.10862398 -0.22167486 -0.04511974 -0.053842973 -0.011770883 0.034082178
0.05484165 0.10330131 0.056112185 0.052167732 -0.07830821 -0.060546875 0.09405916 0.11412828
0.026820285 -0.026646834 -0.05749433 0.041431617 0.07110796 -0.031113561 0.08227543 0.036097046
0.03198404 0.12132995 0.032903623 -0.010316618 0.001225238 -0.01913 0.088299215 -0.041669983
-0.03848481 -0.04374095 0.054512575 -0.09235639 -0.11279158 -0.104040034 -0.036460213 0.11938635
-0.028775709 -0.031250194 0.044285722 0.039115965 0.063464105 0.010496826 0.017090373 -0.04118015
0.015503549 0.065385856 -0.061240926 -0.011274693 -0.07340871 0.05764069 0.03497754 0.015541953
0.07617065 0.03166922 0.11491611 0.027384967 -0.11490123 0.005752194 -0.012738646 0.119766034

convnet.c3.bias f4 [16]
00000000: 14f7 24bd 60f5 e6bd 9ad3 6a3d 0b64 183d
00000010: c974 90bd cc27 373d 96b3 613d 507e 65bb
00000020: b00b 80bd 11e5 19bc bc9a 88bc 9cef 933d
00000030: 000d 7e3c c7cf ef3d 2177 bf3c 8371 98bc
-0.040274695 -0.1127727 0.057330705 0.037204783 -0.07053525 0.044715688 0.055102907 -0.0035017915
-0.06252229 -0.009392993 -0.016675346 0.07223436 0.015506029 0.11709552 0.023372235 -0.018608814

convnet.c5.weight f4 [120, 16, 5, 5]
00000000: b5be 173c b05f 043d 4656 0dbd a14d 703d
00000010: 902a e03c 03a8 1ebd eae5 b4bd 6075 e5bc
00000020: 322b f43b 40f0 6d3d 0595 84bd 00d1 82bc
00000030: f843 043d 7ad0 74bc 2d75 dfbd 5850 80bd
00000040: c088 ce3b 693f 043d 84db debb 4fa8 84bd
00000050: 5344 f13d 102c 933c 74a1 62bd 8c53 a4bd
00000060: 52fc 2dbd 544f 42bc 900f 103d 7743 7b3c
00000070: 52f2 0ebd 776a 333d d8e7 4dbd 9a7f 923c
00000080: 599c a8bc baf0 f3ba 9a65 243d 6170 55bd
00000090: f901 9ebc fe23 60bd 7a57 423d 3adc 10bc
000000a0: bad3 b2bd 7af6 82bd ce92 ee39 0680 463d
000000b0: bc53 1d3c b2d0 573d 042a eb3d 69b1 543d
000000c0: 6532 c93d 7ac9 b3bc beb8 1f3c 400a 013c
000000d0: 6a05 853d 276e 913d c984 a7bc 0ebd 173c
000000e0: aa16 893c 4562 063d e7a1 98bc d48f 7bbd
000000f0: 0ffe 47bc 5ba6 513c 0ec5 40bc 070b 993c
00000100: 2806 5dbd 910e 123d f52c 913d a213 393d
00000110: 5e29 20bd a76d 83bc 4b7a a23c 5710 303d
00000120: 9724 47bd c886 11bc 6b5f 01bc 064b 443d
00000130: 3612 323d 2236 303d e20f 4fbd 54e4 50bd
00000140: 5909 26bc 61c5 b93c cbc0 3bbd d8e7 a0bd
00000150: ea26 dabd b175 9b3d 85ce 023d 58e1 0c3c
00000160: c35e 483c dd88 743c 8cec 03bc 4aa5 47bd
00000170: bd52 f1bd 4db2 823c 2a37 743d 9b73 f53c
00000180: a44b 67bd 9586 983d 7574 2e3e 4d0f 8e3d
00000190: 2e37 ae3c 8b5f 323d 2133 1ebc 9c73 5ebc
000001a0: 4f7e 3cbd e643 17bd f9d2 dc3c a760 56bd
000001b0: b4db 41bc 3491 d53c 3296 ac3c 73e7 b6bc
000001c0: 96f2 30bd 4701 a4bc bee1 50bd 8a5f a6bc
000001d0: e04f 743c f659 653d 33a7 173d d84e 083d
000001e0: 06a7 82bc 910c 383d b0c1 85bb a8ba 2e3c
000001f0: 20ae 49bb 945b c63d 4803 b2bb 5934 c33c
00000200: e7e5 a93d 5eed d5ba cae9 bd3d 9e15 5f3d
00000210: cb56 25bb c7c5 bfbc a0a0 8bbd 56e2 6d3d
00000220: 4e7b 9a3c c219 83bd 4864 01bd f730 6c3d
00000230: def5 803d 5ffd fbbc 3672 0d3c cca8 8d3d
00000240: db2b 25bd 277d edbc 74d0 613d 4ed6 08bc
00000250: 4f6e 34ba e8bd 1b3d 30b0 84bb e702 c33c
00000260: c0ce 93bd 3a85 f0bc 169f 8d3d d65e 7a3d
00000270: 181a 34bd b133 8dbd d357 8a3d f50e 4abc
00000280: a6b1 833d 4423 423d b1fa 08bd 735c 283c
00000290: cda6 49bd ce5a bcbd 5cbb 16bd b939 56bd
000002a0: 37ca 8f3d 38d4 623d c1e7 0fbe 29bf c13b
000002b0: 686d ea3c da00 c63d 5779 803d c4e0 e0bc
000002c0: 9597 583d 1a9f df3d 33be 093d 7d38 38bc
000002d0: 6694 073d f4ab 20bd a404 88bd e4e2 1bbd
000002e0: 7aba 6ebd 5c3b c7bc 5173 6cbd cf85 a13c
000002f0: 0972 be3b 20f1 7abc 18b1 8fbd 8527 b3bc
00000300: bb63 033d 6098 e23a fc9b d5bc a0aa 3f3d
00000310: 5f1a 94bc 6976 593d ce2d 853d 836e 05bc
00000320: 40d4 81bc 60c5 353d 927c 863d b851 bf3c
00000330: a71a 4c3d 7d50 bd3b e44a ca3b d453 053c
00000340: 9c0e 803c 2cfa c53c 3b16 f3bc 550a a73c
00000350: ece0 4a3d 3db2 f9bb 4709 dbbc 9192 a7bd
00000360: 8b5e 0d3a c514 12bc 96a9 2a3d 9fb4 7c3b
00000370: 0599 16bc b48b 1f3d fd89 5cbb 27b7 b93c
00000380: 70d3 eeba c19a 6b3d d1be 993d b427 ac3d
00000390: 55d6 72bc 513f ed3c 47db 343d a0bc 583a
000003a0: d847 ecbd 4168 d9bd edee 45bd c5a3 9abb
000003b0: 0dca 203a 71f0 383c 5a78 00bc 39f8 a93d
000003c0: aef8 06be d0b3 8dbc 1349 84bd 9d22 44bd
000003d0: b4e5 403d 582a e53c ccbb e33c dbb0 a13b
000003e0: 205f 183d c86e b73d d05c be3d 7be8 b83d
000003f0: 7b5b 6a3c 764c b8bd 0cbb 68bd 279c 993d
0.009261777 0.032317817 -0.034506105 0.058667783 0.027364045 -0.038734447 -0.08832915 -0.02801007
0.0074514383 0.05809045 -0.06473736 -0.0159688 0.032291383 -0.014942283 -0.109110214 -0.06265324
0.006302923 0.032287035 -0.0068010706 -0.06477415 0.1178061 0.017965347 -0.055329755 -0.08023748
-0.04247696 -0.011859734 0.03517109 0.015335909 -0.034899063 0.043802705 -0.05026993 0.01788311
-0.020582365 -0.0018611171 0.040135957 -0.052109126 -0.01928805 -0.054721825 0.047446705 -0.008841569
-0.0873179 -0.06394668 0.00045504275 0.048461936 0.009602483 0.05268926 0.11482623 0.051927004
0.09824065 -0.021946657 0.009748636 0.007875979 0.06495173 0.07101088 -0.02044906 0.009261383
0.01673444 0.03280856 -0.018631889 -0.061416462 -0.012206568 0.01279601 -0.0117657315 0.018682016
-0.05396095 0.035658423 0.07088653 0.04518474 -0.03910195 -0.016043497 0.019833704 0.042984333
-0.04861888 -0.008882232 -0.007896285 0.04792311 0.0434744 0.043020375 -0.050552256 -0.050999
-0.010134065 0.022677125 -0.04583816 -0.07856721 -0.106519535 0.07590807 0.031935234 0.008598648
0.012229624 0.014925209 -0.008052003 -0.048741616 -0.11783359 0.015954161 0.05962292 0.029962352
-0.05646862 0.074475445 0.17036612 0.06936512 0.021266546 0.043548148 -0.009655745 -0.013577368
-0.046018895 -0.036929987 0.026956068 -0.05233827 -0.011832166 0.026070215 0.021067712 -0.02232716
-0.043200098 -0.02002014 -0.050996535 -0.020309228 0.014911622 0.055993997 0.037024688 0.033278316
-0.015948784 0.04493386 -0.0040819272 0.0106646195 -0.0030773953 0.09685436 -0.00543252 0.023828672
0.082958035 -0.0016321351 0.09273107 0.054463975 -0.0025228735 -0.023409737 -0.06817746 0.05807718
0.018857624 -0.06401397 -0.031589776 0.057663884 0.062968954 -0.030760465 0.008633187 0.06916961
-0.040325027 -0.028990341 0.055130437 -0.0083518755 -0.00068828923 0.038022906 -0.0040493235 0.023805095
-0.07217169 -0.029360402 0.06915109 0.0611256 -0.043970197 -0.06894625 0.067550324 -0.012332668
0.06430368 0.047396913 -0.033442203 0.010275948 -0.04923134 -0.09197007 -0.036799774 -0.052301142
0.07020991 0.05537817 -0.14053251 0.0059126806 0.028616622 0.09668131 0.06273144 -0.027450927
0.052878935 0.10919018 0.033628654 -0.011243937 0.03310051 -0.039226487 -0.0664151 -0.038058177
-0.058283307 -0.024320297 -0.05772716 0.019717125 0.005811934 -0.015316278 -0.070162 -0.02186943
0.032077532 0.0017287843 -0.026075356 0.04679358 -0.018078981 0.05309144 0.06502877 -0.008144024
-0.015848279 0.044377685 0.06566729 0.023354396 0.049830105 0.005777417 0.0061734784 0.008137662
0.015631966 0.024167143 -0.029673686 0.020390669 0.04953091 -0.0076201246 -0.026737822 -0.08182252
0.0005392811 -0.008916085 0.041665636 0.0038559807 -0.009191756 0.03895159 -0.0033651583 0.022670342
-0.0018220972 0.05752063 0.075070985 0.0840601 -0.014821609 0.028960856 0.04415443 0.00082678534
-0.115371406 -0.10615588 -0.04832356 -0.00471923 0.00061336235 0.011287794 -0.007841194 0.08299298
-0.13180801 -0.017297655 -0.0645925 -0.047884572 0.047094062 0.027974293 0.02779951 0.004934413
0.037200093 0.08956677 0.09295046 0.09028717 0.014304037 -0.08998959 -0.056819007 0.07500487

convnet.c5.bias f4 [120]
00000000: 032e 21bc 3ce1 31bc 53e2 d33b 61fd dabc
00000010: 07a3 293d 44db d83c 5fd6 2fbd ebd2 5e3b
00000020: 78e7 d8bc 7f43 c63c e0dd c1bc bd34 da3c
00000030: 6c8c 7f3c 169e 4abd 0d0f 163c 4723 993d
00000040: 2b08 323d ebf7 f93c 44c4 013d 6c28 633c
00000050: 8599 cebc 762b 11bb 0d1d 33bc 53b9 43bc
00000060: 6998 b53d 02dd 923c d81e be3c 9c6f 68bc
00000070: 86ac c2bc a4ee 443b 238d d6bc d221 3c3d
00000080: 7cbe b3bb 7c95 e7bb 9ac7 8d3d a84c 533d
00000090: 2a9d d7bc af79 c0bd 7a26 29bd aa7c 423d
000000a0: a2ca cebc 2f24 04bd e7fc de3c 15f1 953d
000000b0: b91a 3abd 25eb 99bc 120a 663d 16f5 a53d
000000c0: 7b3f 973b 4978 7abc 0316 a0bb 1bd4 ac3d
000000d0: 2229 bcbc 3d1b 25bd 4edd bdb8 004f d53a
000000e0: 21d7 cfbd d5c8 a53c a70a 0d3b 041a 403d
000000f0: 0ba2 6abd 5230 e93d c08d 9d3c 37c4 573d
00000100: e104 323d 919f 033d 1836 cebc 877e 55bd
00000110: 3d65 1fbd 6cd6 02bb a9a4 80bc 0eac 82bb
00000120: 8f03 a13c 544a e83c 5e85 afbc 254c fd3c
00000130: bed2 e13d 0972 4abd 2055 ddbc cb7d 58bb
00000140: 06bb b6bb 6d02 ecbc 94a9 8b3c 02b7 8ebb
00000150: 0330 a53d a136 7d3d 8ab8 30bd 3fcf aa3d
00000160: b010 363c 6d04 153d 7ab3 223d 9ecb 76bc
00000170: 8232 7d3c a0c7 e7b9 a434 5b3c e6b4 5dbd
00000180: c24e 2c3d 3442 14bb 255a 97ba dc28 f23c
00000190: 6d58 a5bc 340a 6bbd cd4b 513b 9901 ac3d
000001a0: 4dc8 15bd 56f8 813d 84ae 72bd adc4 d63c
000001b0: 44f9 80bb d266 893d 0ebb 263c 1737 11bc
000001c0: 91f0 80bc edb8 4fbb e1f9 633c 69cd a23a
000001d0: 8005 9a3b 6b57 2d3b febc 703c 2dc9 543c
-0.00983763 -0.010856923 0.006466189 -0.026732149 0.04141524 0.026471741 -0.04292905 0.0034000229
-0.02647756 0.024202107 -0.023665369 0.026636476 0.015597444 -0.04946717 0.009158862 0.07477432
0.04346482 0.030513724 0.031681314 0.013864618 -0.025219688 -0.002215115 -0.010932219 -0.01194604
0.088669606 0.01792765 0.023208067 -0.014186766 -0.023763906 0.0030049467 -0.026190346 0.04593069
-0.005485354 -0.0070673805 0.069228366 0.051586777 -0.026320059 -0.09398209 -0.04129646 0.04748217
-0.025243107 -0.03226107 0.027220203 0.073213734 -0.04543564 -0.018788883 0.056161948 0.08103387
0.0046157218 -0.015287467 -0.0048854365 0.084388934 -0.022968832 -0.04030918 -9.0534435e-05 0.0016274154
-0.101484545 0.020237366 0.0021521242 0.04689981 -0.057283442 0.113861695 0.01923263 0.05267736
0.043461684 0.032134596 -0.025172278 -0.05212262 -0.038914908 -0.0019964231 -0.015703516 -0.0039877957
0.019655017 0.028355755 -0.0214259 0.030920098 0.11026524 -0.04942516 -0.02701813 -0.0033033963
-0.005576494 -0.02880975 0.017048635 -0.0043553123 0.08065798 0.061819676 -0.04314474 0.0834031
0.011112377 0.036381174 0.039721943 -0.015063195 0.0154539365 -0.00044208486 0.01337925 -0.054127596
0.042067297 -0.0022622468 -0.0011547251 0.029560499 -0.020183766 -0.057382777 0.003193605 0.08398742
-0.036567975 0.063461944 -0.059248462 0.02621683 -0.003935965 0.067090645 0.010176433 -0.008863232
-0.015739711 -0.0031695918 0.013914556 0.0012420836 0.0047003627 0.002644981 0.014693497 0.012987417

fc.f6.weight f4 [84, 120]
00000000: b302 2abd d515 a7bc a603 90b9 a1ac f43d
00000010: 96ec 153e 8800 3f3c e9df 3abd d170 dc3c
00000020: ec37 2cbb 1fd3 90bd 2931 23b9 1fd7 0ebe
00000030: 3420 33bd 0200 023d 0c31 503c fe31 dc3d
00000040: 1db6 f13d 1309 0c3c b3e4 f2bc bcfe 1b3c
00000050: 3b41 a9bd 0b88 3c3e 8a5c eb3d 2745 c2bd
00000060: 142c 00be bed1 b23d 1a53 90bd 108d 0f3e
00000070: 627c 0f3e 2f70 8cbd dc41 ae3d fe65 d93d
00000080: 4275 d23d 2d51 e0bd ca12 80bd 9195 38be
00000090: f8f2 403b 74b0 67bd c0c2 6b3c 7e0e e43d
000000a0: d5b0 333d c296 a6bd d8bd 983d 44d6 053e
000000b0: 014e cf3d 9b14 733c 9375 b93d bfcf 4ebc
000000c0: 00a3 373d 3883 a63d 040b cfb7 9fcc b6bd
000000d0: 53bb 79bd ac19 37bd 620c 6f3a e804 9c3d
000000e0: a83d 043e fdaf f4bc 88b4 553d 5304 c83d
000000f0: d660 48bd 7205 873d 483f d8bd f691 a43b
00000100: a589 073e ad16 9f3c d781 183c 2cc7 383d
00000110: 45d9 c93b 2abb ff3d b3b8 9a3c 88e3 133e
00000120: 58a8 503c 3582 a4bc 3d33 36bd f348 313a
00000130: 6c33 203d bf81 55be c1cd 40bb e47c 57bd
00000140: 10ad c03d 405e 27bd e18a d3ba b603 8bbc
00000150: f3b5 a63d 498d 843d 1dca d83d dac6 903d
00000160: 0f96 95bd 713d 883d 340f 8fbc 38f9 7dbd
00000170: 0a1f 8d3d 59ac 3f3c 7ade a8bd 79c6 c83d
00000180: 4fc6 a2bc 0b89 0f3d 68cd acbd 86d2 953d
00000190: 6fa1 11bd ae07 8cbb 1403 99bc e835 bf3c
000001a0: ef4e 8a3d a602 903d ded2 9bbd c07c 133b
000001b0: 7eb0 a9bc 5514 f53c 17f2 bb3c 084d 553d
000001c0: c1c8 523d 8fe9 023e 18ce e5bc f266 bf3d
000001d0: 6b47 6d3d 4a8a 38be f866 503d 961e 203e
000001e0: df2c 6abd c93e 03bd 771c 84bd 2871 dfbd
000001f0: 9d87 c0bc 8dba e63d fedf 063e d399 debc
00000200: 4004 603d 4201 a0bc 6e15 0e39 8047 59bd
00000210: c6b3 cbbd 318f 30bd 1c9b 25be 9723 6e3d
00000220: 0373 c6bd 1abe 743d 909b 7dbc f43e 8d3d
00000230: 3a90 0f3c 6f17 c4bd 3068 16bc 6805 dc3c
00000240: 5b93 bc3d 4e12 db3d d28a 5d3c f9cd 94bc
00000250: 318b 053e 54c9 eebc 99f7 20bc 6e55 ebbc
00000260: ce16 e53d d37d d03d 431b 153d f6cb 913c
00000270: 1436 bebb 1869 90bd 46bb b2bb 3e79 253d
00000280: 12e9 093d f26c 9c3d 4d46 533d 2129 b13c
00000290: da9a 243d a9ee 953d 563c 6d3b 8f33 0b3e
000002a0: f57b 743c 3375 273d dae4 ac3d 0fec 21bc
000002b0: 201d 8c3a 5e73 65bd d76e 47bd 5eee 933d
000002c0: 48cb 9abd d9d2 3ebd b066 313d 7260 a8bd
000002d0: 0fff 8e3d 9966 273e 3fac 18bd b2df 143e
000002e0: 322b 8d3d 6e9c 2abd 7276 7ebd 0920 18be
000002f0: 081b 81bd 0342 9a3d 9884 bf3d 9329 b6bd
00000300: 4b30 4cbb cc80 203e 2bd9 5fbd 8268 2c3c
00000310: 92d2 1bbc b0a3 063e f5e6 c33d 96ae 383d
00000320: 4d4f ea3d 9467 d3bc b3da 9bbd 679b 373d
00000330: df6b 8f3d 7c17 163d 02a1 073d 2fe1 0b3d
00000340: ebe2 823c a3a0 a73d 391b e43d a0f4 ed3c
00000350: 55f1 c6ba c84b 8c3d 4f81 4dbd cb72 853d
00000360: 3969 1f3e f979 f23d 5d88 8dbd d685 cabd
00000370: c0ee a8bd de0c 833d 6201 073d 7860 2ebd
00000380: 9c24 9b3c 0b1c b33d 5dd0 703d 98e3 b73d
00000390: 547f 82bd 4798 873c ad0a 073d 7b62 b5bc
000003a0: e8af b137 2b1d efbd be8e 80bc 7bfc e53d
000003b0: 557a 203d 3412 083e a70b 41bd 371d b9bc
000003c0: 60c2 1bbc 3f8f a73d c462 5bbd d1ac 153d
000003d0: 562d 213c d647 963d 4ddc 273d b13e dcbc
000003e0: 639d c9bd 2f8e 763d bcd0 cfbd eb6e c53c
000003f0: 187a b1bd 417e bc3c 8e52 23bc 9c2f a5bd
-0.04150648 -0.020396153 -0.0002746854 0.11946989 0.14641032 0.0116578415 -0.045623694 0.026909264
-0.002627845 -0.07071518 -0.00015563205 -0.1394925 -0.043731883 0.03173829 0.012707006 0.10751723
0.118023135 0.008547085 -0.029650068 0.009521183 -0.08264395 0.18411271 0.1149226 -0.09485846
-0.12516814 0.087314114 -0.070471 0.14018655 0.14012292 -0.06857335 0.085086554 0.106151566
0.102762714 -0.10952983 -0.06253584 -0.18025805 0.0029441696 -0.056564763 0.014389694 0.11135577
0.043869812 -0.081342235 0.07458085 0.13070017 0.101223 0.014836456 0.09055629 -0.012622773
0.044833183 0.08130497 -2.4681452e-05 -0.08925747 -0.060969662 -0.044702217 0.00091189716 0.07618123
0.12914145 -0.029869074 0.05217412 0.0976645 -0.048920475 0.065928355 -0.10558945 0.0050222827
0.13236101 0.019419992 0.0093083 0.04511182 0.0061599337 0.124868706 0.0188869 0.14442265
0.012735449 -0.020081619 -0.04448246 0.00067628844 0.03911154 -0.20850275 -0.0029419514 -0.05260934
0.09408009 -0.04086137 -0.0016139412 -0.016969543 0.08140173 0.064722605 0.10585425 0.07069178
-0.07304012 0.06652344 -0.017463304 -0.06200525 0.06890686 0.011698806 -0.08245559 0.09803481
-0.019869952 0.035042804 -0.08437616 0.07315545 -0.035554346 -0.0042733764 -0.018678226 0.023341134
0.06753337 0.07031755 -0.07608579 0.0022504777 -0.02071404 0.029916922 0.022942586 0.052075416
0.051460985 0.12784408 -0.028052375 0.09345807 0.057929438 -0.18021503 0.05087945 0.15636668
-0.0571717 -0.0320423 -0.06450742 -0.10910255 -0.023502165 0.112660505 0.13171384 -0.027172958
0.054691553 -0.01953185 0.00013550158 -0.053046703 -0.099463984 -0.043105308 -0.16172451 0.05813941
-0.096899055 0.059751607 -0.0154789835 0.06896773 0.008762414 -0.09574782 -0.009180114 0.026858047
0.09207793 0.10696851 0.013521867 -0.018164622 0.13041379 -0.029148735 -0.009824657 -0.02872726
0.1118599 0.10180249 0.036402952 0.017797451 -0.0058047865 -0.07051295 -0.0054544536 0.04039883
0.03366954 0.07637967 0.051580716 0.021626057 0.04018674 0.073209114 0.0036199293 0.13593887
0.014922132 0.040883254 0.084420875 -0.009882941 0.0010689832 -0.056018226 -0.04868969 0.07223199
-0.07558304 -0.0465878 0.04331082 -0.082215205 0.06982242 0.16347732 -0.03727364 0.14538458
0.068930045 -0.04165309 -0.062124677 -0.1485597 -0.06303984 0.07532122 0.09351462 -0.088946484
-0.0031156715 0.15674132 -0.054650467 0.0105229635 -0.009510653 0.1314838 0.09565536 0.045088373
0.11440907 -0.025806226 -0.07610073 0.044825938 0.07002997 0.03664349 0.033112533 0.0341503
0.015977344 0.08184936 0.11138005 0.02904731 -0.0015178124 0.068503916 -0.050172146 0.06516036
0.15567483 0.11839671 -0.06910775 -0.098888084 -0.08248663 0.063989386 0.032960303 -0.04257247
0.018938355 0.08745583 0.05879246 0.08978957 -0.06371942 0.016552104 0.032969166 -0.022141686
2.1181957e-05 -0.11675485 -0.015693065 0.112297975 0.039179165 0.13288194 -0.047130253 -0.022596939
-0.009506792 0.08181619 -0.053560987 0.036541764 0.009837469 0.0733792 0.04098158 -0.026885362
-0.09844472 0.06019419 -0.10147235 0.024100741 -0.08665866 0.023009421 -0.009968413 -0.080657214

fc.f6.bias f4 [84]
00000000: 9c0c 8c3d 71e2 f33d df6d 2d3d de19 adbc
00000010: a518 5a3a 2c69 da3d 119e 0a3b 544e d4bc
00000020: c57a 163e c43f c53d 24e2 abbd c93d a7bd
00000030: 2c85 a3bc 199a bd3c fb34 71bd 6176 dc3d
00000040: 1e06 b0bc a2a6 6d3c 3f50 863d 8964 92bd
00000050: 6a08 d9bb 078d 8c3c 0a2e 5b3c 94ae a33d
00000060: effb 2a3b 7da4 1d3d 0928 d73d cffc 273d
00000070: bdff 013d 7b8a cc3d c47e da3d 6e11 c9bd
00000080: c94e abbd c3c2 c33d 747c c7bc 0aee 5d3d
00000090: c683 2ebd 7089 8f3d dac5 513d 6ae5 e73d
000000a0: 12c4 f33c 6831 0dbd 1b2c 05bc 7636 d03c
000000b0: 7877 b9bd fcb0 92bd a100 70bd 9b8c 943c
000000c0: 4805 2e3c 6a8d c6bd ed06 fe3c b5b1 fc3c
000000d0: f0bc 283d 3070 c13c c8dc a23d e31f 95bc
000000e0: a457 73bc af8f ee3d f260 b33c 1fb4 6c3d
000000f0: affc bb3d cebd 8a3c 17af abbd 1900 c03d
00000100: c617 703d 6043 cd3d c42a 08bd 669d 313d
00000110: a32a 2dbd 69c6 343d 8464 3fbd abc0 3ebd
00000120: e88f 50bd 2144 eb3d 1597 1c3d f667 ad3b
00000130: f2fa 4d3d c393 573d 3a62 8f3c 653a 263c
00000140: 19ad ed3d 5322 453d c2cd 3cbd c89e 48bd
0.068383425 0.11908425 0.04234111 -0.021130498 0.00083197124 0.10664591 0.0021151344 -0.025916256
0.1469527 0.09631303 -0.08392742 -0.081660815 -0.019960962 0.023144769 -0.058888417 0.107647665
-0.021487292 0.01450506 0.065582745 -0.07148082 -0.0066233175 0.01715709 0.013377676 0.079922825
0.0026090106 0.038486946 0.10505683 0.04101258 0.03173803 0.099873506 0.1066871 -0.098177776
-0.083646365 0.09558632 -0.024351336 0.05418209 -0.042606138 0.07008636 0.051214077 0.11323054
0.02975658 -0.034470946 -0.008128191 0.025416594 -0.0905599 -0.07162663 -0.05859435 0.018133452
0.010621376 -0.09694941 0.031009162 0.030846456 0.04119581 0.023613065 0.07952267 -0.018203681
-0.014852438 0.11648499 0.021896813 0.057788964 0.09179055 0.016936209 -0.08383005 0.093750186
0.058616422 0.100226164 -0.03324391 0.043362997 -0.04227699 0.04413453 -0.04672672 -0.04657046
-0.05091849 0.11487604 0.03823002 0.005291934 0.05028815 0.05263115 0.017502893 0.010145758
0.116052814 0.048128437 -0.046094663 -0.04897955

fc.f7.weight f4 [10, 84]
00000000: f8a5 9c3c acc5 10be dfb4 96bd 912b 70bd
00000010: 85fc 023e 56db afbd 06b6 803d cf0c 80bc
00000020: 6d76 eabd 962c 7fbd 452c b0bc 5f34 a4bd
00000030: 847e c63c 5767 0bbe 8fbd 703d 629a 333d
00000040: aa5d a03d c32b 8a3d 4b76 81bd bf75 2cbe
00000050: 9e2f 0f3e be31 4dbd 6169 eabc ad13 69bd
00000060: f26e aabc b735 93bc 0a76 53bc 844f 22bc
00000070: 5234 d0bd ba87 16bd 1726 13be d371 5cbd
00000080: 3a44 4a3d adeb 153e ea89 a9bd 4677 1dbe
00000090: b2fc 60bd 097f 593d 07a3 ce3d 6a77 56bd
000000a0: bb54 db3d 7e79 913d ea88 22bd 5c6e 083e
000000b0: abb8 0ebd 16dd d2bd ed6f a9bd eb9a 72bc
000000c0: 430f f73c f6a4 dbbd d5a8 273d 3dca 26bd
000000d0: c303 293d 8c72 19be b0c7 d1bd 297c df3c
000000e0: 2211 96bd 748c 9b3c e78c cf3d 02e5 563d
000000f0: 75e5 ddbd 724b 4ebe 1bfd 19bc 99f5 283e
00000100: 18e7 ecbc 31a3 4e3d ae12 bd3d 7906 febd
00000110: 542c 5ebc 470c 1ebb 7355 19be fbb6 e8bc
00000120: 5ecd 72bd 7fd1 343d d89c 803c cd6e 563d
00000130: 9eb5 b4bd 0f43 36be 04bf 4abd 200c 0d3d
00000140: 8c74 efbd cf45 bdbb 232a 8e3d d995 263d
00000150: 3ab3 54be a87c 8f3d 7338 113e f14d 35bc
00000160: 93a0 8c3d 4dca 35bd be23 613d 3a42 39be
00000170: 5e11 d33d 83f1 a53d 1730 80bd b8e4 6bbd
00000180: e72b b33d 5028 3f3e 1e6b 0dbe 2f63 4a3e
00000190: b819 8c3d 3bfe c33d 170e 3ebd 040e 2e3e
000001a0: 9151 113e 16c3 09be b361 6cbd 5518 afbd
000001b0: b33c 76bc ee06 0c3d 3309 a13c b75c 2bbe
000001c0: 1108 0cbe fa24 de3d 2d14 b53c 80f6 a8bd
000001d0: 61d4 1abd ae2b 4e3d f8bc 18be 2b4a 823d
000001e0: 9b7a 8cbd 9e12 063d 8353 93bd ab99 223e
000001f0: 5274 ebbd 3b48 2c3d 30cd c1bd 797e 29be
00000200: 198a 14bd 620e b13d ec3e a3bd 4b1f 08be
00000210: b052 fcbc 2c4a 4abe 24c7 f93d 2b81 d9bc
00000220: d2de 89bd 2949 9cbd 38e0 883d 8e5e bb3c
00000230: 9cea 0cbd 5b21 cf3d 89ac 773c 4941 183e
00000240: 67c1 183e 5b01 debd 41dd 64bd eb00 17bd
00000250: 83e4 13be 0d3d 1abe 2653 cc3d 01a0 bdbd
00000260: e107 3ebd e935 13be 1886 653d eb17 83be
00000270: 887a 5cbd b33f 253e b8f6 1cbe 4365 f7bc
00000280: 6cb8 cc3d d004 afbd bf7e 0f3d 479a ccbd
00000290: 36fa e7bc d7c5 2abe 9137 12bd f274 20be
000002a0: 9c42 b83c be63 e4bd 7527 8c3d 9c74 143e
000002b0: 6365 843d 355e eebd bf3c 693d b352 f0bd
000002c0: 5a9c 34bd 39cc 563b 4f2b 34bd 7696 1bbb
000002d0: dd93 63be 7914 dd3d 3bd8 99bd 4716 92bc
000002e0: c3cc febd 979b b1bd 0e53 ac3d 3a20 693d
000002f0: b7e8 213d b0f0 20be 24a0 7a3d 3cf3 413c
00000300: 9073 e4bd 6b0a 6f3d e051 30be 020d a43d
00000310: 88de a23d 9624 14be d936 2a3a 17e3 36bd
00000320: 5488 a9bd 0fd1 ea3d 4424 313c da72 003e
00000330: 039a a1bd 5e9a f2bc c342 9a3d 78f2 c4bd
00000340: b996 00be f6ee 613c 27d3 0c3e 529d eebd
00000350: fb06 b8bd 2f1c 36be 91e0 193d 6b4e 153e
00000360: 31cc 853d 07f3 39bd c210 363d 3329 073e
00000370: 78cd a43d 022e e0bc 443a b03c 06bc 08be
00000380: 34c0 8fbd f86f 9a3c ae5b 643d e56f dabd
00000390: 025c 2fbc 7770 433d 52e1 9cbd 3d9b d73d
000003a0: d52f ff3d 348e ea3c ae1f 9ebd 49a9 98bd
000003b0: 9951 433d c3d1 01bd 5d47 21bb 1a1b 2ebd
000003c0: bb5d a73b e71e 14be 439c 003e 1fba 003e
000003d0: 3fa5 c2bd f525 b03d 01f2 743d 0760 4c3d
000003e0: 034b f7bd 7a96 e2bd 1b99 58bd f12e b33d
000003f0: 5b9d 9d3d b3ae efbd 3769 01be f9bb a73c
0.019122109 -0.14137906 -0.07358717 -0.0586353 0.12791641 -0.08586757 0.06284718 -0.015631108
-0.11448369 -0.06229838 -0.021505484 -0.080178015 0.02423025 -0.1361364 0.058774527 0.043848403
0.07830365 0.06746628 -0.06321391 -0.16841792 0.13983008 -0.050096266 -0.028614702 -0.05690353
-0.020804856 -0.01796995 -0.012906561 -0.009906653 -0.10166229 -0.036750533 -0.14369999 -0.05381949
0.049381472 0.14640684 -0.08278258 -0.1537753 -0.05492849 0.053099666 0.10089689 -0.052359976
0.107095204 0.07103251 -0.039681353 0.13323349 -0.03484408 -0.10296075 -0.08273301 -0.014807443
0.030158645 -0.10724823 0.040932495 -0.040720213 0.041263353 -0.14985102 -0.102431655 0.027280884
-0.073274866 0.018987872 0.10134297 0.052464493 -0.10834781 -0.20145968 -0.009398724 0.16499938
-0.028918788 0.0504486 0.092320785 -0.12403578 -0.013560373 -0.0024116205 -0.14974003 -0.028407564
-0.059277885 0.044145104 0.015699789 0.05235176 -0.08823703 -0.17799018 -0.049498573 0.03443539
-0.116921514 -0.005776144 0.06941631 0.04067025 -0.20771495 0.07006198 0.1418169 -0.011065946
0.068665646 -0.044382382 0.054965727 -0.1809167 0.10306047 0.08102705 -0.062591724 -0.05759117
0.08748608 0.18667722 -0.13810393 0.19764398 0.06840843 0.09569975 -0.046400156 0.16997534
0.14191271 -0.13453326 -0.05771036 -0.08549563 -0.01502912 0.034186296 0.019657707 -0.16734587
-0.13674952 0.108468965 0.022104347 -0.08250141 -0.037800197 0.050334625 -0.14915836 0.06361803
-0.06859323 0.0327326 -0.07193663 0.15878932 -0.11496796 0.04206107 -0.094629645 -0.16552152
-0.036264513 0.086453214 -0.07970986 -0.13293187 -0.030801147 -0.19754857 0.12196186 -0.02655085
-0.06731953 -0.07631142 0.06683391 0.022872236 -0.03440343 0.10113784 0.015116819 0.14868654
0.14917527 -0.10840102 -0.055875067 -0.03686611 -0.14442639 -0.15062352 0.09976797 -0.09259034
-0.046394233 -0.14376034 0.056036085 -0.25604185 -0.053827792 0.1613758 -0.1532849 -0.030199653
0.09996113 -0.0854584 0.035032984 -0.099903636 -0.028317552 -0.16677032 -0.035697524 -0.15669611
0.0224927 -0.11151837 0.06843463 0.14497608 0.064646505 -0.11639062 0.056942698 -0.117345236
-0.04409442 0.0032775535 -0.043986615 -0.0023740805 -0.22224374 0.107949205 -0.07511946 -0.017832888
-0.12441399 -0.086722545 0.08414279 0.0569155 0.039528575 -0.15716815 0.06118788 0.011837777
-0.11154854 0.058359545 -0.17218733 0.080102935 0.07952601 -0.14467081 0.0006493158 -0.044650164
-0.08277956 0.11465656 0.010811869 0.12543812 -0.078907035 -0.029614624 0.07532265 -0.0961656
-0.12557496 0.013789883 0.13752423 -0.116511 -0.089857064 -0.17784189 0.03756768 0.14580695
0.06533087 -0.045397785 0.044449575 0.1319931 0.080470026 -0.027365688 0.021512158 -0.13352975
-0.07019082 0.018852219 0.055751495 -0.106658734 -0.010703089 0.047714677 -0.07660164 0.10527656
0.12460295 0.02863226 -0.07720886 -0.074541636 0.04768524 -0.031694185 -0.0024609186 -0.042506315
0.005107609 -0.14464913 0.12559609 0.12571 -0.095041744 0.0860099 0.059801105 0.049896266
-0.12074854 -0.110638574 -0.052880388 0.08749188 0.07696029 -0.11703243 -0.12637793 0.020475375

fc.f7.bias f4 [10]
00000000: dccd 9d3b c427 133e 525e 30bd 8ad9 4a3c
00000010: 617f 92bd 1f5b 9a3c 01f5 d8bd 92d3 9d3d
00000020: 2ab9 6cbd d7d8 babb
0.0048158 0.14370638 -0.0430587 0.012380967 -0.07153202 0.018842278 -0.10593606 0.077063695
-0.057793774 -0.005702119
