Lenet-5_mnist/model/5_model.pkl (torch, 250431 bytes, 10 tensors)

convnet.c1.weight f4 [6, 1, 5, 5]
000000 4f 3b 07 bd 53 d1 4e be 30 69 c5 bd 2a d7 99 3d
       -0.033015545 -0.20197038 -0.096392035 0.075117424
000010 96 09 52 3e bd 55 e4 bd 21 1d 3f 3e 49 97 b7 bd
       0.20511469 -0.11149166 0.18663456 -0.08964402
000020 e7 bf ac bd 90 55 e5 3d 5f e3 f9 bd 63 c1 7c 3e
       -0.0843504 0.111979604 -0.12201571 0.24683146
000030 74 9e d9 3c d2 a9 76 3e 5c b1 cc bd 4c 70 fd 3d
       0.026564814 0.24088219 -0.09994766 0.123749346
000040 b8 c9 a5 3e 6d f9 57 3e 76 22 8d 3e 0e 85 be 3d
       0.32380462 0.21091242 0.27565354 0.09302722
000050 6e 87 28 3d 14 19 5f 3d f8 3a 89 3e aa 66 3f 3e
       0.04114478 0.054467276 0.26802802 0.18691507
000060 c8 62 2f 3d 1c 68 bb 3a 90 3e 53 be 92 5e c8 be
       0.042818815 0.0014297995 -0.20629334 -0.3913465
000070 3a 60 b2 be de d4 84 be 54 1a 3f 3e 46 df 14 be
       -0.3483904 -0.25943655 0.18662387 -0.14538297
000080 2f 1c 9a 3d bd a9 8c be 73 87 3e be 5f 59 d3 3d
       0.07524907 -0.2747325 -0.18606357 0.103197806
000090 99 c3 a2 3e f5 2a a9 bc 9f 3a 23 3d 6d 26 0b 3b
       0.31789854 -0.020650366 0.039850827 0.002123262
0000a0 cb 54 ff 3c f7 09 6d 3e 52 bd 8b 3e ab 42 65 3e
       0.031168362 0.23148333 0.27292877 0.22388713
0000b0 c7 86 5a 3e 88 72 0f 3e 38 36 57 3d 3e ee 5f 3e
       0.21340476 0.14008534 0.05254194 0.21868226
0000c0 88 a8 70 3d f1 8d 8a 3e 52 64 40 3e 07 f2 4c be
       0.058754474 0.27061418 0.18788269 -0.20014201
0000d0 7b a0 86 3d e9 70 b6 3d a9 36 98 bc a1 21 5f 3e
       0.06573578 0.08908255 -0.018580751 0.21790172
0000e0 64 f4 44 be 27 c8 c1 3d d3 1c c3 bd b8 1a 3a 3e
       -0.19233853 0.09462004 -0.09526982 0.18174255
0000f0 c2 f0 01 3c d1 94 e5 bc fe f1 33 3e 8e 07 5d 3e
       0.007930936 -0.028025063 0.17572781 0.21584913
000100 d2 0d 3e 3e 6b 9d ee 3d da c9 fd 3d 0e f6 05 be
       0.1855996 0.11651119 0.12392016 -0.13082144
000110 88 d2 7c 3e b3 9d 11 3e fb df 57 3e 65 4d 22 3e
       0.24689686 0.14220314 0.21081536 0.15849836
000120 1d 8f 7f be a2 a4 67 be 48 bb 2b 3c 24 04 e2 3b
       -0.24956937 -0.22621396 0.010481663 0.0068974663
000130 2c 37 35 3e a1 b0 bb 3d 65 be 77 3e b3 1a 8a 3e
       0.17696828 0.09164549 0.24193723 0.26973495
000140 f1 1a a6 bd 1c 9e 8b 3e c6 fb 76 3e d9 7b 04 3e
       -0.081106074 0.27269065 0.24119481 0.12937869
000150 62 ef 22 3e 51 53 8d bd 24 4e 7e 3e ce 8c a7 bc
       0.1591163 -0.06900657 0.24834496 -0.020452883
000160 cd d8 aa bd b1 9b b0 3d 5a f7 bc bc ae 80 85 bd
       -0.08342133 0.08623446 -0.023067165 -0.06518684
000170 fd 8b 07 bb 28 f6 31 be 6c 03 03 bd e0 c0 cf bc
       -0.0020682805 -0.17379057 -0.031985685 -0.025360525
000180 9d fb dc 3d ad 0e 32 be b4 6e 5f 3d 60 a4 38 bb
       0.10790179 -0.17388411 0.054548934 -0.0028174147
000190 2a d5 9e 3e 58 1f a9 3e b8 0b 40 bc 58 0a cc 3d
       0.31022006 0.33031726 -0.011721544 0.099629104
0001a0 3b 5c a3 be fc 8d e9 3d e7 68 0e 3e 7a 51 eb 3d
       -0.31906304 0.114040345 0.13907205 0.1149015
0001b0 46 78 e1 bd c0 45 a3 be f2 ad 18 3e 80 20 ab 3e
       -0.110092685 -0.31889153 0.14910105 0.33423233
0001c0 91 39 91 3d a4 b6 a6 be af 21 90 be 9e 67 d9 3d
       0.07091058 -0.3256122 -0.281507 0.106154665
0001d0 40 8a f2 3d bd ee de 3d 79 96 26 be a2 47 58 be
       0.11842775 0.108853795 -0.16268338 -0.21121076
0001e0 41 41 68 3e eb a2 83 3e 4e 6d cd bc 6b 57 91 be
       0.22681142 0.25710234 -0.025076535 -0.28387007
0001f0 01 1d 11 be d8 4d 11 3e 92 ef 9a 3e fc 6b 2d 3e
       -0.1417122 0.14189851 0.30260903 0.16935724
000200 66 00 4f 3e b4 de cf 3e 3b 75 d7 3d 8c b2 c4 3e
       0.20214996 0.40599597 0.10520407 0.3841747
000210 4a da 91 3e 04 25 59 3d 8a d4 d6 3c af a6 2c 3d
       0.28486854 0.053013816 0.026224393 0.04215115
000220 10 40 1d be 33 fd bc bd 40 d3 c7 3d 17 93 cc 3c
       -0.15356469 -0.092279814 0.097570896 0.024972482
000230 5f 83 f9 bc 3f 16 ac be 9e 5c 48 be 6e 89 5e be
       -0.03045815 -0.33610722 -0.1956658 -0.21732113
000240 2d 3e a3 be f0 5c c0 be b8 1b 79 be e0 26 94 be
       -0.31883374 -0.37570906 -0.2432698 -0.2893591
000250 78 a9 a3 be b1 20 c0 3d
       -0.31965232 0.093812354

convnet.c1.bias f4 [6]
000000 16 a2 55 bb a8 95 bc 3a aa fc 1d bd 35 4b a6 3b
       -0.0032597831 0.0014387863 -0.038571037 0.0050748833
000010 50 e9 9d 3d 08 fe 09 3e
       0.077105165 0.13475811

convnet.c3.weight f4 [16, 6, 5, 5]
000000 e2 aa 08 bb 59 a4 cf 3d 1e 7d cf 3d f0 f6 f1 3d
       -0.0020853807 0.10138769 0.10131286 0.11814678
000010 f4 97 b9 bd d4 63 81 bc c3 e4 49 ba ea 02 f9 3d
       -0.09062186 -0.015794672 -0.00077016297 0.12158759
000020 e7 96 7c 3d 30 66 98 bd c0 a3 62 bd 00 6b 05 3d
       0.06166735 -0.07441366 -0.055331945 0.032572746
000030 8d c6 bd 3d f3 f1 28 3d 67 2d 98 bd e9 20 0f 3d
       0.09266386 0.041246366 -0.07430535 0.034943495
000040 6b ea 05 3e 22 61 d0 3d ae f2 f2 bc 50 cb 0f 3d
       0.13077705 0.101747766 -0.029656734 0.035106003
000050 cc 3d 0b 3d 67 2d 6d 3d 36 18 8f 3d 39 b6 02 be
       0.03399448 0.057904627 0.0698704 -0.12764825
000060 76 99 46 be 93 04 e9 3d 32 0b 8c 3d 3c 4d 3c 3d
       -0.19394478 0.113778256 0.06838073 0.045972094
000070 b2 e9 62 3d ed 64 09 be 8e c3 2f bd 39 bd 01 be
       0.05539865 -0.13417406 -0.042911105 -0.12669839
000080 46 f6 fc bd f7 c5 b1 bd b2 ba 4e be 69 bd 9d bd
       -0.123516604 -0.08680337 -0.20188406 -0.07702143
000090 8c 05 28 be c7 dd e8 bd 0e f7 12 be 5e c9 81 3c
       -0.16408366 -0.11370426 -0.14352056 0.01584309
0000a0 2f b4 34 bd f7 dc 7b be 60 8b dc bd 18 25 a9 bc
       -0.04411715 -0.2459601 -0.10768771 -0.02064757
0000b0 c9 23 b1 3d ad 48 44 be 9e 3b 97 be 61 39 85 be
       0.086494036 -0.19168349 -0.29537672 -0.2602034
0000c0 cf aa dc bd 9e 5e b1 bd 31 d1 02 3c f9 5e dd 3c
       -0.10774767 -0.08660625 0.007984445 0.027022826
0000d0 2b 15 4a bc 05 6c cc 3d 9d f6 ba 3d 08 09 be 3d
       -0.012334148 0.099815406 0.09129069 0.09279066
0000e0 9c 16 98 bd 07 a3 81 bd b3 85 91 3d e5 3c 4e bd
       -0.074261874 -0.06329923 0.07105579 -0.050351042
0000f0 aa ca 12 be 23 4f 66 3d df 38 bf 3b 22 a0 f9 3d
       -0.14335123 0.056227814 0.005835637 0.12188746
000100 32 dd d4 3c 47 db ff bd 58 f7 c8 3d b9 88 dd 3d
       0.02598438 -0.12492996 0.09812802 0.108170934
000110 52 0c 29 3e ba ca ac 3d fc 7d 86 3c 17 12 1d 3d
       0.16508606 0.084371045 0.016417496 0.03834733
000120 bf 7a d5 3d ba f4 9c 3c 72 8e 80 3d b3 a2 05 3d
       0.104238026 0.019159663 0.06277169 0.032625865
000130 e8 b1 87 bc ee 87 11 3d fb db 0b bd 32 00 8e bd
       -0.016564324 0.035530023 -0.034145337 -0.06933631
000140 5f 9b 07 3e 55 e6 b3 3d 23 8c 10 3e f6 98 ba bb
       0.13242863 0.08784167 0.14115958 -0.005694504
000150 28 c3 60 bc db 92 56 bd b8 31 30 3d 32 6b e9 3d
       -0.013718404 -0.052386146 0.043016165 0.11397399
000160 04 e8 3f 3d c4 f4 80 bd 53 56 a4 3c 33 89 f9 bb
       0.046852127 -0.06296685 0.020060694 -0.0076152324
000170 c1 89 5f 3d 79 73 f3 3c 54 48 74 39 32 d3 8e bc
       0.05457473 0.029718148 0.00023296598 -0.01743469
000180 93 f5 0b 3d b8 e4 5b 3d f4 95 ea bb d8 06 17 3d
       0.034169745 0.05368492 -0.007158989 0.03687176
000190 54 6f 1b be 28 bb 18 be 41 b4 57 bb c5 30 37 3d
       -0.15179187 -0.14915144 -0.0032913836 0.044724245
0001a0 9b db d9 3d 53 a7 bd bd 63 71 0e be 0c e7 ca 3d
       0.106375895 -0.0926043 -0.13910441 0.0990735
0001b0 67 53 c0 3d 42 a8 5c 3d c7 cb 74 be 56 20 73 be
       0.09390908 0.0538714 -0.2390586 -0.23742804
0001c0 49 4f 99 3d 6e 5e 10 3e 88 a8 cf 3d 1d e1 9c be
       0.074858256 0.14098522 0.10139567 -0.30640498
0001d0 a5 b1 3e be ff 63 d5 3d 3e 81 4d 3e 84 d3 b2 3d
       -0.18622454 0.10419463 0.20068833 0.0873175
0001e0 95 d5 67 be 55 42 59 bd 3f 32 1d 3e ba 85 81 3d
       -0.22640069 -0.053041775 0.15351199 0.063243344
0001f0 47 34 74 3d 4e fb 8a 3d ff a8 4f bd ea 9f 82 be
       0.059620168 0.06786214 -0.050698277 -0.2551263
000200 1c c6 23 be 3d 99 36 3d 26 c5 19 3e 0c 63 0d 3d
       -0.15993541 0.044579733 0.15016612 0.034518287
000210 8f 7c 75 be 2f a2 96 be d7 29 44 3b 79 9f 07 3e
       -0.23973297 -0.2942061 0.0029932165 0.13244428
000220 c4 49 52 be 46 b8 83 be 08 29 67 be 6f 00 19 be
       -0.20535952 -0.25726527 -0.22574246 -0.14941572
000230 cb 7d 8b bd 9c 34 4d be 34 cf 8a be b8 72 64 be
       -0.068111025 -0.200396 -0.27111208 -0.22309387
000240 14 ed 01 bb b4 f7 18 bd a1 79 2a bd 53 6b e5 bd
       -0.0019825147 -0.037345603 -0.0416199 -0.11202111
000250 25 8a e8 3c 57 8b 18 3e 22 9d 4b 3d 0b 43 39 3d
       0.028386185 0.14896904 0.0497104 0.045229953
000260 8e 8c ab bc 90 5c 27 bd d3 d7 c4 bd 24 31 5f 3d
       -0.020941045 -0.04085976 -0.09611478 0.054490224
000270 30 a8 af 3d 2e 46 37 3d f1 bf 23 bd 95 a4 94 bc
       0.08577001 0.044744663 -0.03997797 -0.018144885
000280 e6 3b b9 3d 4b 5e ba 3d b6 56 3a bc 65 ba 8d 3d
       0.09044628 0.09100016 -0.011373213 0.069203176
000290 01 97 ab 3c 07 f0 34 bd e6 8b f1 3d 78 c9 74 3c
       0.020946028 -0.04417422 0.11794262 0.014940612
0002a0 98 46 31 3d 46 bf 83 bc 0a 4a 31 be e6 8e ef bd
       0.043280214 -0.016082417 -0.173134 -0.116971776
0002b0 77 25 22 be 31 58 18 be 7f 9d d9 bd 62 09 a2 3d
       -0.15834604 -0.14877392 -0.10625743 0.07911946
0002c0 d9 91 24 3e 12 2e 29 3e 07 89 dc 3d e5 6c 03 3e
       0.16071261 0.1652148 0.107683234 0.12834509
0002d0 b7 50 21 3d bb 72 97 3c 05 6a 0c be 02 72 50 bd
       0.039383616 0.018487325 -0.13712318 -0.050889976
0002e0 c1 f3 a6 bc 31 b3 a3 bc 8b a5 09 3e 59 9f c2 3d
       -0.020379903 -0.019982906 0.13442056 0.095030494
0002f0 38 24 1b 3d da 6e 45 bc 9e e1 0d be b1 4e 1f 3e
       0.037876338 -0.012050355 -0.13855597 0.15557362
000300 b0 16 89 3e e1 32 21 3e 8d 8b d3 3d 3f 1f 72 be
       0.26775122 0.15742065 0.103293516 -0.23644732
000310 3c 96 1b bd 82 a4 0e bd bc 3e 08 3c 30 64 28 3d
       -0.03798507 -0.034824856 0.008315738 0.04111117
000320 de 7e 76 3d 0e 45 e6 3d 95 8c 8c 3d 2e d5 5f 3d
       0.060179584 0.1124364 0.068627514 0.054646663
000330 03 b4 9f bd 40 eb 54 bd 2b dc d3 3d a6 bc 00 3e
       -0.077980064 -0.051982164 0.10344728 0.12571964
000340 3f f4 f7 3c 67 45 ca bc 33 54 5d bd 15 82 33 3d
       0.030267833 -0.024691297 -0.054035377 0.043825228
000350 fa b7 9a 3d e3 92 f4 bc 0a d3 a7 3d 63 bf 12 3d
       0.07554622 -0.029855197 0.081945494 0.03582705
000360 b1 d7 05 3d c2 f6 fe 3d f7 53 0a 3d 02 59 58 bc
       0.032676402 0.12449409 0.03377148 -0.013204815
000370 ee 15 a0 bb e4 9e b5 bc 80 db b7 3d bd 9e 2e bd
       -0.0048854267 -0.022170492 0.08977413 -0.042631853
000380 6c 29 34 bd 84 05 26 bd ca 7d 7f 3d 35 5b b3 bd
       -0.043984815 -0.040532604 0.06237582 -0.08757631
000390 69 d1 e8 bd b7 7e dc bd 3e 91 e9 bc 4b 9c 07 3e
       -0.11368067 -0.107663564 -0.02851164 0.13243215
0003a0 41 b2 a4 bc da 56 d9 bc d6 22 35 3d cf f5 4d 3d
       -0.02010453 -0.026530672 0.044222675 0.05028325
0003b0 ca f0 93 3d 4f e8 6d 3c 12 18 b2 3c ff dc 1a bd
       0.07223661 0.014520719 0.021739993 -0.037808415
0003c0 e8 ba 94 3c d2 dc 82 3d e4 52 88 bd 9a ac 78 bc
       0.01815553 0.063897744 -0.06656435 -0.01517787
0003d0 0a 17 9b bd 2a 45 68 3d cc c1 16 3d 51 9f 80 3c
       -0.07572754 0.056706585 0.036805913 0.015700968
0003e0 74 0f 98 3d 65 b2 e9 3c e3 21 ec 3d 1f c6 3f 3d
       0.074248224 0.028527448 0.11529901 0.046819802
0003f0 0c 23 dd bd 8f f3 32 3c b8 87 ee 39 58 0f ff 3d
       -0.107977 0.010922327 0.00045496016 0.124540985

convnet.c3.bias f4 [16]
000000 f4 e0 55 bd c5 ae ea bd 7d 65 76 3d ca 1c 42 3d
       -0.052216485 -0.11459116 0.06015538 0.047390737
000010 c9 74 90 bd b2 34 48 3d 26 4c 6c 3d 62 41 6d bb
       -0.07053525 0.04887838 0.05768981 -0.0036202301
000020 66 36 83 bd 08 63 8d bb e2 46 88 bc e7 0e 9b 3d
       -0.0640686 -0.004314784 -0.016635362 0.07571202
000030 6f e1 78 3c ff 5a f9 3d d1 7f bd 3c 2b b5 5f bc
       0.015190466 0.12175559 0.023132237 -0.013654034

convnet.c5.weight f4 [120, 16, 5, 5]
000000 5d 07 c2 3b 8e 5e f5 3c 0a 79 07 bd dd 4f 6f 3d
       0.005921288 0.029952314 -0.033074416 0.058425773
000010 a4 c5 e1 3c 63 28 21 bd 38 5d cc bd c2 07 03 bd
       0.027560063 -0.039345156 -0.099787176 -0.03198982
000020 6a 41 3f bb cb 1f 7c 3d f5 1b 7a bd 7d 6e c1 bc
       -0.0029183277 0.061553758 -0.06106182 -0.023612255
000030 f8 2e dd 3c b4 13 ec bc 05 05 f0 bd 7a cb 87 bd
       0.026999936 -0.028817989 -0.117197074 -0.06630607
000040 54 7b 97 3b ed 5c c3 3c 6a 68 79 bc 80 cb 6c bd
       0.004622856 0.023848021 -0.015222648 -0.05781126
000050 95 0b 01 3e 1b e5 a0 3c 94 81 6b bd c3 02 c5 bd
       0.12602074 0.019640496 -0.057496622 -0.096196674
000060 1d 20 cb bc bb f4 d8 bc e8 f1 b6 3c 82 94 55 3c
       -0.024795586 -0.026483884 0.022332147 0.013035895
000070 e6 12 15 bd ba 00 27 3d ae a6 81 bd f4 c5 e2 3b
       -0.036394976 0.040772177 -0.0633062 0.0069205705
000080 f9 06 03 bd 62 25 6e bb b0 3a 03 3d 0d 53 34 bd
       -0.03198907 -0.00363382 0.03203839 -0.044024516
000090 54 5e 91 bc c5 55 62 bd f2 dd 48 3d 5a e3 3e bc
       -0.017745174 -0.055257577 0.04903979 -0.0116508845
0000a0 82 de cf bd 13 eb 92 bd 78 25 bc ba b3 12 2b 3d
       -0.10149862 -0.07173743 -0.0014354428 0.04176588
0000b0 e8 c5 56 3b 97 2f 5e 3d 42 f8 ef 3d 30 2d 61 3d
       0.003277177 0.054244604 0.11717273 0.054974735
0000c0 a1 19 cd 3d 4e 87 dc bc 48 05 07 3b 81 3e 6b bb
       0.10014654 -0.026919987 0.0020602513 -0.003589541
0000d0 86 77 7e 3d 6e c4 91 3d 52 03 54 bc 31 78 28 3c
       0.062125705 0.07117544 -0.012940245 0.010282562
0000e0 fa 4b 39 3c ae 53 c2 3c 97 84 fd bc fe d3 7c bd
       0.011309618 0.023721542 -0.030947013 -0.06172561
0000f0 30 f7 00 bc 5f 98 56 3c 69 3f aa bc 80 4b 87 3c
       -0.007871434 0.013097852 -0.02078219 0.016515493
000100 52 1f 4a bd 57 77 33 3d 01 3d a4 3d 7f e2 42 3d
       -0.049346276 0.043814983 0.08019448 0.047579285
000110 88 bb 2f bd 77 c3 1f ba f5 89 96 3c c1 36 40 3d
       -0.042903453 -0.0006094495 0.01837633 0.046927217
000120 d9 4e 5b bd 8d 33 83 bc 49 dd b5 bb ed f7 3a 3d
       -0.05354199 -0.016015792 -0.005550061 0.045646597
000130 d6 f7 23 3d 84 06 33 3d 0b f5 4a bd 1f a7 5a bd
       0.040031277 0.043707386 -0.049550097 -0.053382035
000140 12 b2 82 bc 60 27 ce 3c 38 5f 62 bd 30 ff b8 bd
       -0.015954051 0.02516526 -0.05526659 -0.09033048
000150 7a 06 ef bd 00 fa a8 3d 00 5f 19 3d fd bf 0d 3c
       -0.11671157 0.08250809 0.037444115 0.008651731
000160 97 e2 33 3c 9d 0a a2 3c d5 6f 6a bc 34 52 7b bd
       0.010979316 0.019780451 -0.014308889 -0.061357692
000170 03 d3 fc bd f7 81 07 3c 24 1d 6c 3d 7e 11 f9 3c
       -0.12344935 0.008270732 0.05764498 0.030403849
000180 42 19 62 bd c4 df 9b 3d 4d 88 29 3e f1 39 98 3d
       -0.05519987 0.07611039 0.16555901 0.074329264
000190 2e 37 ae 3c 8b 5f 32 3d 21 33 1e bc 9c 73 5e bc
       0.021266546 0.043548148 -0.009655745 -0.013577368
0001a0 4f 7e 3c bd e6 43 17 bd f9 d2 dc 3c a7 60 56 bd
       -0.046018895 -0.036929987 0.026956068 -0.05233827
0001b0 b4 db 41 bc 34 91 d5 3c 32 96 ac 3c 73 e7 b6 bc
       -0.011832166 0.026070215 0.021067712 -0.02232716
0001c0 96 f2 30 bd 47 01 a4 bc be e1 50 bd 8a 5f a6 bc
       -0.043200098 -0.02002014 -0.050996535 -0.020309228
0001d0 e0 4f 74 3c f6 59 65 3d 33 a7 17 3d d8 4e 08 3d
       0.014911622 0.055993997 0.037024688 0.033278316
0001e0 06 a7 82 bc 91 0c 38 3d b0 c1 85 bb a8 ba 2e 3c
       -0.015948784 0.04493386 -0.0040819272 0.0106646195
0001f0 20 ae 49 bb ff 9d df 3d 7f fb b6 bc 07 7b 24 3c
       -0.0030773953 0.10918807 -0.02233672 0.010039098
000200 44 fd 96 3d e3 fe a5 3b f2 a2 ca 3d 54 76 5d 3d
       0.07372525 0.0050657853 0.098943606 0.054067925
000210 ca be 78 39 51 e1 4a bc 01 cf 5e bd 7d 14 74 3d
       0.00023722198 -0.012382821 -0.054396633 0.05958985
000220 0e 63 92 3c 11 64 7c bd e6 1e ec bc 1c 6e 64 3d
       0.017869499 -0.06161887 -0.028823327 0.05576907
000230 fa b7 94 3d 9d 24 cb bc 89 10 28 3c 68 97 57 3d
       0.07261653 -0.024797732 0.010257849 0.052634627
000240 2c 6d 51 bd f5 ec 13 bd 79 ab 20 3d 21 88 e3 bb
       -0.051129505 -0.03611465 0.03922603 -0.006943718
000250 00 e7 99 ba 5b 45 04 3d e0 ff 0a bc 60 ae b4 3c
       -0.0011741817 0.032292705 -0.008483857 0.022055805
000260 75 97 9c bd d5 5b fe bc 20 6a 88 3d 91 d7 83 3d
       -0.07646076 -0.031049648 0.06660867 0.064376004
000270 74 7f 15 bd 37 00 95 bd cf ed 9c 3d c0 42 44 bc
       -0.036498502 -0.072754316 0.07662546 -0.011978805
000280 b4 37 78 3d 3c f4 58 3d 0d cf cd bc 68 a7 75 3c
       0.060599998 0.052967295 -0.025123144 0.014993526
000290 0b b1 6d bd ae 85 dd bd 67 da 2b bd cf af 42 bd
       -0.05803017 -0.10816513 -0.04195633 -0.047530945
0002a0 c7 da 99 3d dc ae 45 3d 33 17 1e be 57 40 00 3c
       0.075124316 0.048262462 -0.15438537 0.00782784
0002b0 0e 39 ff 3c 1a 6f c3 3d e7 3a 59 3d 12 38 1d bd
       0.031155135 0.09542675 0.05303469 -0.03838355
0002c0 38 53 63 3d db ae dd 3d 12 b0 06 3d 88 32 d7 bb
       0.055499285 0.10824367 0.032882757 -0.006567303
0002d0 3f fb da 3c 08 50 57 bd c2 96 92 bd ff b7 44 bd
       0.026731132 -0.052566558 -0.07157661 -0.048027035
0002e0 d2 18 78 bd e7 61 93 bc 31 09 60 bd 27 ed 8f 3c
       -0.060570545 -0.01799102 -0.054696266 0.017569138
0002f0 00 62 47 39 fe b6 ec bc c3 64 a1 bd 0c 2a a3 bc
       0.00019014627 -0.028895851 -0.07880547 -0.01991751
000300 04 02 fb 3c 7b 80 14 3b 7f 84 d9 bc 9c 0e 20 3d
       0.03064061 0.0022659588 -0.026552437 0.039076433
000310 3f b6 d2 bc 71 fe 37 3d 68 ac 61 3d 42 51 8e bb
       -0.025721667 0.04492039 0.05509606 -0.004343183
000320 57 60 c0 bc 01 57 39 3d 78 10 8d 3d 5d f8 aa 3c
       -0.023483438 0.04524899 0.06887907 0.020870382
000330 eb e7 4e 3d 69 e9 c6 3b 2e 30 4a 38 46 bf 0b 3c
       0.050514143 0.006070305 4.8205424e-05 0.00852949
000340 4d 6c 3c 3c 84 ab aa 3c 89 24 cb bc 28 81 a3 3c
       0.01150043 0.020833738 -0.024797695 0.019959047
000350 45 1e 4c 3d 10 24 81 bc 31 da 0d bd 19 13 bd bd
       0.049833555 -0.015764266 -0.03463191 -0.09232158
000360 e6 d0 61 bb c3 3b df bb d0 43 35 3d 4d 6d 15 3c
       -0.0034456789 -0.006812544 0.044254124 0.009120298
000370 17 fc 00 bc 4f c0 0f 3d 01 fc b0 bb 72 80 8e 3c
       -0.007872603 0.03509551 -0.005401135 0.017395232
000380 15 7a 12 3c 28 c6 50 3d de c2 8f 3d 97 9e 9c 3d
       0.008940239 0.050970227 0.0701959 0.07647436
000390 42 57 84 bc a3 9f 18 3d 52 c9 11 3d d9 c6 76 bc
       -0.016154889 0.037261616 0.035592385 -0.015062057
0003a0 53 84 06 be 28 0c e6 bd 8c 20 5d bd 06 58 97 3b
       -0.13136415 -0.11232787 -0.053986117 0.0046186475
0003b0 c8 5d bc 3b b6 9e 56 3c 30 04 33 bc 3f b2 9d 3d
       0.0057484843 0.013099363 -0.010926291 0.07700013
0003c0 1a e6 18 be 30 4a f1 bc 0a 82 a0 bd 49 21 66 bd
       -0.14931527 -0.02945432 -0.07837303 -0.056184087
0003d0 d0 1c 59 3d 94 4d ce 3c 70 0b f5 3c be ac fc 39
       0.053005993 0.025183477 0.02991268 0.00048193889
0003e0 f4 b3 06 3d 04 50 bd 3d 01 81 c2 3d ca 54 bf 3d
       0.03288646 0.092437774 0.09497262 0.09342344
0003f0 a4 18 87 3c 71 cd b3 bd 69 9c 83 bd fc 21 a0 3d
       0.016491242 -0.08779419 -0.06426317 0.07818982

convnet.c5.bias f4 [120]
000000 e8 95 d6 bb 3c e1 31 bc c9 56 59 3c 6c a4 b8 bc
       -0.006548632 -0.010856923 0.01326532 -0.02253934
000010 34 cb 39 3d 55 0a f7 3c c1 21 4b bd eb d2 5e 3b
       0.045359805 0.030156294 -0.049592737 0.0034000229
000020 78 e7 d8 bc a9 2a b9 3c 45 7a bc bc 5f eb 81 3c
       -0.02647756 0.02260335 -0.023007521 0.015859304
000030 9b 12 93 3c 16 9e 4a bd 6f 17 dc 3b 26 91 9a 3d
       0.017953208 -0.04946717 0.0067166607 0.07547216
000040 21 0b 44 3d a6 1d 1d 3d cd c3 b9 3c cd d1 2c 3c
       0.047862176 0.038358353 0.022676373 0.010548067
000050 85 99 ce bc 00 09 22 3c 46 35 41 bb 30 f4 9a bc
       -0.025219688 0.009889841 -0.0029481216 -0.018915266
000060 12 b9 be 3d 42 34 65 3c 99 21 b1 3c d1 16 61 bc
       0.09312643 0.01398951 0.021622466 -0.01373835
000070 43 c3 bf bc ad ef f5 ba 32 50 9c bc 41 6b 67 3d
       -0.023408538 -0.0018763446 -0.019081209 0.05649877
000080 0a 41 1d ba 3c bc 91 bc c1 b5 85 3d a4 62 5d 3d
       -0.0005998766 -0.017789952 0.065288074 0.05404915
000090 2a 9d d7 bc 37 d4 d0 bd 7a 26 29 bd bc d3 3c 3d
       -0.026320059 -0.10196727 -0.04129646 0.046100363
0000a0 a2 ca ce bc 2f 24 04 bd e7 04 d4 3c 65 3f a2 3d
       -0.025243107 -0.03226107 0.025881244 0.07922248
0000b0 b9 1a 3a bd 2b fb 83 bc 0d 66 86 3d 63 ea ab 3d
       -0.04543564 -0.016110977 0.065624334 0.08394315
0000c0 ca 6a cc 3b 0d d7 4c bc 02 ab 4b 3b c5 52 b1 3d
       0.006238316 -0.012502444 0.003107727 0.08658365
0000d0 17 5c f0 bc 57 d9 28 bd 1e e6 a1 bb bc 3c 28 3c
       -0.029340787 -0.041222896 -0.004940762 0.010268386
0000e0 e7 90 ce bd 6a 44 e4 3c a7 0a 0d 3b de f3 5b 3d
       -0.10086232 0.027864654 0.0021521242 0.053699367
0000f0 b8 d4 66 bd cb 6f fa 3d 4d ef 9c 3c e4 44 65 3d
       -0.05635521 0.12228354 0.019157076 0.055973902
000100 92 57 4f 3d 91 9f 03 3d 18 36 ce bc cb db 5f bd
       0.050620623 0.032134596 -0.025172278 -0.05465297
000110 1b e9 71 bd 4c 57 3e ba ce b9 3a bc 58 83 49 bb
       -0.059060197 -0.0007260933 -0.011396838 -0.0030748453
000120 5d 4f a8 3c 36 c3 ea 3c a1 70 de bc 45 71 b6 3c
       0.020545656 0.028657537 -0.027153315 0.022270808
000130 e5 e9 e8 3d 0a 1a 6d bd 20 55 dd bc cb 7d 58 bb
       0.11372737 -0.05788616 -0.02701813 -0.0033033963
000140 e3 36 e4 bb 6d 02 ec bc 65 fb 92 3c b1 3d 21 bc
       -0.006964551 -0.02880975 0.01794214 -0.0098413685
000150 ef c9 b1 3d c0 c5 7f 3d df a7 47 bd 65 01 b5 3d
       0.08681094 0.06244445 -0.04874408 0.088381566
000160 b8 7a 2f 3c a2 74 0a 3d 21 2f 12 3d 9e cb 76 bc
       0.010710411 0.033802636 0.035689477 -0.015063195
000170 82 32 7d 3c a0 c7 e7 b9 56 a2 aa 3b e6 b4 5d bd
       0.0154539365 -0.00044208486 0.0052073402 -0.054127596
000180 bf 69 19 3d fa ce 70 3c 51 b5 b3 39 4c 58 22 3d
       0.037454363 0.014697785 0.00034276632 0.039634988
000190 48 8d d8 bc 34 0a 6b bd cd 4b 51 3b cf 4e ba 3d
       -0.026434556 -0.057382777 0.003193605 0.09097063
0001a0 4d c8 15 bd ac 4d 85 3d 84 ae 72 bd b9 3f d1 3c
       -0.036567975 0.06508955 -0.059248462 0.02554308
0001b0 44 f9 80 bb 70 ba 97 3d 0e bb 26 3c 17 37 11 bc
       -0.003935965 0.07408607 0.010176433 -0.008863232
0001c0 0a af 2e bc 90 b4 a6 38 08 82 6e 3c 60 99 35 3b
       -0.01066185 7.949129e-05 0.014557369 0.0027709827
0001d0 2f e4 92 3c 0c ab 5a bb fe bc 70 3c 0f 1f a8 3c
       0.017931072 -0.0033366112 0.014693497 0.020522622

fc.f6.weight f4 [84, 120]
000000 f8 b7 13 bd d5 15 a7 bc 0d 92 3c 3b 6f 36 01 3e
       -0.03606412 -0.020396153 0.0028773576 0.12618421
000010 29 5c 17 3e 99 4a ee 3b 2d 37 2c bd d1 70 dc 3c
       0.1478125 0.0072720763 -0.042044807 0.026909264
000020 ec 37 2c bb 6f c1 86 bd 8c c8 0d 3c 90 0e 02 be
       -0.002627845 -0.06579863 0.008653771 -0.12700868
000030 cf 40 2b bd 02 00 02 3d 6f cd 5c 3c 37 48 e7 3d
       -0.041809853 0.03173829 0.013476714 0.11293071
000040 15 82 fa 3d 76 a9 d3 3c d9 3e 00 bd 2d 47 9f 3c
       0.122318424 0.025837641 -0.031309936 0.019443119
000050 3b 41 a9 bd 6f 09 43 3e b3 b8 f1 3d 37 f0 bc bd
       -0.08264395 0.19046567 0.11802807 -0.09225505
000060 69 6b f7 bd 02 e7 b8 3d cb 67 ab bd f5 8b 12 3e
       -0.12081034 0.09028436 -0.08369406 0.14311202
000070 08 c6 0e 3e 97 ba 7b bd 27 b8 b7 3d fb bb e3 3d
       0.1394273 -0.061457243 0.08970671 0.11119839
000080 7b fd c8 3d ed 2f cb bd 48 43 77 bd 87 76 3a be
       0.098139726 -0.099212505 -0.0603669 -0.18209277
000090 f8 f2 40 3b 52 a4 5a bd c0 c2 6b 3c 50 01 08 3e
       0.0029441696 -0.053379364 0.014389694 0.1328175
0000a0 d5 b0 33 3d c2 96 a6 bd 9b 94 ab 3d 0d cc 09 3e
       0.043869812 -0.081342235 0.083779536 0.13456745
0000b0 01 4e cf 3d ed 9e b1 3c 25 35 ac 3d e1 70 5a bc
       0.101223 0.021682227 0.08408574 -0.0133325765
0000c0 6b b4 43 3d 5c bc c4 3d 65 74 5d 3b 33 04 bd bd
       0.04777948 0.09606239 0.00337913 -0.092293166
0000d0 d1 35 53 bd 80 a1 34 bd ff 5f 9f 3a 73 4c a4 3d
       -0.051564995 -0.04409933 0.0012159346 0.08022394
0000e0 d7 42 04 3e 6c b0 6b bd 88 b4 55 3d ec 82 db 3d
       0.12916122 -0.057541296 0.05217412 0.10718331
0000f0 c2 e6 3d bd 66 6f 84 3d ec fb d9 bd 56 95 e7 3b
       -0.046362646 0.0646656 -0.106437534 0.007067363
000100 e4 cc 0f 3e ad 16 9f 3c d7 81 18 3c 88 4d 13 3d
       0.14043003 0.019419992 0.0093083 0.03596261
000110 75 af 5f 3d 7c 84 01 3e b6 33 b5 3c 62 c5 1b 3e
       0.05461069 0.12648195 0.022119384 0.15212014
000120 dd a8 74 3c fa 2e 7d bc 14 c9 23 bd cb 04 23 bb
       0.014932838 -0.015453095 -0.039986685 -0.0024874683
000130 86 e2 36 3d 05 62 5d be c1 cd 40 bb e4 7c 57 bd
       0.044649623 -0.21619423 -0.0029419514 -0.05260934
000140 b1 5d ce 3d 40 5e 27 bd 1f e9 71 bc 6e 1d ff bc
       0.10076464 -0.04086137 -0.014765053 -0.031141963
000150 8c 9f b6 3d ed 78 8d 3d 35 fd e8 3d 57 d7 97 3d
       0.0891715 0.069078304 0.113764204 0.0741412
000160 44 59 93 bd 5c 75 9b 3d d9 1a a2 bb 38 f9 7d bd
       -0.071947604 0.07590744 -0.004947048 -0.06200525
000170 0a 1f 8d 3d 59 ac 3f 3c d5 5b 98 bd 79 c6 c8 3d
       0.06890686 0.011698806 -0.074393906 0.09803481
000180 98 84 53 bc 58 58 3a 3d 9b fb ac bd f0 de a5 3d
       -0.012910031 0.045494407 -0.084464274 0.080991626
000190 fb 4e 19 bd ae 07 8c bb 14 03 99 bc 8b e9 e0 3c
       -0.037428837 -0.0042733764 -0.018678226 0.027455112
0001a0 ef 4e 8a 3d 49 0e 93 3d de d2 9b bd 34 40 01 3c
       0.06753337 0.07180459 -0.07608579 0.007888842
0001b0 7e b0 a9 bc f5 9d 09 3d 17 f2 bb 3c 08 4d 55 3d
       -0.02071404 0.033597905 0.022942586 0.052075416
0001c0 9f de 62 3d e7 59 0c 3e 54 65 8d bc 48 bf c6 3d
       0.05538809 0.1370617 -0.017260231 0.09704453
0001d0 40 4f 47 3d a6 f7 3a be f8 66 50 3d e5 40 29 3e
       0.048659563 -0.18258533 0.05087945 0.16528662
0001e0 4d 2e 72 bd c9 3e 03 bd 50 0f 6d bd 77 27 e0 bd
       -0.059126187 -0.0320423 -0.05787593 -0.10945027
0001f0 53 7c d7 bc d8 9e f1 3d 1b a3 05 3e d3 99 de bc
       -0.0263044 0.11797875 0.13050501 -0.027172958
000200 40 04 60 3d fe 04 b9 bc 44 35 64 bc b1 60 5f bd
       0.054691553 -0.022585388 -0.013928715 -0.05453557
000210 3f d8 d0 bd 31 8f 30 bd a8 b7 32 be 3d b6 70 3d
       -0.10197496 -0.043105308 -0.17452872 0.058767546
000220 67 38 ce bd 49 5e 58 3d 00 76 84 bc 70 cc 7c 3d
       -0.10069352 0.052824292 -0.016169548 0.061718404
000230 3a 90 0f 3c db ff c2 bd d6 af 05 bc 75 ae db 3c
       0.008762414 -0.09521457 -0.008159598 0.026816586
000240 6f 95 c9 3d da 08 e7 3d 7e 2d 90 3c 29 3b 3c bc
       0.09842955 0.11280985 0.017599817 -0.011488714
000250 05 46 0a 3e f2 7c f2 bc c7 ce fe bb 10 57 f7 bc
       0.13503273 -0.029600594 -0.0077761146 -0.030192882
000260 80 a7 f2 3d ed 92 da 3d 55 2d 18 3d ad c2 31 3c
       0.11848354 0.10672555 0.037152607 0.010849637
000270 14 36 be bb 91 a6 8f bd 46 bb b2 bb e3 5b d4 3c
       -0.0058047865 -0.07014192 -0.0054544536 0.025922721
000280 12 e9 09 3d f2 6c 9c 3d 56 e0 48 3d 23 21 c3 3c
       0.03366954 0.07637967 0.04904207 0.023819512
000290 da 9a 24 3d 1d bc 8b 3d fc d0 44 3c 16 2e 10 3e
       0.04018674 0.06822989 0.012012716 0.1408008
0002a0 62 84 51 3c d6 66 29 3d dc 82 ab 3d a2 d5 b7 ba
       0.01278791 0.041357838 0.08374569 -0.001402546
0002b0 2f 5a 6a bc 49 73 7e bd b3 d6 61 bd d6 74 92 3d
       -0.014303728 -0.062121663 -0.055136394 0.07151191
0002c0 2f 09 9b bd 16 1d 79 bd b0 66 31 3d 23 c6 ac bd
       -0.07570111 -0.060818754 0.04331082 -0.08436229
0002d0 17 d7 74 3d 12 10 39 3e f6 0b 26 bd 09 87 1f 3e
       0.05977544 0.18072537 -0.04053875 0.15578856
0002e0 73 a4 8b 3d 6e 9c 2a bd 72 76 7e bd 01 ae 2b be
       0.068184756 -0.04165309 -0.062124677 -0.16765596
0002f0 db fc e4 bb b2 09 9e 3d 12 9b bf 3d 3e 6b bf bd
       -0.0069881505 0.07716693 0.09355749 -0.09346627
000300 56 62 2c bb 18 f2 2a 3e 16 34 28 bd c8 8c 91 3c
       -0.002630373 0.16693914 -0.041065298 0.017767325
000310 19 96 ec bb 80 fe 0c 3e f5 e6 c3 3d 96 ae 38 3d
       -0.0072200415 0.13768959 0.09565536 0.045088373
000320 4b b9 ec 3d 94 67 d3 bc ee ed 9e bd de 82 62 3d
       0.11558779 -0.025806226 -0.07760225 0.055300586
000330 d0 ee 95 3d 07 1a 16 3d ed e1 12 3d ae 49 19 3d
       0.073209405 0.036645915 0.03585999 0.037423782
000340 1c 42 40 3c 55 28 ac 3d 69 66 e6 3d a0 f4 ed 3c
       0.011734512 0.0840613 0.11250002 0.02904731
000350 55 f1 c6 ba c8 4b 8c 3d 74 41 72 bd cb 72 85 3d
       -0.0015178124 0.068503916 -0.059144452 0.06516036
000360 88 2f 29 3e 63 72 f5 3d 6e fa 8d bd 07 65 cf bd
       0.16522038 0.11984708 -0.06932531 -0.10126691
000370 a6 07 9f bd de 0c 83 3d 62 01 07 3d 79 64 23 bd
       -0.07765131 0.063989386 0.032960303 -0.03989074
000380 9c 24 9b 3c d9 a3 a9 3d 5d d0 70 3d 86 5a bc 3d
       0.018938355 0.082832046 0.05879246 0.091969535
000390 54 7f 82 bd c6 f1 92 3c ad 0a 07 3d 7b 62 b5 bc
       -0.06371942 0.017937552 0.032969166 -0.022141686
0003a0 14 ce 02 3c e8 7c 08 be bb 7c 98 bc 27 b0 e9 3d
       0.007983703 -0.13328898 -0.018614164 0.114105515
0003b0 e7 7f d1 3c 2b bb 13 3e a7 0b 41 bd 5a 89 ee bc
       0.025573684 0.14426868 -0.047130253 -0.029118229
0003c0 74 f7 9c bb 3f 8f a7 3d 04 13 5d bd 4e 9e 02 3d
       -0.004790241 0.08181619 -0.053973213 0.031889252
0003d0 82 5e 37 3c cc 05 97 3d d4 b3 52 3d b1 3e dc bc
       0.011191966 0.073741525 0.05144103 -0.026885362
0003e0 63 9d c9 bd d2 fd 8c 3d f7 95 da bd fc b5 03 3d
       -0.09844472 0.0688435 -0.10673135 0.032155976
0003f0 26 55 8b bd 41 7e bc 3c 29 18 06 bb c2 cf a0 bd
       -0.0680335 0.023009421 -0.0020461178 -0.07852127

fc.f6.bias f4 [84]
000000 47 4e a7 3d 17 fd f8 3d 0a 33 3d 3d cc bd 7a bc
       0.08169227 0.12157648 0.046191253 -0.01530404
000010 af ff 96 3b 58 88 e6 3d 11 9e 0a 3b 95 7f ee bc
       0.0046081166 0.11256474 0.0021151344 -0.02911357
000020 84 ec 19 3e 33 74 df 3d 24 e2 ab bd c9 3d a7 bd
       0.1503163 0.10910835 -0.08392742 -0.081660815
000030 8f 8c 15 bc 8a ba b2 3c 63 57 72 bd 18 4a e6 3d
       -0.00912775 0.021817464 -0.05916537 0.11244601
000040 b7 60 2d bc 2c ca 66 3c 98 37 75 3d 21 7a a1 bd
       -0.010582141 0.0140862875 0.05986747 -0.07884622
000050 5b 58 20 bc 59 43 8b 3c 1b 37 86 3c dc d5 a3 3d
       -0.009786691 0.016999887 0.016383698 0.07999775
000060 ef fb 2a 3b cf 4a 1e 3d bc 18 e6 3d e4 61 2b 3d
       0.0026090106 0.03864556 0.112351865 0.041841403
000070 7f 04 ec 3c 66 df dc 3d 4e 5f e4 3d 6e 11 c9 bd
       0.028810738 0.10784797 0.111509904 -0.098177776
000080 93 7e ae bd 62 e9 d4 3d 85 63 fb bc f1 61 4d 3d
       -0.08520236 0.10396077 -0.030687103 0.050142232
000090 c1 87 2e bd e1 a5 81 3d 5e 6e 5b 3d ea b9 e8 3d
       -0.042609934 0.06330467 0.05357205 0.11363585
0000a0 54 91 e4 3c a5 13 91 bd bb b4 31 bc 59 ca ea 3c
       0.02790133 -0.07083825 -0.010846312 0.02866094
0000b0 78 77 b9 bd d3 f0 92 bd a1 00 70 bd f8 d2 3b 3c
       -0.0905599 -0.0717484 -0.05859435 0.011463873
0000c0 48 05 2e 3c 10 98 ba bd 92 c2 cb 3c ff 4c fe 3c
       0.010621376 -0.09111035 0.024873052 0.031042574
0000d0 90 db 37 3d 9d b1 b6 3c 3e a5 a3 3d 62 27 93 bc
       0.044887125 0.02230149 0.07990502 -0.017963115
0000e0 8c e0 6b bc b9 fc f2 3d f2 60 b3 3c c4 2e 88 3d
       -0.014396798 0.11864609 0.021896813 0.06649545
0000f0 1b 50 bb 3d 9c 84 69 3c 17 af ab bd 4e 29 d0 3d
       0.09146138 0.014252808 -0.08383005 0.10164128
000100 7a c5 81 3d 88 c0 c5 3d c4 2a 08 bd d2 aa f5 3c
       0.06336494 0.09655863 -0.03324391 0.02998868
000110 a3 2a 2d bd 11 10 53 3d 5e 19 3b bd c6 6e 18 bd
       -0.04227699 0.051528994 -0.04567849 -0.037215017
000120 23 e3 58 bd e4 df eb 3d 02 78 09 3d e7 06 0a 3c
       -0.05295099 0.11517313 0.033561714 0.008424497
000130 b1 a1 60 3d c8 7e 59 3d b0 9c c4 3c f9 49 8a 3c
       0.0548417 0.053099424 0.024000496 0.016880976
000140 3e 53 f0 3d 4a 01 59 3d 41 f6 57 bd 3b e6 41 bd
       0.11734627 0.052979745 -0.05272508 -0.047338706

fc.f7.weight f4 [10, 84]
000000 71 e4 d4 3c 43 a0 11 be 28 aa a7 bd b9 e0 70 bd
       0.025987836 -0.14221291 -0.081867516 -0.058808062
000010 53 8b 0b 3e 0c 06 af bd 06 b6 80 3d 75 27 40 bc
       0.13627367 -0.08546075 0.06284718 -0.011728157
000020 41 4c fb bd ba 3e 8e bd 45 2c b0 bc 5f 34 a4 bd
       -0.12270404 -0.06945558 -0.021505484 -0.080178015
000030 fd 0b df 3c 6b cb 0e be f5 f2 75 3d 64 1c 1e 3d
       0.027227396 -0.13944785 0.060046155 0.038601294
000040 bc f3 a7 3d a3 50 8e 3d 32 e3 86 bd e7 d1 38 be
       0.082007855 0.06948974 -0.06586303 -0.18048821
000050 d3 20 1a 3e 37 0e 5c bd 11 45 70 bc 50 c6 5f bd
       0.15051584 -0.053724494 -0.014664904 -0.054632485
000060 f2 6e aa bc e9 ab e6 bb 03 5d 64 bc 62 d3 3e bc
       -0.020804856 -0.0070395363 -0.013938191 -0.011647077
000070 1b 13 e0 bd dc d2 1f bd a8 88 0d be d3 71 5c bd
       -0.10941144 -0.03901945 -0.13821661 -0.05381949
000080 07 2d 47 3d 5e ba 20 3e 0e 2c a3 bd e6 04 1f be
       0.048626926 0.15696093 -0.07967387 -0.15529212
000090 1c fd 60 bd d6 fa 82 3d d8 b3 e1 3d f8 bd 64 bd
       -0.054928884 0.063954994 0.110206306 -0.05584523
0000a0 c6 de de 3d 60 ac c2 3d 5d ce 42 bd c4 9e 10 3e
       0.108823344 0.09505534 -0.047560085 0.14123064
0000b0 ab b8 0e bd 6a 87 db bd ed 6f a9 bd eb 59 41 bc
       -0.03484408 -0.107191876 -0.08273301 -0.011801223
0000c0 43 0f f7 3c 06 bb d1 bd 91 cb 3d 3d 93 0d 27 bd
       0.030158645 -0.1024075 0.046336714 -0.04078443
0000d0 cb 34 4e 3d 88 e2 18 be 66 da f0 bd 14 ac e5 3c
       0.050343316 -0.14930165 -0.11760406 0.028036155
0000e0 ce d2 9b bd 5f 87 c0 3c e7 8c cf 3d 60 4c 76 3d
       -0.07608567 0.02350205 0.10134297 0.06013143
0000f0 d6 1b e4 bd 35 32 4c be 1b fd 19 bc 6b 07 37 3e
       -0.11138122 -0.19941027 -0.009398724 0.17873923
000100 e8 e5 00 bd fe 8d 40 3d ae 12 bd 3d 57 53 00 be
       -0.031469256 0.047010414 0.092320785 -0.12531792
000110 54 2c 5e bc 95 21 43 3c d7 f6 23 be f6 19 9b bc
       -0.013560373 0.011909862 -0.1601213 -0.018933278
000120 ef ef 61 bd 2f 89 25 3d 16 57 61 3c 59 e8 67 3d
       -0.05516046 0.04041403 0.013753673 0.05661807
000130 6e 77 b6 bd b6 de 48 be c9 9d 56 bd 8f 3e 1c 3d
       -0.08909498 -0.19616207 -0.05239657 0.038145598
000140 01 9a f8 bd 6e 9f 8f bb 2f 6b a5 3d 9a 83 39 3d
       -0.12138749 -0.004383019 0.08077084 0.04529152
000150 ee 33 5d be 47 2b 97 3d 76 cf 1b 3e 4f d2 45 bc
       -0.21601841 0.073813014 0.15215859 -0.012074067
000160 dc e4 90 3d e5 1d 54 bd be 23 61 3d eb c4 3f be
       0.070749015 -0.051786322 0.054965727 -0.18727462
000170 83 07 db 3d f6 b5 a8 3d 17 30 80 bd b8 e4 6b bd
       0.10694792 0.08237831 -0.062591724 -0.05759117
000180 a4 44 af 3d c5 23 47 3e 3a 4a 15 be 76 6c 58 3e
       0.08558014 0.19447239 -0.14579096 0.21135125
000190 45 ec 84 3d b0 62 e1 3d af 94 3b bd 23 f5 37 3e
       0.06490377 0.11005151 -0.045796093 0.17964606
0001a0 07 e6 17 3e e1 80 0e be 94 26 8a bd 68 91 aa bd
       0.14833842 -0.13916351 -0.067456394 -0.08328515
0001b0 b3 3c 76 bc d5 36 f6 3c 8b e0 e2 3c d7 3f 35 be
       -0.01502912 0.030055443 0.027694961 -0.17700134
0001c0 e0 70 0a be e9 44 e3 3d bc 98 b7 3c 80 f6 a8 bd
       -0.13519621 0.11097128 0.022411697 -0.08250141
0001d0 49 23 1b bd a0 e9 43 3d 79 ff 23 be 07 3b 8f 3d
       -0.037875447 0.047830224 -0.16015424 0.069936804
0001e0 a1 7b 8c bd 70 d5 7a 3d 66 b0 96 bd 8c 7c 26 3e
       -0.06859518 0.061238706 -0.07357864 0.16258448
0001f0 81 d2 d6 bd 7f ea 9f bc 72 19 ca bd db bb 32 be
       -0.10489369 -0.019520996 -0.098681346 -0.17454474
000200 19 8a 14 bd d4 09 bd 3d ec 3e a3 bd 81 8c 09 be
       -0.036264513 0.0923039 -0.07970986 -0.13432504
000210 b0 52 fc bc 74 03 54 be 8b dd 04 3e b1 1d e1 bc
       -0.030801147 -0.20704442 0.12975137 -0.027479978
000220 40 16 8e bd 15 b3 9d bd 53 7b a3 3d 48 ad 01 3d
       -0.069378376 -0.07700173 0.079825066 0.031659395
000230 cc 56 f5 bc 5a 09 d3 3d 89 ac 77 3c a7 5f 1b 3e
       -0.029948615 0.10304518 0.015116819 0.15173207
000240 0f ed 1f 3e ab 65 e0 bd 41 dd 64 bd d6 e3 1e bd
       0.15617774 -0.109568916 -0.055875067 -0.0387915
000250 7c 3b 26 be 20 11 28 be 26 53 cc 3d 9e 4a bd bd
       -0.16233629 -0.16412783 0.09976797 -0.09242748
000260 e1 07 3e bd 35 de 1e be ac d1 6d 3d fb ee 89 be
       -0.046394233 -0.15514453 0.058061287 -0.2694014
000270 28 9d 5c bd bf 4a 38 3e 07 e9 2a be 13 72 1c bd
       -0.053860813 0.17997263 -0.16690455 -0.038194727
000280 2c 34 d2 3d e2 fa ab bd b2 42 0a 3d 92 ca cb bd
       0.10263857 -0.083974615 0.03375501 -0.099507466
000290 b9 88 8f bc f9 ad 2d be 2c de 61 bd af ee 25 be
       -0.01752125 -0.16960897 -0.05514352 -0.16204332
0002a0 c4 b6 92 3c c7 d9 fd bd b1 0e 85 3d 82 59 12 3e
       0.017909415 -0.12395053 0.06496943 0.14291957
0002b0 f1 25 87 3d 96 7f 01 be bf 3c 69 3d e5 bd f5 bd
       0.065990336 -0.12646326 0.056942698 -0.1199911
0002c0 c6 f7 53 bd da e3 95 bb 4f 2b 34 bd 76 96 1b bb
       -0.051749967 -0.004574281 -0.043986615 -0.0023740805
0002d0 55 ec 79 be aa 54 dc 3d 24 9d 9b bd 96 95 9b bc
       -0.2440656 0.10758336 -0.075983316 -0.018992227
0002e0 cb 7d 01 be 97 76 97 bd 61 86 af 3d 7e 55 6a 3d
       -0.12645642 -0.07395666 0.085705526 0.057210438
0002f0 7b e8 1f 3d 98 0e 24 be c0 c5 c6 3d 50 de 6c 3b
       0.03904007 -0.16021192 0.097056866 0.003614325
000300 90 73 e4 bd e1 1b 61 3d cc 80 34 be 77 4c a8 3d
       -0.11154854 0.054958228 -0.17627257 0.082177095
000310 9f cd 9b 3d ac e3 1d be 6f 3f 0e bc 17 e3 36 bd
       0.076075785 -0.15418881 -0.008682116 -0.044650164
000320 f2 1c a9 bd 5a 57 e5 3d 00 fb 8a 3b a6 66 02 3e
       -0.08257474 0.111983016 0.0042413473 0.1273447
000330 c3 06 a1 bd 5a da 07 bd 4a e6 98 3d 7b 0e df bd
       -0.07862618 -0.03316722 0.07465799 -0.10891434
000340 b8 20 fa bd a1 c0 44 3d 8b bb 0c 3e 06 95 f5 bd
       -0.12213272 0.048035268 0.13743417 -0.119913146
000350 fb 06 b8 bd 65 af 42 be 91 e0 19 3d 7a 5f 17 3e
       -0.089857064 -0.1901222 0.03756768 0.14782515
000360 31 cc 85 3d b2 42 57 bd db da 48 3d 65 ee 08 3e
       0.06533087 -0.05255384 0.04903684 0.1337219
000370 fb 8b a3 3d d8 31 24 bd 98 9d cb 3c e8 d7 07 be
       0.079856835 -0.040086597 0.02485542 -0.13265955
000380 e9 5a 9c bd b4 d2 72 3c ae 5b 64 3d a3 18 f6 bd
       -0.07634527 0.014820743 0.055751495 -0.12016418
000390 fa 92 53 bc 1d 03 2f 3d 52 e1 9c bd fd fb d6 3d
       -0.01291346 0.04272758 -0.07660164 0.10497282
0003a0 3a 8d fd 3d 8f 8b 07 3d ae 1f 9e bd c4 d9 92 bd
       0.123804525 0.033092078 -0.07720886 -0.07170442
0003b0 99 51 43 3d 86 13 23 bd 10 4e 82 bb 2d b3 56 bd
       0.04768524 -0.03981354 -0.003976591 -0.05241697
0003c0 e7 ad 50 bc ae 65 14 be 2d 84 05 3e 9f e5 fa 3d
       -0.012736774 -0.14491913 0.13038702 0.12250828
0003d0 50 a9 ce bd 5e 0e bd 3d 2e 75 62 3d 11 af 42 3d
       -0.100908875 0.09231256 0.055287533 0.047530238
0003e0 c1 31 fd bd a4 ba e7 bd 5a e9 6b bd 13 e9 ad 3d
       -0.123630054 -0.11314896 -0.05759559 0.08491721
0003f0 8b 74 9b 3d 11 b6 f5 bd 48 87 02 be 8d 10 d1 3c
       0.07590588 -0.11997617 -0.12746918 0.025520587

fc.f7.bias f4 [10]
000000 be f8 1d 3c 62 67 14 3e d7 1b 45 bd 8f 87 41 3c
       0.009641824 0.14492562 -0.048122253 0.011812105
000010 a4 04 95 bd 07 ff 90 3c 01 0a da bd 46 24 94 3d
       -0.07276276 0.017699732 -0.10646439 0.07233481
000020 11 68 4c bd 78 77 e3 bb
       -0.049903933 -0.006941732
