Lenet-5_mnist/model/9_model.pkl (torch, 250431 bytes, 10 tensors)

convnet.c1.weight f4 [6, 1, 5, 5]
-0.014946793 -0.21378496 -0.10338373 0.09268529 0.23739684 -0.17380658 0.13724016 -0.08689721
-0.053971943 0.13138346 -0.17447858 0.22852479 0.043135755 0.2645669 -0.11666914 0.096169665
0.33234408 0.23155625 0.2867558 0.04773064 0.0048233913 0.03349555 0.24933216 0.17447947
-0.009917041 0.023531903 -0.21353455 -0.423489 -0.39064896 -0.26947957 0.2002186 -0.15312126
0.03887594 -0.3267624 -0.2218475 0.1188924 0.33485264 -0.015476855 0.031543944 -0.0051235706
0.03084729 0.25773567 0.3100326 0.2546199 0.229793 0.107222825 0.047423124 0.2386294
0.083897024 0.27927542 0.19630826 -0.2022766 0.044125505 0.0550449 -0.043524235 0.20341371
-0.22330837 0.07000734 -0.11215121 0.16585211 -8.834434e-05 -0.04417426 0.16806996 0.21324435
0.1780331 0.119819015 0.120962985 -0.15237413 0.23110676 0.14024924 0.21061948 0.14882898
-0.30027717 -0.26106724 0.010737014 -0.09051236 0.114217676 0.06496894 0.22895053 0.2523335
-0.121729575 0.2699336 0.24922422 0.12289097 0.14141439 -0.059118435 0.27090406 -0.02767549
-0.1164796 0.060554087 -0.007916539 -0.05961853 -0.03274689 -0.22241086 -0.049725488 -0.035632774
0.08977332 -0.18835828 0.043120813 0.012956376 0.31246123 0.34356546 0.0018311881 0.09881691
-0.34109586 0.14034775 0.15990455 0.118030995 -0.12990801 -0.35743347 0.18360163 0.35066894
0.055970956 -0.3690455 -0.34815904 0.13059074 0.12645367 0.096140414 -0.18986729 -0.25049582
0.22893488 0.26156572 -0.02058256 -0.2757366 -0.1319103 0.15888184 0.32383713 0.1904306
0.22733748 0.42476544 0.12389878 0.4045556 0.30514368 0.08075957 0.058295477 0.04719951
-0.1531427 -0.094867855 0.093680926 0.035445828 -0.041520156 -0.3727188 -0.25138795 -0.2622873
-0.3314448 -0.37396315 -0.2744001 -0.322669 -0.3151531 0.11654672
00000000: 65e3 74bc 72ea 5abe d9ba d3bd c9d1 bd3d
00000010: 2818 733e 5afa 31be af88 0c3e 2af7 b1bd
00000020: af11 5dbd 6389 063e 83aa 32be 6702 6a3e
00000030: 1eaf 303d 5075 873e 3bf0 eebd 9af4 c43d
00000040: 0129 aa3e 151d 6d3e a8d1 923e 3481 433d
00000050: 8a0d 9e3b a132 093d ee50 7f3e bfaa 323e
00000060: 167b 22bc fac5 c03c cda8 5abe 8dd3 d8be
00000070: 2403 c8be 3af9 89be 1b06 4d3e d2cb 1cbe
00000080: 613c 1f3d 674d a7be fe2b 63be dc7d f33d
00000090: ce71 ab3e a392 7dbc 3934 013d a0e3 a7bb
000000a0: 75b3 fc3c eef5 833e 98bc 9e3e 8a5d 823e
000000b0: db4e 6b3e a497 db3d c03e 423d 445b 743e
000000c0: 34d2 ab3d 30fd 8e3e 0805 493e 9921 4fbe
000000d0: f2bc 343d c376 613d 7846 32bd af4b 503e
000000e0: f3aa 64be 0260 8f3d 89af e5bd 23d5 293e
000000f0: 8245 b9b8 12f0 34bd 881a 2c3e ba5c 5a3e
00000100: 4f4e 363e ac63 f53d 71bb f73d f707 1cbe
00000110: 40a7 6c3e 7f9d 0f3e a2ac 573e a066 183e
00000120: eebd 99be 9baa 85be 4dea 2f3c 8b5e b9bd
00000130: f5ea e93d 700e 853d 0272 6a3e db31 813e
00000140: 5b4d f9bd bd34 8a3e a234 7f3e 43ae fb3d
00000150: efce 103e 2c26 72bd f0b3 8a3e b6b7 e2bc
00000160: db8c eebd 9007 783d 5fb4 01bc 8f32 74bd
00000170: 9a21 06bd acbf 63be f4ac 4bbd acf3 11bd
00000180: 13db b73d fee0 40be 739f 303d fb46 543c
00000190: ebfa 9f3e d0e7 af3e 7a04 f03a 8560 ca3d
000001a0: 1ea4 aebe 52b7 0f3e 05be 233e 3cba f13d
000001b0: 9b06 05be 8501 b7be 1102 3c3e e18a b33e
000001c0: cd41 653d 88f3 bcbe e741 b2be 94b9 053e
000001d0: 127d 013e 44e5 c43d 926c 42be fd40 80be
000001e0: e86d 6a3e f1eb 853e c29c a8bc 592d 8dbe
000001f0: 7e13 07be ecb1 223e fbcd a53e 3d00 433e
00000200: 28cb 683e db7a d93e a5be fd3d e921 cf3e
00000210: cb3b 9c3e 4665 a53d 3dc7 6e3d 4654 413d
00000220: 71d1 1cbe 144a c2bd c9db bf3d a52f 113d
00000230: 0a11 2abd 00d5 bebe ecb5 80be 854a 86be
00000240: 22b3 a9be 1978 bfbe 2b7e 8cbe df34 a5be
00000250: bf5b a1be 0cb0 ee3d

convnet.c1.bias f4 [6]
-0.018535016 0.0015200557 -0.031812757 -0.009060781 0.07420985 0.14069568
00000000: bfd6 97bc 9b3c c73a 184e 02bd ac73 14bc
00000010: 55fb 973d 8712 103e

convnet.c3.weight f4 [16, 6, 5, 5]
0.02797899 0.119321354 0.097952895 0.10225081 -0.109446034 -0.0059861476 -0.0067377277 0.118549176
0.051514663 -0.109127074 -0.059952 0.021369573 0.09716602 0.042527635 -0.101747796 0.03311041
0.14307182 0.11918422 -0.034039106 0.0054935496 0.023099624 0.066073634 0.082026124 -0.15130436
-0.25525847 0.10884363 0.078128375 0.061933592 0.06200274 -0.15621467 -0.06435533 -0.1530893
-0.123287655 -0.08052099 -0.21563205 -0.0829025 -0.17051263 -0.08271316 -0.09854158 0.06509081
-0.013811306 -0.23170103 -0.09897845 0.00759474 0.11621132 -0.20096865 -0.28770778 -0.26356235
-0.096145 -0.09965898 0.021199964 0.04935906 -0.004300947 0.095729314 0.09858244 0.10197494
-0.06971144 -0.087230705 0.058812726 -0.070117556 -0.15731415 0.05995829 -0.0052753687 0.1261429
0.018784761 -0.13026825 0.098886244 0.11054813 0.17745394 0.08360394 0.02413387 0.051703893
0.10984065 0.016682265 0.052036792 0.06745006 0.013698503 0.051138304 -0.030388648 -0.054645225
0.1669532 0.110962935 0.13396716 -0.023294294 -0.019128462 -0.04223218 0.03281994 0.09290488
0.023921378 -0.098175764 0.011408202 -0.021357255 0.05315843 0.03047487 -0.011992896 -0.012734355
0.030430242 0.065439835 -0.004572583 0.026123594 -0.20652167 -0.18880594 -0.024269428 0.03461436
0.09607381 -0.1603927 -0.18360434 0.08759359 0.110104986 0.06642322 -0.32821056 -0.3142926
0.064394176 0.1727684 0.11413617 -0.43236065 -0.24681285 0.105148174 0.23108329 0.096202105
-0.32816127 -0.07108196 0.15865211 0.09972342 0.0732699 0.118590035 -0.033127867 -0.23775159
-0.11573038 0.11209072 0.17924142 0.06810987 -0.239016 -0.3063008 0.051497955 0.16259941
-0.19751792 -0.31166276 -0.27248955 -0.16519284 -0.0892626 -0.2617889 -0.29284617 -0.2096945
0.023844471 -0.008782404 -0.034416735 -0.10426295 0.04951907 0.17572305 0.049962744 0.076789826
-0.0007456456 -0.028957708 -0.098222055 0.07590608 0.112114534 0.055754624 -0.04453397 -0.020919438
0.11530263 0.08703412 -0.03361485 0.04958603 -0.011829094 -0.045212224 0.11281972 0.004205355
0.041293304 -0.030845527 -0.1991987 -0.1266462 -0.16443759 -0.16860227 -0.15409671 0.09091757
0.21385095 0.21473928 0.12645702 0.1462504 0.021972835 0.033145826 -0.12731408 -0.04617041
0.00026370608 -0.10498677 0.0760673 0.04701025 -0.033653453 -0.10377188 -0.21561582 0.16497423
0.30947244 0.15652175 0.079716995 -0.3076924 0.0052515813 0.013543665 0.019457055 0.06300845
0.045433845 0.098986275 0.09493258 0.060583137 -0.082687795 -0.03994331 0.12327885 0.15740861
0.032457575 -0.030947842 -0.053081445 0.03657745 0.07619615 -0.0340367 0.0778614 0.035156816
0.024402302 0.14058277 0.027416645 -0.032821786 -0.017377859 -0.044008955 0.099802114 -0.055865366
-0.075223066 -0.059425082 0.055203374 -0.08324516 -0.11584166 -0.11465471 -0.043906245 0.14871126
0.0002499596 -0.019073784 0.03819635 0.055519123 0.1025478 0.026251491 0.022533553 -0.029308606
0.00899574 0.045719575 -0.09337555 -0.027010987 -0.088771686 0.048623174 0.034622766 0.018784864
0.068671 0.00967582 0.08105911 0.049740154 -0.09561992 0.015488176 0.044059064 0.082676984
00000000: 3234 e53c c15e f43d 879b c83d df68 d13d
00000010: 3e25 e0bd 7227 c4bb 28c8 dcbb e9c9 f23d
00000020: 0a01 533d 047e dfbd 3a90 75bd 3e0f af3c
00000030: fafe c63d 7531 2e3d 2661 d0bd c89e 073d
00000040: 6b81 123e db16 f43d 976c 0bbd 3c03 b43b
00000050: 6c3b bd3c 9d51 873d 50fd a73d 88ef 1abe
00000060: 3db1 82be 69e9 de3d c501 a03d 14ae 7d3d
00000070: 96f6 7d3d bdf6 1fbe bacc 83bd 71c3 1cbe
00000080: 3d7e fcbd 30e8 a4bd a6ce 5cbe c9c8 a9bd
00000090: dd9a 2ebe 8465 a9bd 2bd0 c9bd 554e 853d
000000a0: d148 62bc 0943 6dbe 37b5 cabd 4cdd f83b
000000b0: 3300 ee3d baca 4dbe 6f4e 93be a5f1 86be
000000c0: abe7 c4bd 021a ccbd 8cab ad3c ba2c 4a3d
000000d0: f5ee 8cbb bb0d c43d 97e5 c93d 3dd8 d03d
000000e0: dfc4 8ebd 03a6 b2bd 9de5 703d cb99 8fbd
000000f0: f616 21be d396 753d 00dd acbb 9b2b 013e
00000100: 80e2 993c 0a65 05be df84 ca3d 0f67 e23d
00000110: 7cb6 353e 8b38 ab3d 65b4 c53c 76c7 533d
00000120: 22f4 e03d 3fa9 883c 8824 553d 4223 8a3d
00000130: b06f 603c 6676 513d 9df1 f8bc acd3 5fbd
00000140: c8f5 2a3e 8940 e33d b02e 093e add3 bebc
00000150: 4bb3 9cbc a6fb 2cbd 346e 063d ea44 be3d
00000160: c4f6 c33c 6010 c9bd 78e9 3a3c 69f5 aebc
00000170: a7bc 593d 6fa6 f93c da7d 44bc c2a3 50bc
00000180: d848 f93c 5205 863d 9bd5 95bb 2601 d63c
00000190: 6b7a 53be 5856 41be aed0 c6bc cac7 0d3d
000001a0: 58c2 c43d fc3d 24be c702 3cbe 4564 b33d
000001b0: b97e e13d e608 883d 370b a8be f6ea a0be
000001c0: 18e1 833d 33ea 303e 39c0 e93d 605e ddbe
000001d0: 82bc 7cbe ed57 d73d 19a1 6c3e 9c05 c53d
000001e0: c104 a8be 6b93 91bd b375 223e cb3b cc3d
000001f0: 880e 963d 55df f23d 16b1 07bd 2775 73be
00000200: 0d04 edbd d28f e53d 108b 373e 307d 8b3d
00000210: 9cc0 74be 75d3 9cbe 85ef 523d 7680 263e
00000220: 2342 4abe 4392 9fbe c083 8bbe 5028 29be
00000230: 4fcf b6bd 3209 86be efef 95be 28ba 56be
00000240: 7b55 c33c 12e4 0fbc 90f8 0cbd d087 d5bd
00000250: 82d4 4a3d bef0 333e bca5 4c3d fc43 9d3d
00000260: 6e77 43ba b738 edbc a528 c9bd a674 9b3d
00000270: 4e9c e53d f65e 643d 4169 36bd 3e5f abbc
00000280: c923 ec3d f23e b23d baaf 09bd b91a 4b3d
00000290: d1ce 41bc 7430 39bd 060e e73d 13cd 893b
000002a0: 2b23 293d c2af fcbc befa 4bbe 8baf 01be
000002b0: 5462 28be 13a6 2cbe 87cb 1dbe fe32 ba3d
000002c0: befb 5a3e 9de4 5b3e f37d 013e aac2 153e
000002d0: 6000 b43c ebc3 073d 9f5e 02be 2f1d 3dbd
000002e0: 0842 8a39 4e03 d7bd 2cc9 9b3d d28d 403d
000002f0: 34d8 09bd 5a86 d4bd 65ca 5cbe 01ef 283e
00000300: 2c73 9e3e 3d47 203e aa42 a33d dc89 9dbe
00000310: 7515 ac3b 40e6 5d3c 6764 9f3c 930a 813d
00000320: d718 3a3d 51b9 ca3d 036c c23d 0626 783d
00000330: 3858 a9bd 999b 23bd 9f79 fc3d b92f 213e
00000340: 3cf2 043d 5486 fdbc ee6b 59bd 3cd2 153d
00000350: ba0c 9c3d 116a 0bbd cc75 9f3d 9800 103d
00000360: 56e7 c73c eef4 0f3e df98 e03c 2370 06bd
00000370: 035c 8ebc bc42 34bd 0d65 cc3d 15d3 64bd
00000380: 8d0e 9abd b767 73bd ef1c 623d 707c aabd
00000390: 643e edbd 17d0 eabd 09d7 33bd c447 183e
000003a0: 020d 8339 a040 9cbc c773 1c3d 0568 633d
000003b0: 9504 d23d 5e0d d73c 4998 b83c 9a18 f0bc
000003c0: de62 133c 7344 3b3d ae3b bfbd 2546 ddbc
000003d0: eecd b5bd 1829 473d 9ad0 0d3d b7e2 993c
000003e0: 62a3 8c3d 5587 1e3c 5202 a63d 55bc 4b3d
000003f0: 60d4 c3bd 1ec2 7d3c 4777 343d 8d52 a93d

convnet.c3.bias f4 [16]
-0.06680027 -0.13854474 0.055432923 0.049626973 -0.07053525 0.038105104 0.058404647 -0.0025709716
-0.07054376 -0.013054655 -0.026950877 0.06797006 0.019457547 0.10134847 0.0052586175 -0.023810523
00000000: 94ce 88bd acde 0dbe a20d 633d a745 4b3d
00000010: c974 90bd 1914 1c3d b639 6f3d bf7d 28bb
00000020: 3f79 90bd 31e3 55bc 16c8 dcbc e333 8b3d
00000030: 6f65 9f3c c98f cf3d 7b50 ac3b 490e c3bc

convnet.c5.weight f4 [120, 16, 5, 5]
-0.0034432795 0.030111086 -0.030720282 0.05048282 0.018392755 -0.042737614 -0.13310748 -0.059836093
0.002039712 0.06401752 -0.055155747 -0.014485259 0.0104556335 -0.0645918 -0.15151429 -0.06585164
0.0019328418 0.0069732904 -0.042607497 -0.051781043 0.17044415 0.026287364 -0.077138476 -0.1223862
-0.026883561 -0.046990085 -0.006892403 0.005042529 -0.026476242 0.051113922 -0.08056091 -0.0070192507
-0.068253696 -0.04445688 0.027244637 -0.029065061 -0.04171623 -0.084316105 0.030334204 -0.02230422
-0.104795925 -0.064503044 0.004218848 0.044191465 0.014795589 0.07227282 0.14562559 0.08303692
0.11671467 -0.022759648 -0.011702413 -0.03435212 0.046828292 0.07782545 0.004599412 0.016611924
0.007396682 0.014871101 -0.063574396 -0.08154521 -0.015471706 0.012261974 -0.03896137 0.0019557045
-0.059512764 0.07246841 0.09868992 0.043991193 -0.06565674 0.033732954 0.026562152 0.061278068
-0.08208662 -0.03816761 -0.022356838 0.04884513 0.03228427 0.04210693 -0.045040127 -0.05709986
-0.030336551 0.022133814 -0.0858697 -0.12435664 -0.10952646 0.105270505 0.038076203 -0.009516078
-0.011241344 0.010333662 -0.009086052 -0.044056155 -0.1282047 -0.008762787 0.060696416 0.012310795
-0.029303985 0.092844196 0.15868822 0.07331812 0.021266546 0.043548148 -0.009655745 -0.013577368
-0.046018895 -0.036929987 0.026956068 -0.05233827 -0.011832166 0.026070215 0.021067712 -0.02232716
-0.043200098 -0.02002014 -0.050996535 -0.020309228 0.014911622 0.055993997 0.037024688 0.033278316
-0.015948784 0.04493386 -0.0040819272 0.0106646195 -0.0030773953 0.11857402 -0.042404976 0.055115886
0.10166637 0.038320407 0.13126536 0.08070392 0.027322473 0.01115266 -0.050487693 0.085625865
0.030387515 -0.06775255 -0.015423293 0.09281664 0.08544113 -0.018309291 -0.0067405077 0.014193248
-0.071600236 -0.037248973 0.031638775 0.023875864 0.0010565214 0.027267698 -0.036244757 -0.0061061764
-0.098430544 -0.034697227 0.08523731 0.070767425 -0.024036309 -0.12318724 0.05069228 0.007740872
0.0753662 0.07711236 0.017485604 0.030602548 -0.07566915 -0.11576446 -0.028988674 -0.016970882
0.1015449 0.0435802 -0.16870606 0.0483497 0.030285852 0.07673094 0.028708806 -0.09467213
0.060614213 0.13664475 0.068298005 0.024625361 0.0278765 -0.09206934 -0.092416115 -0.05417249
-0.045375586 -0.04599837 -0.05173357 -0.0154648805 -0.036721315 -0.052630745 -0.08694195 -0.021095308
0.04217284 0.018349055 -0.037586574 0.057435922 -0.033687115 0.022266956 0.043640923 0.017790912
-0.04905099 0.02258097 0.08778949 0.042657357 0.040377717 0.008834706 -0.018722158 -0.019242834
0.031794354 0.023745162 -0.023838993 0.017271914 0.03516214 -0.060384564 -0.048790682 -0.111317284
-0.025419807 0.014258271 0.048637122 0.024164848 0.00655126 0.033645958 -0.025714671 0.01642092
0.045488164 0.032277673 0.081822485 0.09650068 0.0019094057 0.088292055 0.055056684 -0.05677417
-0.16907689 -0.121750526 -0.030871522 0.008646563 -0.03489091 0.01004553 -0.049422868 0.06564832
-0.15863022 -0.015837688 -0.08597669 -0.07534965 0.020721406 0.042177673 0.047631744 0.0016858974
0.04673466 0.12012718 0.13668738 0.13774312 0.039301846 -0.10046692 -0.06211684 0.11382691
00000000: a5a8 61bb 86ab f63c 1aa9 fbbc 13c7 4e3d
00000010: 67ac 963c a30d 2fbd 544d 08be b116 75bd
00000020: b0ac 053b 9e1b 833d feea 61bd 9453 6dbc
00000030: 1b4e 2b3c b548 84bd 9026 1bbe 3add 86bd
00000040: 6957 fd3a 3380 e43b 3385 2ebd 5c18 54bd
00000050: e988 2e3e 9958 d73c c7fa 9dbd 9ea5 fabd
00000060: ea3a dcbc ad78 40bd abd9 e1bb cd3b a53b
00000070: b4e4 d8bc d55c 513d 1efd a4bd be01 e6bb
00000080: 98c8 8bbd 6b18 36bd 2530 df3c da19 eebc
00000090: a3de 2abd ecad acbd 707f f83c 57b7 b6bc
000000a0: 3f9f d6bd 2c1a 84bd 433e 8a3b 1c02 353d
000000b0: 3369 723c c603 943d e01e 153e 430f aa3d
000000c0: 1a08 ef3d 7172 babc 7abb 3fbc cfb4 0cbd
000000d0: 06cf 3f3d f362 9f3d aab6 963b bb15 883c
000000e0: de5f f23b eba5 733c 4b33 82bd 2d01 a7bd
000000f0: 0a7d 7dbc 72e6 483c f595 1fbd 472b 003b
00000100: a8c3 73bd 516a 943d f11d ca3d 1c30 343d
00000110: 0a77 86bd 912b 0a3d df98 d93c b6fe 7a3d
00000120: 081d a8bd a455 1cbd b025 b7bc d511 483d
00000130: 833c 043d 5178 2c3d ff7b 38bd 8be1 69bd
00000140: 5c84 f8bc f951 b53c 74dc afbd b2ae febd
00000150: 694f e0bd 1098 d73d cbf5 1b3d 53e9 1bbc
00000160: 9d2d 38bc 854e 293c aadd 14bc 3a74 34bd
00000170: 1848 03be cb91 0fbc ce9c 783d 37b3 493c
00000180: e90e f0bc 1925 be3d 2a7f 223e cf27 963d
00000190: 2e37 ae3c 8b5f 323d 2133 1ebc 9c73 5ebc
000001a0: 4f7e 3cbd e643 17bd f9d2 dc3c a760 56bd
000001b0: b4db 41bc 3491 d53c 3296 ac3c 73e7 b6bc
000001c0: 96f2 30bd 4701 a4bc bee1 50bd 8a5f a6bc
000001d0: e04f 743c f659 653d 33a7 173d d84e 083d
000001e0: 06a7 82bc 910c 383d b0c1 85bb a8ba 2e3c
000001f0: 20ae 49bb f0d6 f23d d7b0 2dbd 32c1 613d
00000200: 7536 d03d dcf5 1c3d 6d6a 063e 1948 a53d
00000210: 61d3 df3c a5b9 363c 2fcc 4ebd 9d5c af3d
00000220: 3def f83c d9c1 8abd fbb1 7cbc a716 be3d
00000230: c2fb ae3d 5efd 95bc 7adf dcbb cc8a 683c
00000240: 25a3 92bd 6192 18bd a997 013d 5197 c33c
00000250: fa7a 8a3a 8260 df3c 6275 14bd 5216 c8bb
00000260: f495 c9bd ae1e 0ebd e690 ae3d 83ee 903d
00000270: cbe7 c4bc 9749 fcbd b5a2 4f3d 24a7 fd3b
00000280: 9859 9a3d 16ed 9d3d f83d 8f3c 32b2 fa3c
00000290: 6df8 9abd eb15 edbd a879 edbc 8506 8bbc
000002a0: c6f6 cf3d 2781 323d 48c1 2cbe 560a 463d
000002b0: 091a f83c 1c25 9d3d bb2e eb3c 76e3 c1bd
000002c0: 9c46 783d 9aec 0b3e d3df 8b3d 20bb c93c
000002d0: 425d e43c da8e bcbd a944 bdbd f9e3 5dbd
000002e0: c0db 39bd c968 3cbd 94e6 53bd 6960 7dbc
000002f0: 1769 16bd 5693 57bd 9f0e b2bd 11d0 acbc
00000300: 6ebd 2c3d c250 963c 61f4 19bd ee41 6b3d
00000310: 80fb 09bd 3169 b63c d3c0 323d 3fbe 913c
00000320: b1e9 48bd bafb b83c faca b33d 7bb9 2e3d
00000330: 1b63 253d 71bf 103c 365f 99bc 26a3 9dbc
00000340: cc3a 023d 3785 c23c fe49 c3bc d47d 8d3c
00000350: 2d06 103d ce55 77bd bdd8 47bd 51fa e3bd
00000360: 333d d0bc 869b 693c b837 473d 5cf5 c53c
00000370: f4ab d63b 58d0 093d 93a7 d2bc 2a85 863c
00000380: cc51 3a3d 9835 043d 8c92 a73d 26a2 c53d
00000390: 0645 fa3a 77d2 b43d 1e83 613d 088c 68bd
000003a0: 7e22 2dbe 5758 f9bd 46e6 fcbc 50aa 0d3c
000003b0: c5e9 0ebd 0296 243c a26f 4abd a072 863d
000003c0: f66f 22be 0abe 81bc 8c14 b0bd eb50 9abd
000003d0: f0bf a93c 7fc2 2c3d 8119 433d 54f9 dc3a
000003e0: d86c 3f3d 3d05 f63d c7f7 0b3e 880c 0d3e
000003f0: f9fa 203d 9ac1 cdbd 3a6e 7ebd 151e e93d

convnet.c5.bias f4 [120]
0.008313427 -0.010856923 0.02950879 -0.021083565 0.06224249 0.013254357 -0.05548975 -0.063507795
-0.02647756 0.022941712 -0.0062386654 0.015484623 -0.004849605 -0.04946717 -0.015811063 0.068561606
0.061204717 0.04491481 0.025088701 0.016706405 -0.025219688 0.02285784 0.01368393 -0.027388673
0.087232485 0.007085429 0.01613455 -0.018912433 -0.026424348 -0.0121253375 0.0046201074 0.074568234
-0.0063362992 -0.047315773 0.06550852 0.04808818 -0.026320059 -0.13201593 -0.04129646 0.045750536
-0.025243107 -0.03226107 0.026832953 0.10387411 -0.04543564 -0.003221515 0.08032096 0.085854545
-0.0072291577 0.00026039823 0.020153273 0.094849825 -0.032728285 -0.0455787 -0.01733083 0.02776106
-0.11287871 0.0213998 0.0021521242 0.03881237 -0.06682536 0.15125644 0.019669283 0.07866678
0.055288002 0.032134596 -0.057065148 -0.07526243 -0.05907396 -0.0024676875 -0.0090690795 2.6532522e-05
0.015521828 0.013450796 -0.010211918 -0.009031992 0.11964254 -0.06794928 -0.02701813 -0.0033033963
-0.0034041363 -0.02880975 0.014758419 -0.032902088 0.10543313 0.075775735 -0.044171516 0.09481196
0.0064568156 0.024322068 0.007020167 -0.06711791 0.0154539365 -0.00044208486 -0.016033955 -0.054127596
0.02306369 0.024862073 3.438603e-05 0.061305612 -0.033210725 -0.057382777 0.003193605 0.11545321
-0.036567975 0.07226859 -0.059248462 0.03695809 -0.003935965 0.090195164 0.010176433 -0.008863232
-0.009913875 -0.010441335 -0.001903433 0.0044333884 0.012526256 -0.012162754 0.014693497 0.06171524
00000000: 0a35 083c 3ce1 31bc 6bbc f13c 71b7 acbc
00000010: fbf1 7e3d cd28 593c 3849 63bd 6010 82bd
00000020: 78e7 d8bc 42f0 bb3c b86d ccbb 37b3 7d3c
00000030: 6fe9 9ebb 169e 4abd 3486 81bc 076a 8c3d
00000040: ccb1 7a3d 98f8 373d d286 cd3c dfdb 883c
00000050: 8599 cebc 5d40 bb3c 9032 603c 365e e0bc
00000060: f2a6 b23d e32c e83b 9b2c 843c 3fee 9abc
00000070: e077 d8bc 5aa9 46bc 4564 973b 3bb7 983d
00000080: bba0 cfbb 2fce 41bd 5529 863d 1df8 443d
00000090: 2a9d d7bc 2f2f 07be 7a26 29bd ea64 3b3d
000000a0: a2ca cebc 2f24 04bd c8d0 db3c f3bb d43d
000000b0: b91a 3abd 0e20 53bb 517f a43d 82d4 af3d
000000c0: 92e2 ecbb 0f86 8839 7a18 a53c a040 c23d
000000d0: 180e 06bd bbb0 3abd 63f9 8dbc 2a6b e33c
000000e0: f42c e7bd a24e af3c a70a 0d3b b8f9 1e3d
000000f0: bcdb 88bd f8e2 1a3e 7a21 a13c 0c1c a13d
00000100: ac75 623d 919f 033d 25bd 69bd 3023 9abd
00000110: 89f7 71bd edb8 21bb 7a96 14bc 2892 de37
00000120: 444f 7e3c ba60 5c3c e34f 27bc ecfa 13bc
00000130: 2607 f53d fe28 8bbd 2055 ddbc cb7d 58bb
00000140: ee17 5fbb 6d02 ecbc 4ccd 713c 57c4 06bd
00000150: 53ed d73d 4f30 9b3d 31ed 34bd c62c c23d
00000160: b293 d33b 133f c73c 6e09 e63b 1d75 89bd
00000170: 8232 7d3c a0c7 e7b9 a459 83bc e6b4 5dbd
00000180: 10f0 bc3c 8cab cb3c b839 1038 981b 7b3d
00000190: f807 08bd 340a 6bbd cd4b 513b bc72 ec3d
000001a0: 4dc8 15bd 8e01 943d 84ae 72bd 5e61 173d
000001b0: 44f9 80bb 3eb8 b83d 0ebb 263c 1737 11bc
000001c0: ce6d 22bc 2212 2bbc 9d7c f9ba f545 913b
000001d0: ed3a 4d3c 4a46 47bc febc 703c 1fc9 7c3d

fc.f6.weight f4 [84, 120]
-0.02787652 -0.020396153 -0.006206171 0.13949777 0.1474658 -0.004682381 -0.06186053 0.07176842
-0.002627845 -0.05268993 0.013996989 -0.106075756 -0.028396914 0.03173829 0.02914691 0.09905203
0.12695648 0.066119626 -0.028453084 0.013303901 -0.08264395 0.21248578 0.11964727 -0.09022102
-0.11158546 0.07150122 -0.123869166 0.15294869 0.14136802 -0.052173883 0.09558741 0.10709987
0.104878604 -0.08563238 -0.08824811 -0.21390061 0.0029441696 -0.057083216 0.014389694 0.16457497
0.043869812 -0.081342235 0.0955156 0.13811983 0.101223 0.02843241 0.07455348 -0.028044736
0.05756411 0.14577134 0.0044860956 -0.10267973 -0.03762361 -0.065633394 -0.0024195272 0.061331052
0.12735023 -0.052442778 0.05217412 0.09115215 -0.03580193 0.06108196 -0.104237944 0.022451906
0.151623 0.019419992 0.084972814 0.024131972 0.054610718 0.12398715 0.031365402 0.15848526
0.011816124 -0.0332558 -0.06177537 -0.02922353 0.04606139 -0.27583885 -0.0029419514 -0.05260934
0.103288196 -0.04086137 -0.090451024 -0.07169967 0.10806958 0.076483265 0.14133354 0.07218427
-0.06702595 0.08987382 -0.0027737704 -0.053722505 0.06890686 0.011698806 -0.05664791 0.09803481
0.00899112 0.05298499 -0.11884853 0.11470409 -0.048235428 -0.0042733764 -0.018678226 0.033726953
0.06753337 0.09611611 -0.07608579 0.0109883165 -0.02071404 0.046830583 0.022942586 0.052075416
0.066907644 0.18518949 -0.00411403 0.09742052 0.028007522 -0.23033002 0.05087945 0.20657502
-0.07537093 -0.0320423 -0.05601361 -0.10999733 -0.022464164 0.11046584 0.15133025 -0.0077848583
0.054691553 -0.039971277 -0.011952108 -0.06915569 -0.14168769 -0.043105308 -0.18935359 0.05812654
-0.09887324 0.021542912 -0.010247995 0.054232933 0.008762414 -0.08882491 0.0032724284 0.016506292
0.10344983 0.1269733 0.030734304 0.012204232 0.15660983 -0.043929998 -0.013446282 -0.031807132
0.11655258 0.10851033 0.034577485 0.020445812 -0.0058047865 -0.0960495 -0.0054544536 -0.0032560213
0.03366954 0.07637967 0.024802826 0.0372082 0.04018674 0.072909236 0.03077791 0.14927588
0.0031934655 0.053777635 0.09382667 0.003485374 -0.04330314 -0.049108878 -0.07142051 0.09095439
-0.07318443 -0.10448432 0.04331082 -0.084388524 0.029473336 0.22642098 -0.071961865 0.1906361
0.06916214 -0.04165309 -0.095864765 -0.22999276 -0.006988037 0.09026127 0.11384055 -0.09400659
0.00094978657 0.20740165 -0.026100026 0.03788206 0.008619687 0.14640626 0.09565536 0.045088373
0.1107435 -0.025806226 -0.060350943 0.047078464 0.10359821 0.04696149 0.014298013 0.06162261
0.001961984 0.08968611 0.13208243 0.042947803 -0.0015178124 0.068503916 -0.080008686 0.06516036
0.21378516 0.11715746 -0.06158273 -0.12508437 -0.060624696 0.063989386 0.032960303 -0.026106367
0.018938355 0.11059051 0.05879246 0.10492331 -0.06371942 0.020126827 0.032969166 -0.022141686
0.012461477 -0.1735683 -0.03229729 0.13117397 0.032181457 0.20554316 -0.047130253 -0.016826957
-0.005276665 0.08181619 -0.038839146 0.023784509 0.012044368 0.07687884 0.08674629 -0.028090091
-0.09844472 0.06713864 -0.11481311 0.02196269 -0.04415678 0.023009421 -0.00050212134 -0.063337505
00000000: 4d5d e4bc d515 a7bc 235d cbbb 81d8 0e3e
00000010: 4601 173e a96e 99bb 7861 7dbd 52fb 923d
00000020: ec37 2cbb 65d1 57bd a053 653c 3f3e d9bd
00000030: a5a0 e8bc 0200 023d 80c5 ee3c cadb ca3d
00000040: e100 023e ba69 873d 7116 e9bc 9bf8 593c
00000050: 3b41 a9bd df95 593e a109 f53d ccc5 b8bd
00000060: eb86 e4bd 3b6f 923d 1eaf fdbd 959e 1c3e
00000070: c7c2 103e 48b4 55bd 55c3 c33d 2d57 db3d
00000080: 98ca d63d 0760 afbd 6dbb b4bd c308 5bbe
00000090: f8f2 403b 17d0 69bd c0c2 6b3c 5786 283e
000000a0: d5b0 333d c296 a6bd af9d c33d 496f 0d3e
000000b0: 014e cf3d 16eb e83c 7faf 983d 13be e5bc
000000c0: 58c8 6b3d 1545 153e 1900 933b c049 d2bd
000000d0: 371b 1abd cd6a 86bd ee90 1ebb 4536 7b3d
000000e0: 1968 023e 3dce 56bd 88b4 553d faad ba3d
000000f0: 0ba5 12bd 1431 7a3d b47a d5bd 0fed b73c
00000100: 0f43 1b3e ad16 9f3c 3a06 ae3d 6ab0 c53c
00000110: 7daf 5f3d faec fd3d 0279 003d f649 223e
00000120: 6b98 413c 3c37 08bd 2c08 7dbd 2f66 efbc
00000130: deaa 3c3d c03a 8dbe c1cd 40bb e47c 57bd
00000140: c388 d33d 405e 27bd 633e b9bd 47d7 92bd
00000150: 9553 dd3d 42a3 9c3d bdb9 103e 59d5 933d
00000160: e744 89bd c40f b83d 25c8 35bb 210c 5cbd
00000170: 0a1f 8d3d 59ac 3f3c a407 68bd 79c6 c83d
00000180: 7e4f 133c ca06 593d dc66 f3bd fae9 ea3d
00000190: 8392 45bd ae07 8cbb 1403 99bc 4625 0a3d
000001a0: ef4e 8a3d 86d8 c43d ded2 9bbd 5708 343c
000001b0: 7eb0 a9bc 6dd1 3f3d 17f2 bb3c 084d 553d
000001c0: e006 893d 50a2 3d3e fcce 86bb 6984 c73d
000001d0: 0870 e53c a2db 6bbe f866 503d 6788 533e
000001e0: 135c 9abd c93e 03bd 876e 65bd 4846 e1bd
000001f0: c406 b8bc ea3b e23d 51f6 1a3e 2018 ffbb
00000200: 4004 603d ecb8 23bd c6d2 43bc 80a1 8dbd
00000210: 9416 11be 318f 30bd e8e5 41be 1816 6e3d
00000220: 0e7e cabd c37a b03c 35e7 27bc 5a23 5e3d
00000230: 3a90 0f3c d6e9 b5bd 3d76 563b 3438 873c
00000240: 81dd d33d 4a05 023e 82c6 fb3c 42f4 473c
00000250: 545e 203e f1ef 33bd cb4d 5cbc 3248 02bd
00000260: 1eb3 ee3d aa3a de3d 1fa1 0d3d fa7d a73c
00000270: 1436 bebb 9ab5 c4bd 46bb b2bb f962 55bb
00000280: 12e9 093d f26c 9c3d 4c2f cb3c a067 183d
00000290: da9a 243d 7051 953d f521 fc3c c7db 183e
000002a0: 7649 513b f045 5c3d 3228 c03d df6a 643b
000002b0: a25e 31bd 6426 49bd eb44 92bd 4c46 ba3d
000002c0: b8e1 95bd e0fb d5bd b066 313d e4d3 acbd
000002d0: 1172 f13c e7da 673e be60 93bd 1c36 433e
000002e0: e1a4 8d3d 6e9c 2abd bf54 c4bd 3983 6bbe
000002f0: e7fb e4bb e7da b83d 3c25 e93d 8786 c0bd
00000300: 19fb 783a 1961 543e b9cf d5bc 382a 1b3d
00000310: 9639 0d3c 86eb 153e f5e6 c33d 96ae 383d
00000320: 7dcd e23d 9467 d3bc 8d32 77bd 59d5 403d
00000330: 4c2b d43d b15a 403d 3742 6a3c fd67 7c3d
00000340: a194 003b 5aad b73d 9e40 073e 09ea 2f3d
00000350: 55f1 c6ba c84b 8c3d 98db a3bd cb72 853d
00000360: 7fea 5a3e 40f0 ef3d 2c3e 7cbd 1e16 00be
00000370: 9a51 78bd de0c 833d 6201 073d 05dd d5bc
00000380: 9c24 9b3c 477d e23d 5dd0 703d 08e2 d63d
00000390: 547f 82bd 04e1 a43c ad0a 073d 7b62 b5bc
000003a0: 392b 4c3c e3bb 31be 2a4a 04bd 7852 063e
000003b0: b4d0 033d e879 523e a70b 41bd b0d8 89bc
000003c0: e0e7 acbb 3f8f a73d cc15 1fbd bbd7 c23c
000003d0: be55 453c a772 9d3d 0aa8 b13d 311d e6bc
000003e0: 639d c9bd fc7f 893d 2323 ebbd 19eb b33c
000003f0: bddd 34bd 417e bc3c cba0 03ba 18b7 81bd

fc.f6.bias f4 [84]
0.10815109 0.13781446 0.036577035 -0.003549636 -0.0052547767 0.13695472 0.0021151344 -0.040269125
0.16613714 0.1366794 -0.08392742 -0.081660815 0.00068096607 0.0065529 -0.052582346 0.1028969
0.015841167 0.018832833 0.05031064 -0.0941246 -0.01982471 0.0280211 0.009945066 0.068202406
0.0026090106 0.05618725 0.13394406 0.049197823 0.019965956 0.11828038 0.1271491 -0.14190808
-0.06891197 0.12216182 -0.022031354 0.054829687 -0.042649195 0.06211665 0.07869529 0.10788373
0.017557679 -0.06703483 -0.0046775225 0.010496511 -0.0905599 -0.077174194 -0.05859435 -0.009136673
0.010621376 -0.08943403 0.017336562 0.036465634 0.05365061 0.020958867 0.071452 -0.037435785
-0.020276586 0.12277237 -0.025235116 0.09281662 0.087623686 0.0031829851 -0.08383005 0.117377765
0.07072795 0.08399643 -0.03324391 0.024960445 -0.042086158 0.06929156 -0.036032964 -0.024033679
-0.07357867 0.11916177 0.026749542 0.007185845 0.07068067 0.065981 0.018459154 0.03642481
0.11606581 0.06564402 -0.060273368 -0.019128317
00000000: 527e dd3d 3c1f 0d3e cdd1 153d 03a1 68bb
00000010: 4330 acbb dc3d 0c3e 119e 0a3b 3df1 24bd
00000020: db1f 2a3e aff5 0b3e 24e2 abbd c93d a7bd
00000030: dc82 323a b6b9 d63b 9660 57bd 9cbb d23d
00000040: 56c5 813c 5047 9a3c 8812 4e3d 66c4 c0bd
00000050: 6e67 a2bc 828c e53c a1f0 223c b4ad 8b3d
00000060: effb 2a3b 9a24 663d a228 093e a883 493d
00000070: a58f a33c fc3c f23d 6033 023e 5a50 11be
00000080: b821 8dbd fa2f fa3d 197b b4bc 1895 603d
00000090: ecb0 2ebd 076e 7e3d ff2a a13d 25f2 dc3d
000000a0: 1fd5 8f3c 8f49 89bd e745 99bb 8ff9 2b3c
000000b0: 7877 b9bd 810d 9ebd a100 70bd fcb1 15bc
000000c0: 4805 2e3c 3029 b7bd 6805 8e3c fd5c 153d
000000d0: bec0 5b3d eeb1 ab3c 6d55 923d 4456 19bd
000000e0: 151b a6bc 1570 fb3d e0b9 cebc a416 be3d
000000f0: 0c74 b33d a199 503b 17af abbd c163 f03d
00000100: d1d9 903d 5206 ac3d c42a 08bd d979 cc3c
00000110: 8962 2cbd bce8 8d3d 4d97 13bd 47e2 c4bc
00000120: 6ab0 96bd 160b f43d db21 db3c 3d77 eb3b
00000130: 07c1 903d 0c21 873d a737 973c 2e32 153d
00000140: e9b3 ed3d 5f70 863d 35e1 76bd fdb2 9cbc

fc.f7.weight f4 [10, 84]
0.035197705 -0.16501671 -0.111746274 -0.085255645 0.15471177 -0.10490939 0.06284718 -0.013275943
-0.15560324 -0.11108979 -0.021505484 -0.080178015 0.03002829 -0.14348765 0.0555721 0.03537945
0.094935544 0.06914187 -0.06872874 -0.21329278 0.16974275 -0.06379797 -0.010977599 -0.06977688
-0.020804856 -0.001729185 -0.015796568 -0.018532824 -0.13378987 -0.047264703 -0.13211669 -0.042587593
0.044037726 0.16794614 -0.09624329 -0.18887913 -0.054929163 0.09185563 0.12664689 -0.05987207
0.11411461 0.110707186 -0.059018437 0.15349072 -0.03484408 -0.13640384 -0.08273301 -0.004393079
0.030158645 -0.18767577 0.039832477 -0.034605786 0.05731572 -0.17866252 -0.11970428 0.037664004
-0.088184915 0.016279712 0.055312935 0.05811169 -0.101554446 -0.21134381 -0.009398724 0.19430107
-0.057281338 0.05368347 0.092320785 -0.14798878 -0.013752399 0.0053192717 -0.16338907 -0.04260443
-0.10094615 0.050329633 0.0114081865 0.03802975 -0.11520285 -0.21766442 -0.06797924 0.0422393
-0.1586588 0.0072076307 0.10852837 0.041554067 -0.24478368 0.08303843 0.16539977 -0.0264701
0.075457826 -0.07192286 0.054965727 -0.2014488 0.10345268 0.07962581 -0.062591724 -0.05759117
0.104194075 0.19714314 -0.18051608 0.22362195 0.06898323 0.11994214 -0.061416607 0.1753577
0.16381754 -0.16628017 -0.09388929 -0.10983734 -0.01502912 0.014744383 0.03574599 -0.1971698
-0.116889864 0.113780424 0.018895563 -0.11299347 -0.07044947 0.041055724 -0.21640526 0.06173565
-0.068596974 0.108899586 -0.079061575 0.15553722 -0.08351127 -0.0015625667 -0.10373398 -0.17895456
-0.036264513 0.07601256 -0.07970986 -0.14164075 -0.030801147 -0.25067818 0.1475408 -0.04635414
-0.08012103 -0.060882963 0.08976316 0.03218858 -0.03248955 0.10082135 0.06789478 0.15450248
0.15650195 -0.11400466 -0.055875067 -0.053185955 -0.19363762 -0.20303231 0.09976797 -0.11548287
-0.046484336 -0.1644765 0.05782935 -0.29238072 -0.061085787 0.19873549 -0.20541048 -0.054516815
0.09791221 -0.08907988 0.020624246 -0.10556308 -0.019451274 -0.19250715 -0.04641493 -0.17810474
0.025996402 -0.14575922 0.06979229 0.16658583 0.008833108 -0.12498703 0.056942698 -0.14147677
-0.049825978 0.0017458231 -0.043986615 -0.0023740805 -0.31307063 0.12330852 -0.08505003 -0.025351431
-0.1261596 -0.08068595 0.105114475 0.082785465 0.046953227 -0.17531516 0.14936996 -0.009274019
-0.11154854 0.06554325 -0.21026489 0.107178725 0.07590699 -0.16505745 -0.00772684 -0.055706713
-0.11420114 0.123202994 -0.00647442 0.15610707 -0.02665978 -0.08809131 0.08654998 -0.12115501
-0.13318112 0.033458564 0.15392062 -0.12690087 -0.089857064 -0.19790675 0.03756768 0.16565584
0.06533087 -0.034010157 0.04973669 0.15067333 0.0912437 -0.07132487 0.04425072 -0.12710866
-0.08865243 0.020675933 0.036947954 -0.14458837 -0.004358222 0.044849284 -0.07660164 0.13222638
0.14600195 0.030554663 -0.07720886 -0.05212856 0.047562853 -0.04342552 -0.0045487653 -0.04575356
-0.052358754 -0.15970315 0.15074901 0.1387913 -0.09159202 0.10142271 0.06273706 0.05084844
-0.1561011 -0.109347425 -0.052461635 0.09290108 0.07685323 -0.13451093 -0.14698595 0.02036458
00000000: 782b 103d 24fa 28be 3bdb e4bd 839a aebd
00000010: c36c 1e3e bcda d6bd 06b6 803d 5783 59bc
00000020: 7556 1fbe 0b83 e3bd 452c b0bc 5f34 a4bd
00000030: e3fd f53c 6dee 12be 929f 633d 0bea 103d
00000040: 916d c23d 419a 8d3d a7c1 8cbd 6c69 5abe
00000050: 0bd1 2d3e 83a8 82bd 63db 33bc 2ee7 8ebd
00000060: f26e aabc d2a5 e2ba ce67 81bc 26d2 97bc
00000070: 3600 09be a298 41bd 9949 07be 5470 2ebd
00000080: e760 343d 13fa 2b3e 341b c5bd 8869 41be
00000090: 67fd 60bd ce1e bc3d b9af 013e 6a3c 75bd
000000a0: ecb4 e93d 73ba e23d 51bd 71bd ac2c 1d3e
000000b0: abb8 0ebd 73ad 0bbe ed6f a9bd d1f3 8fbb
000000c0: 430f f73c 142e 40be 6127 233d ccbe 0dbd
000000d0: e3c3 6a3d 4ff3 36be 8427 f5bd 9245 1a3d
000000e0: 4b9a b4bd 085d 853c d18f 623d 8606 6e3d
000000f0: c7fb cfbd 836a 58be 1bfd 19bc dcf6 463e
00000100: d69f 6abd 33e3 5b3d ae12 bd3d 5f8a 17be
00000110: be51 61bc 494d ae3b 774f 27be fc81 2ebd
00000120: dbbc cebd 7226 4e3d 67e9 3a3c 15c5 1b3d
00000130: 79ef ebbd 6ce3 5ebe b338 8bbd 1e03 2d3d
00000140: 7477 22be fd2d ec3b 1f44 de3d 9934 2a3d
00000150: 93a8 7abe 0d10 aa3d 8f5e 293e d3d7 d8bc
00000160: a289 9a3d 4b4c 93bd be23 613d 9848 4ebe
00000170: 00df d33d db12 a33d 1730 80bd b8e4 6bbd
00000180: b463 d53d e4df 493e 35d9 38be 27fd 643e
00000190: 1447 8d3d 3aa4 f53d fb8f 7bbd f890 333e
000001a0: c9bf 273e 5945 2abe 0749 c0bd 66f2 e0bd
000001b0: b33c 76bc 6d92 713c 636a 123d e1e6 49be
000001c0: f463 efbd b605 e93d deca 9a3c 1f69 e7bd
000001d0: d047 90bd 0c2a 283d 5799 5dbe 85de 7c3d
000001e0: 927c 8cbd bf06 df3d 09eb a1bd 2645 1f3e
000001f0: f507 abbd 0acf ccba 7b72 d4bd dd3f 37be
00000200: 198a 14bd 79ac 9b3d ec3e a3bd 460a 11be
00000210: b052 fcbc e458 80be ef14 173e d7dd 3dbd
00000220: 7f16 a4bd 6a60 79bd bfd5 b73d 2cd8 033d
00000230: c313 05bd 6d7b ce3d 6b0c 8b3d e635 1e3e
00000240: 0c42 203e 467b e9bd 41dd 64bd 84d9 59bd
00000250: f148 46be b4e7 4fbe 2653 cc3d 4882 ecbd
00000260: 5c66 3ebd 876c 28be 78de 6c3d edb2 95be
00000270: 1735 7abd 5181 4b3e 2057 52be 064d 5fbd
00000280: 3286 c83d 836f b6bd 2ef4 a83c 7531 d8bd
00000290: 4758 9fbc 9820 45be 951d 3ebd 1761 36be
000002a0: 68f6 d43c e841 15be 43ef 8e3d 7a95 2a3e
000002b0: bdb8 103c 33f9 ffbd bf3c 693d 49df 10be
000002c0: 5316 4cbd 1ad4 e43a 4f2b 34bd 7696 1bbb
000002d0: cb4a a0be 2d89 fc3d b62e aebd cead cfbc
000002e0: fb2f 01be ad3e a5bd 4246 d73d 6d8b a93d
000002f0: 0752 403d d185 33be 70f4 183e 0ef2 17bc
00000300: 9073 e4bd 8a3b 863d ae4f 57be 8580 db3d
00000310: 2075 9b3d d204 29be 6f31 fdbb b92c 64bd
00000320: 4ae2 e9bd da51 fc3d 5f27 d4bb 88da 1f3e
00000330: 9c65 dabc 3769 b4bd 1e41 b13d 1e20 f8bd
00000340: a260 08be d90b 093d 5e9d 1d3e 4df2 01be
00000350: fb06 b8bd 11a8 4abe 91e0 193d afa1 293e
00000360: 31cc 853d 3c4e 0bbd b3b8 4b3d 1c4a 1a3e
00000370: fadd ba3d c612 92bd 3e40 353d c628 02be
00000380: 688f b5bd 9360 a93c bd56 173d f90e 14be
00000390: 6acf 8ebb e2b3 373d 52e1 9cbd 5a66 073e
000003a0: 8981 153e c64d fa3c ae1f 9ebd c284 55bd
000003b0: 44d1 423d f5de 31bd cf0d 95bb 1668 3bbd
000003c0: 2276 56bd 3989 23be f35d 1a3e 4e1f 0e3e
000003d0: 9994 bbbd b6b6 cf3d 4a7c 803d 7446 503d
000003e0: f7d8 1fbe 8bf1 dfbd 03e2 56bd ec42 be3d
000003f0: 3a65 9d3d 3cbd 09be 7c83 16be 9fd3 a63c

fc.f7.bias f4 [10]
0.016667077 0.14855905 -0.04991454 0.009964403 -0.07765383 0.016338702 -0.11197813 0.054693393
-0.026595486 -0.011680715
00000000: 6589 883c dd1f 183e 3073 4cbd bc41 233c
00000010: f908 9fbd bed8 853c ca54 e5bd 2e06 603d
00000020: c7de d9bc 7860 3fbc
